symmetry-informed-flows/notebooks/damped-harmonic-oscillator-without-similarity-embedding-flow-weights.pth (torch, 101568 bytes, 120 tensors)

_transform._transforms.0.autoregressive_net.initial_layer.weight f4 [10, 2]
0	0xbf30b4d5	-0.6902593
1	0xbf2c05b0	-0.6719618
2	0x3f272870	0.6529608
3	0x3f052115	0.52003604
4	0x3f334249	0.7002302
5	0xbd88e984	-0.066851646
6	0xbef3f170	-0.4764514
7	0x3ef9b2a1	0.48769096
8	0x3ede0e1f	0.4337015
9	0x3bdea3a2	0.006794409
10	0x3fbbe2be	1.4678571
11	0xbefedb38	-0.49776626
12	0xbf4892f5	-0.7834924
13	0xbe105539	-0.1409501
14	0x3f6e68fc	0.93128943
15	0x3e43deee	0.1912801
16	0x3ed50e26	0.41612357
17	0xbebe2a23	-0.37141523
18	0xbe8d3a3c	-0.27583492
19	0x3e97018a	0.29493362

_transform._transforms.0.autoregressive_net.initial_layer.bias f4 [10]
0	0x3f4c7abf	0.79874796
1	0x3f575e9c	0.8412874
2	0xbef74b64	-0.48299706
3	0x3d8e4bbe	0.069480404
4	0xbe8c7875	-0.2743565
5	0xbf31249f	-0.69196504
6	0xbe9b3367	-0.30312654
7	0xbe05b7da	-0.13058415
8	0x3e24bb19	0.16086997
9	0x3dd7ec2a	0.105430916

_transform._transforms.0.autoregressive_net.initial_layer.mask f4 [10, 2]
0	0x3f800000	1.0
1	0x00000000	0.0
2	0x3f800000	1.0
3	0x00000000	0.0
4	0x3f800000	1.0
5	0x00000000	0.0
6	0x3f800000	1.0
7	0x00000000	0.0
8	0x3f800000	1.0
9	0x00000000	0.0
10	0x3f800000	1.0
11	0x00000000	0.0
12	0x3f800000	1.0
13	0x00000000	0.0
14	0x3f800000	1.0
15	0x00000000	0.0
16	0x3f800000	1.0
17	0x00000000	0.0
18	0x3f800000	1.0
19	0x00000000	0.0

_transform._transforms.0.autoregressive_net.context_layer.weight f4 [10, 3]
0	0x3e90bdfe	0.28269953
1	0x3e323c05	0.17405708
2	0x3f42463f	0.7588844
3	0x3de8fb19	0.11376018
4	0x3e8b3071	0.27185395
5	0x3f03597a	0.51308405
6	0xbf1ff24a	-0.6247908
7	0xbfc1c840	-1.5139236
8	0xbfa31360	-1.2740288
9	0x3f1594c5	0.5843013
10	0xbe5826e3	-0.21108584
11	0x3f0d8d29	0.5529352
12	0xbf4edb39	-0.8080326
13	0xbefdd5d0	-0.49577188
14	0xbfb2ecbf	-1.3978499
15	0x3e522d39	0.20525064
16	0x3f2514a4	0.6448462
17	0xbd260027	-0.04052749
18	0xbd21f222	-0.039537556
19	0xbfa1bb3a	-1.2635262
20	0xbe5c10a0	-0.21490717
21	0x3eb80f24	0.3594905
22	0x3ca2abcf	0.019857315
23	0x3ef552b9	0.47914675
24	0xbf7135a6	-0.94222486
25	0xbf5b3174	-0.85622334
26	0xbf83efe5	-1.0307585
27	0x3f47ebf1	0.78094393
28	0x3e4ca3ea	0.19984403
29	0x3d31d6dc	0.043417796

_transform._transforms.0.autoregressive_net.context_layer.bias f4 [10]
0	0x3ef372ad	0.47548428
1	0xbed42c26	-0.41439933
2	0xbe9474eb	-0.2899545
3	0x3df465c4	0.11933473
4	0x3e72f5a4	0.23726517
5	0xbebc46b5	-0.36772695
6	0x3ec5fc65	0.38669124
7	0x3eb93e39	0.36180285
8	0xbe96ed14	-0.2947775
9	0xbded6f04	-0.1159344

_transform._transforms.0.autoregressive_net.blocks.0.context_layer.weight f4 [10, 3]
0	0x3ec8755d	0.3915204
1	0x3fa78111	1.3086263
2	0x3f1f4fb7	0.6223101
3	0xbe02ab2a	-0.12760606
4	0xbfb86ceb	-1.4408239
5	0xbfc21d14	-1.5165124
6	0xbeb16bf5	-0.34652677
7	0xbf079948	-0.52968264
8	0xbf0dcc37	-0.5538973
9	0x3ed7a1a2	0.42115504
10	0x3f16476e	0.58702743
11	0xbe823872	-0.2543369
12	0xbe37308e	-0.17889616
13	0xbf70a8bb	-0.9400746
14	0xbf8b91ed	-1.0903908
15	0x3e23288c	0.15933436
16	0x3f89fb0f	1.0779742
17	0x3eb17038	0.3465593
18	0x3f2ceac1	0.67545706
19	0x3f720ac6	0.9454769
20	0x3f8e7aaa	1.1131184
21	0x3f7fba8f	0.9989404
22	0x3f5e23d5	0.86773425
23	0x3f740501	0.95320135
24	0xbe985ede	-0.29759878
25	0xbf2441b3	-0.6416275
26	0xbec1f90c	-0.3788532
27	0xbf41a7e2	-0.75646794
28	0xbefb3424	-0.49063218
29	0xbf41f028	-0.75757074

_transform._transforms.0.autoregressive_net.blocks.0.context_layer.bias f4 [10]
0	0xbe4c1100	-0.1992836
1	0xbd804256	-0.062626526
2	0x3f11baa6	0.5692543
3	0xbf0e7ccf	-0.5565919
4	0x3ee41157	0.4454448
5	0xbe24e643	-0.16103463
6	0xbe3836de	-0.1798968
7	0x3ea978d1	0.33099988
8	0x3def8daf	0.11696946
9	0x3eb33806	0.3500368

_transform._transforms.0.autoregressive_net.blocks.0.linear_layers.0.weight f4 [10, 10]
0	0x3f48a6d2	0.7837955
1	0xbddbde1e	-0.10735725
2	0xbedce813	-0.4314581
3	0xbe8a9066	-0.27063292
4	0xbd8f54e6	-0.06998615
5	0x3f4437ed	0.76647836
6	0xbd764d5b	-0.060132366
7	0x3e1789fe	0.14798734
8	0xbedf126e	-0.43568748
9	0x3e46ae4c	0.19402426
10	0xbd9b3f1d	-0.07580397
11	0x3e9ca9b1	0.30598214
12	0x3f905d99	1.1278564
13	0x3c59ff0f	0.01330544
14	0x3ebb7465	0.3661224
15	0x3e2f453c	0.17116255
16	0x3e62753f	0.22115038
17	0x3cd21d54	0.02564875
18	0x3f2e61fb	0.68118256
19	0xbf06a843	-0.52600497
20	0xbf6771cf	-0.90408033
21	0xbe7dd73e	-0.2478914
22	0x3e15fa42	0.14646247
23	0xbddab765	-0.10679511
24	0x3d6c8fe8	0.057754427
25	0xbf2fa394	-0.68608975
26	0x3e5a63cb	0.2132713
27	0xbe914b19	-0.28377607
28	0x3edecdc5	0.43516365
29	0xbefb850b	-0.4912494
30	0x3f457139	0.7712589
31	0xbdd74f3b	-0.10513159
32	0xbe3751d1	-0.17902304
33	0xbdb0c799	-0.0863182
34	0xbea5bbde	-0.32369894
35	0x3f13233b	0.5747563
36	0x3eb8cd75	0.3609425
37	0x3ea8305c	0.32849395
38	0x3e1ad71e	0.15121123
39	0xbe292a7e	-0.16520116
40	0x3da32301	0.07965661
41	0xbe70ce0c	-0.235161
42	0x3b0fdd2e	0.0021951902
43	0xbe60ed8c	-0.21965617
44	0x3de01a2a	0.109424904
45	0x3e89c2b7	0.26906368
46	0x3f0b0536	0.54304826
47	0xbea2e04c	-0.3181175
48	0x3e9dde5e	0.30833715
49	0x3d73e079	0.059540246
50	0xbe269e29	-0.16271271
51	0xbd6a6194	-0.057221964
52	0xbf2006c2	-0.6251031
53	0x3dbf7045	0.093475856
54	0xbd485ffd	-0.048919667
55	0xbe0cc1c9	-0.13745798
56	0xbebbe272	-0.36696202
57	0xbe2d399c	-0.16916507
58	0x3d7dbb74	0.061946347
59	0xbcd06b6c	-0.025441848
60	0xbe05985b	-0.130464
61	0x3df64f09	0.120267935
62	0xbf12b232	-0.57303154
63	0xbc85dd57	-0.016340895
64	0xbeb2bd79	-0.3491018
65	0x3c691ee5	0.014228557
66	0xbf042794	-0.5162289
67	0x3e4fd72a	0.20296922
68	0xbeac1404	-0.3360902
69	0xbe1fbe5b	-0.15599959
70	0xbe941005	-0.28918472
71	0xbe8ea49a	-0.27859956
72	0xbe77a1ef	-0.24182867
73	0x3e877a17	0.26460335
74	0xbd82e559	-0.06391401
75	0xbd1a45b9	-0.03766415
76	0xbeeb9716	-0.46013707
77	0xbea15ee0	-0.31517696
78	0xbe8c6cfa	-0.27426893
79	0xbe94105a	-0.28918725
80	0x3e12b70d	0.14327641
81	0x3e2397ab	0.15975825
82	0x3f102da4	0.5631964
83	0x3e812b37	0.25228283
84	0x3eaeef82	0.34167105
85	0x3e30b197	0.17255245
86	0x3f0f3faa	0.5595652
87	0xbe000997	-0.12503658
88	0x3e871ee1	0.26390746
89	0x3d7578c4	0.059929624
90	0xbb91578d	-0.0044354857
91	0x3e371624	0.1787954
92	0x3f0ee36e	0.5581578
93	0x3e522281	0.20520975
94	0xbe3166e9	-0.17324413
95	0x3d49f3cc	0.04930477
96	0x3eace46a	0.33768016
97	0xbdd98b3e	-0.106222615
98	0xbcd8cf27	-0.026465965
99	0x3e410c2c	0.188523

_transform._transforms.0.autoregressive_net.blocks.0.linear_layers.0.bias f4 [10]
0	0xbec32d0f	-0.38120314
1	0x3c94c149	0.018158572
2	0x3ebc8011	0.36816457
3	0x3d8310eb	0.06399711
4	0x3d03fed3	0.03222544
5	0x3e8066ac	0.25078332
6	0xbe9bd303	-0.30434427
7	0xbc8602b6	-0.016358715
8	0xb992287f	-0.00027877462
9	0x3b9e2943	0.004826696

_transform._transforms.0.autoregressive_net.blocks.0.linear_layers.0.mask f4 [10, 10]
0	0x3f800000	1.0
1	0x3f800000	1.0
2	0x3f800000	1.0
3	0x3f800000	1.0
4	0x3f800000	1.0
5	0x3f800000	1.0
6	0x3f800000	1.0
7	0x3f800000	1.0
8	0x3f800000	1.0
9	0x3f800000	1.0
10	0x3f800000	1.0
11	0x3f800000	1.0
12	0x3f800000	1.0
13	0x3f800000	1.0
14	0x3f800000	1.0
15	0x3f800000	1.0
16	0x3f800000	1.0
17	0x3f800000	1.0
18	0x3f800000	1.0
19	0x3f800000	1.0
20	0x3f800000	1.0
21	0x3f800000	1.0
22	0x3f800000	1.0
23	0x3f800000	1.0
24	0x3f800000	1.0
25	0x3f800000	1.0
26	0x3f800000	1.0
27	0x3f800000	1.0
28	0x3f800000	1.0
29	0x3f800000	1.0
30	0x3f800000	1.0
31	0x3f800000	1.0
32	0x3f800000	1.0
33	0x3f800000	1.0
34	0x3f800000	1.0
35	0x3f800000	1.0
36	0x3f800000	1.0
37	0x3f800000	1.0
38	0x3f800000	1.0
39	0x3f800000	1.0
40	0x3f800000	1.0
41	0x3f800000	1.0
42	0x3f800000	1.0
43	0x3f800000	1.0
44	0x3f800000	1.0
45	0x3f800000	1.0
46	0x3f800000	1.0
47	0x3f800000	1.0
48	0x3f800000	1.0
49	0x3f800000	1.0
50	0x3f800000	1.0
51	0x3f800000	1.0
52	0x3f800000	1.0
53	0x3f800000	1.0
54	0x3f800000	1.0
55	0x3f800000	1.0
56	0x3f800000	1.0
57	0x3f800000	1.0
58	0x3f800000	1.0
59	0x3f800000	1.0
60	0x3f800000	1.0
61	0x3f800000	1.0
62	0x3f800000	1.0
63	0x3f800000	1.0
64	0x3f800000	1.0
65	0x3f800000	1.0
66	0x3f800000	1.0
67	0x3f800000	1.0
68	0x3f800000	1.0
69	0x3f800000	1.0
70	0x3f800000	1.0
71	0x3f800000	1.0
72	0x3f800000	1.0
73	0x3f800000	1.0
74	0x3f800000	1.0
75	0x3f800000	1.0
76	0x3f800000	1.0
77	0x3f800000	1.0
78	0x3f800000	1.0
79	0x3f800000	1.0
80	0x3f800000	1.0
81	0x3f800000	1.0
82	0x3f800000	1.0
83	0x3f800000	1.0
84	0x3f800000	1.0
85	0x3f800000	1.0
86	0x3f800000	1.0
87	0x3f800000	1.0
88	0x3f800000	1.0
89	0x3f800000	1.0
90	0x3f800000	1.0
91	0x3f800000	1.0
92	0x3f800000	1.0
93	0x3f800000	1.0
94	0x3f800000	1.0
95	0x3f800000	1.0
96	0x3f800000	1.0
97	0x3f800000	1.0
98	0x3f800000	1.0
99	0x3f800000	1.0

_transform._transforms.0.autoregressive_net.blocks.0.linear_layers.1.weight f4 [10, 10]
0	0x3ee82bef	0.4534602
1	0xbdf041c9	-0.117312975
2	0xbf07cee3	-0.5305006
3	0x3e9a6875	0.3015782
4	0xbe0b3e15	-0.13597901
5	0x3d64ad95	0.055829603
6	0x3e6ccc14	0.23124725
7	0x3cd0b526	0.025477003
8	0xbdaef4b3	-0.085427664
9	0xbdde4c91	-0.10854448
10	0x3cc4f249	0.024041312
11	0xbd53d091	-0.051712576
12	0xbdeca819	-0.115554996
13	0x3d4f2bf7	0.050579038
14	0xbe4b8eaa	-0.19878641
15	0x3d8a96e6	0.06767063
16	0x3e2f10a2	0.17096189
17	0x3cd823a9	0.026384192
18	0xbdc632dd	-0.0967767
19	0xbe19e940	-0.15030384
20	0xbfc1ab2d	-1.5130364
21	0x3cfbe244	0.03074754
22	0x400bdbab	2.1852825
23	0xbf549667	-0.83041996
24	0x3f09fcad	0.5390118
25	0xbddeea63	-0.108845495
26	0xbf164366	-0.5869659
27	0xbe6f29b6	-0.23355755
28	0x3e761648	0.24031937
29	0x3ecb9297	0.39760277
30	0x3ea5bb7f	0.3236961
31	0x3edc55a3	0.43034086
32	0xbf2862de	-0.6577586
33	0x3ebbe1c7	0.36695692
34	0x3d42d4c9	0.04756621
35	0xbe9d5b4a	-0.3073371
36	0xbe929146	-0.2862646
37	0xbea351b7	-0.3189828
38	0x3e8e5a44	0.27803242
39	0xbd371f04	-0.044707313
40	0xbccc16a1	-0.024913134
41	0xbe45107d	-0.19244571
42	0x3e7c75d9	0.2465433
43	0xbe0684c7	-0.13136588
44	0xbd349221	-0.044084672
45	0x3df84338	0.12122196
46	0x3dc0dc84	0.0941706
47	0x3da6c900	0.081438065
48	0xbdcd24ec	-0.10016808
49	0x3a7cc184	0.0009641873
50	0xbf93357e	-1.15007
51	0xbe96b8c9	-0.29437855
52	0x3ff7921b	1.9341463
53	0xbf6c6e44	-0.9235575
54	0xbf041c60	-0.51605797
55	0x3e6e4ac0	0.23270702
56	0x3ed891c9	0.42298725
57	0x3eaf6d79	0.34263209
58	0xbe853dab	-0.2602361
59	0xbeb5668c	-0.354298
60	0x3eb17278	0.34657645
61	0xbed18909	-0.40924862
62	0xbef1914b	-0.47181162
63	0xbe058a70	-0.13041091
64	0xbdb3958b	-0.087687574
65	0x3ea77f35	0.3271424
66	0x3ec813b1	0.39077523
67	0x3ecacff5	0.39611784
68	0xbe975987	-0.2956049
69	0xbd753a25	-0.059869904
70	0xbd04a3cb	-0.032382768
71	0x3d5af19e	0.05345308
72	0x3da6e405	0.0814896
73	0x3d4f26f1	0.050574247
74	0xbdeeca6b	-0.11659702
75	0xbc38f782	-0.011289479
76	0x3cf14fe9	0.02945705
77	0xbda96f33	-0.08273163
78	0xbbcee7ba	-0.006314245
79	0xbdba60f6	-0.09100525
80	0x3ccf6244	0.025315411
81	0x3d14d6ac	0.03633754
82	0x3e8f353b	0.279703
83	0x3e0d5a37	0.13803945
84	0xba7b47eb	-0.0009585607
85	0xbdb8c9ad	-0.090228416
86	0xbd4a8f88	-0.04945329
87	0xbe0f6cf7	-0.1400641
88	0x3da4ca0f	0.08046352
89	0xbac76b9c	-0.0015214565
90	0x3ebbc4f8	0.36673713
91	0x3db62dfd	0.0889549
92	0xbee71db0	-0.45139837
93	0x3eb87b4a	0.36031562
94	0x3d08f474	0.033436254
95	0xbd9a4c71	-0.07534111
96	0x3d06e48b	0.0329328
97	0xbdbe0407	-0.09278112
98	0x3d66aa9b	0.056315046
99	0xbde9ef08	-0.11422545

_transform._transforms.0.autoregressive_net.blocks.0.linear_layers.1.bias f4 [10]
0	0x3deaf7be	0.11473034
1	0x3e4dc62a	0.20095125
2	0x3e35307c	0.17694277
3	0x3e8af824	0.2714244
4	0xbe29337f	-0.1652355
5	0x3d9737e3	0.073837064
6	0xbea7faa6	-0.32808417
7	0x3e8520d5	0.2600161
8	0x3d62fddf	0.05541789
9	0x3e083953	0.13303117

_transform._transforms.0.autoregressive_net.blocks.0.linear_layers.1.mask f4 [10, 10]
0	0x3f800000	1.0
1	0x3f800000	1.0
2	0x3f800000	1.0
3	0x3f800000	1.0
4	0x3f800000	1.0
5	0x3f800000	1.0
6	0x3f800000	1.0
7	0x3f800000	1.0
8	0x3f800000	1.0
9	0x3f800000	1.0
10	0x3f800000	1.0
11	0x3f800000	1.0
12	0x3f800000	1.0
13	0x3f800000	1.0
14	0x3f800000	1.0
15	0x3f800000	1.0
16	0x3f800000	1.0
17	0x3f800000	1.0
18	0x3f800000	1.0
19	0x3f800000	1.0
20	0x3f800000	1.0
21	0x3f800000	1.0
22	0x3f800000	1.0
23	0x3f800000	1.0
24	0x3f800000	1.0
25	0x3f800000	1.0
26	0x3f800000	1.0
27	0x3f800000	1.0
28	0x3f800000	1.0
29	0x3f800000	1.0
30	0x3f800000	1.0
31	0x3f800000	1.0
32	0x3f800000	1.0
33	0x3f800000	1.0
34	0x3f800000	1.0
35	0x3f800000	1.0
36	0x3f800000	1.0
37	0x3f800000	1.0
38	0x3f800000	1.0
39	0x3f800000	1.0
40	0x3f800000	1.0
41	0x3f800000	1.0
42	0x3f800000	1.0
43	0x3f800000	1.0
44	0x3f800000	1.0
45	0x3f800000	1.0
46	0x3f800000	1.0
47	0x3f800000	1.0
48	0x3f800000	1.0
49	0x3f800000	1.0
50	0x3f800000	1.0
51	0x3f800000	1.0
52	0x3f800000	1.0
53	0x3f800000	1.0
54	0x3f800000	1.0
55	0x3f800000	1.0
56	0x3f800000	1.0
57	0x3f800000	1.0
58	0x3f800000	1.0
59	0x3f800000	1.0
60	0x3f800000	1.0
61	0x3f800000	1.0
62	0x3f800000	1.0
63	0x3f800000	1.0
64	0x3f800000	1.0
65	0x3f800000	1.0
66	0x3f800000	1.0
67	0x3f800000	1.0
68	0x3f800000	1.0
69	0x3f800000	1.0
70	0x3f800000	1.0
71	0x3f800000	1.0
72	0x3f800000	1.0
73	0x3f800000	1.0
74	0x3f800000	1.0
75	0x3f800000	1.0
76	0x3f800000	1.0
77	0x3f800000	1.0
78	0x3f800000	1.0
79	0x3f800000	1.0
80	0x3f800000	1.0
81	0x3f800000	1.0
82	0x3f800000	1.0
83	0x3f800000	1.0
84	0x3f800000	1.0
85	0x3f800000	1.0
86	0x3f800000	1.0
87	0x3f800000	1.0
88	0x3f800000	1.0
89	0x3f800000	1.0
90	0x3f800000	1.0
91	0x3f800000	1.0
92	0x3f800000	1.0
93	0x3f800000	1.0
94	0x3f800000	1.0
95	0x3f800000	1.0
96	0x3f800000	1.0
97	0x3f800000	1.0
98	0x3f800000	1.0
99	0x3f800000	1.0

_transform._transforms.0.autoregressive_net.blocks.1.context_layer.weight f4 [10, 3]
0	0xbdf45dab	-0.11931928
1	0x3f931a52	1.1492407
2	0x3f5ae2e4	0.8550246
3	0x3eb56ff1	0.35436967
4	0x3e9b2883	0.30304345
5	0x3f0259f5	0.50918514
6	0x3f254ff6	0.64575136
7	0xbf751ab1	-0.9574385
8	0xbf64ead3	-0.89420813
9	0x3f0aa5c8	0.5415921
10	0xbf8df70b	-1.1091017
11	0xbe1c8108	-0.15283597
12	0x3e63c5c4	0.2224341
13	0xbf945810	-1.1589375
14	0xbe8a1973	-0.2697254
15	0x3d23a3b1	0.03995103
16	0x3f80c98b	1.0061506
17	0x3f0dd88e	0.5540856
18	0xbe5dd4a1	-0.21663143
19	0x3f2c8509	0.67390496
20	0x3f030703	0.51182574
21	0xbefead35	-0.4974152
22	0xbea5aa47	-0.32356474
23	0xbf3ceca6	-0.73798597
24	0xbef75807	-0.48309347
25	0x3f3f852b	0.74812573
26	0x3ec29e94	0.3801161
27	0x3e9e99dd	0.30976763
28	0xbf4c36ef	-0.7977132
29	0x3d7758d2	0.06038744

_transform._transforms.0.autoregressive_net.blocks.1.context_layer.bias f4 [10]
0	0xbe8624bd	-0.26199904
1	0x3ea6e354	0.32595313
2	0xbe036dd2	-0.12834862
3	0xbdbd7d2e	-0.09252392
4	0xbea61f9b	-0.32445988
5	0x3eab1150	0.33411646
6	0x3e4db8d3	0.20090036
7	0x3f034693	0.5127956
8	0x3ef2ed82	0.4744683
9	0xbf1e2fcb	-0.61791676

_transform._transforms.0.autoregressive_net.blocks.1.linear_layers.0.weight f4 [10, 10]
0	0x3f2502ec	0.64457583
1	0xbdb95626	-0.09049635
2	0x3e27e4d0	0.16395879
3	0xbd193b79	-0.037410233
4	0xbdca7466	-0.098854825
5	0x3ec28e48	0.37999177
6	0xbe4165f5	-0.1888655
7	0xbe1de8a2	-0.15420774
8	0x3e3f3f5e	0.18676516
9	0x3ebd7fa4	0.37011445
10	0x3e6d86ff	0.23196028
11	0xbe896227	-0.26832697
12	0x3ebaae38	0.36461043
13	0xbe3a4608	-0.18190777
14	0x3e1e96c5	0.15487202
15	0xbed8d6f0	-0.42351484
16	0xbceb6d0d	-0.028738523
17	0x3dac33b5	0.084083
18	0x3e55d54d	0.20882149
19	0xbd818d66	-0.06325798
20	0x3ea5a069	0.32348946
21	0xbc6897ca	-0.014196346
22	0x3bb4bed7	0.005515914
23	0xbe546e52	-0.20745209
24	0x3edae874	0.42755473
25	0x3e8744e3	0.26419744
26	0xbea71c13	-0.32638606
27	0xbdeaed11	-0.11470998
28	0xbd8f6d6e	-0.07003294
29	0xbe7aa6a9	-0.24477638
30	0xbcb8d553	-0.022562658
31	0xbd70e648	-0.058813363
32	0xbd8d11b6	-0.06888144
33	0x3dd46768	0.10371286
34	0x3e910bad	0.2832922
35	0x3d940372	0.0722722
36	0xbe4e9949	-0.20175661
37	0xbe90f621	-0.2831278
38	0xbe82e511	-0.2556539
39	0xbd96714c	-0.073458284
40	0x3f0f56da	0.559919
41	0xbdb640fc	-0.088991135
42	0x3e8c9c1e	0.27462858
43	0x3e237629	0.15963043
44	0x3db1613f	0.08661126
45	0x3ef5bb07	0.47994253
46	0xbddd39b0	-0.10802019
47	0x3c4d495d	0.012529698
48	0xbe143f1a	-0.14477196
49	0x3ebfe507	0.37479421
50	0xbed3854c	-0.41312635
51	0xbe5df4ed	-0.21675463
52	0xbe88f258	-0.26747394
53	0x3d89500e	0.06704722
54	0x3e67da74	0.22641927
55	0xbecbbe83	-0.39793786
56	0x3dacba0a	0.08433922
57	0x3d092b48	0.03348854
58	0xbcf8c8b2	-0.030369136
59	0x3dea9979	0.11455054
60	0xbf0b68cc	-0.5445678
61	0x3e54aa2b	0.20768039
62	0xbeb8b499	-0.36075285
63	0xbe21d34a	-0.15803257
64	0x3ea215a7	0.31657144
65	0xbeec7381	-0.46181872
66	0xbda79200	-0.08182144
67	0xbe8da40a	-0.27664214
68	0xbdcd4c78	-0.10024351
69	0xbf07a610	-0.52987766
70	0xbef4776d	-0.47747365
71	0x3e245c37	0.16050802
72	0xbe84d121	-0.25940803
73	0x3e4639a1	0.19357921
74	0x3d8e36ec	0.06944069
75	0xbe82740c	-0.25479162
76	0x3e00456f	0.12526487
77	0xbe8dcc8d	-0.27695122
78	0xbd635ece	-0.055510335
79	0xbeb4c0b1	-0.35303262
80	0xbe22f63a	-0.1591424
81	0xbe683827	-0.2267767
82	0xbea84650	-0.32866144
83	0xbe152077	-0.14563166
84	0x3df33639	0.118755765
85	0xbe922592	-0.2854429
86	0x3cb7d3dc	0.02243989
87	0xbd64a97e	-0.055825703
88	0x3eac2207	0.3361971
89	0x3e114efd	0.14190288
90	0xbebfde65	-0.3747436
91	0xbed198a2	-0.40936762
92	0xbe5f84ef	-0.21828054
93	0xc02c9313	-2.6964767
94	0x3e9df813	0.30853328
95	0x3f930a3a	1.1487496
96	0x402d9ada	2.7125764
97	0xbe4ce7c5	-0.20010288
98	0xbfc173f6	-1.5113513
99	0xbf4ad86f	-0.792365

_transform._transforms.0.autoregressive_net.blocks.1.linear_layers.0.bias f4 [10]
0	0xbd8d049d	-0.068856455
1	0xbe67e8d7	-0.22647415
2	0xbe705424	-0.23469597
3	0x3e3295c4	0.17439944
4	0xbdf13ed1	-0.117795594
5	0x3e3570be	0.17718789
6	0x3e647f0f	0.22314094
7	0xbc053c25	-0.008132015
8	0xbdbd9cf5	-0.09258453
9	0x3d0ffb95	0.035152037

_transform._transforms.0.autoregressive_net.blocks.1.linear_layers.0.mask f4 [10, 10]
0	0x3f800000	1.0
1	0x3f800000	1.0
2	0x3f800000	1.0
3	0x3f800000	1.0
4	0x3f800000	1.0
5	0x3f800000	1.0
6	0x3f800000	1.0
7	0x3f800000	1.0
8	0x3f800000	1.0
9	0x3f800000	1.0
10	0x3f800000	1.0
11	0x3f800000	1.0
12	0x3f800000	1.0
13	0x3f800000	1.0
14	0x3f800000	1.0
15	0x3f800000	1.0
16	0x3f800000	1.0
17	0x3f800000	1.0
18	0x3f800000	1.0
19	0x3f800000	1.0
20	0x3f800000	1.0
21	0x3f800000	1.0
22	0x3f800000	1.0
23	0x3f800000	1.0
24	0x3f800000	1.0
25	0x3f800000	1.0
26	0x3f800000	1.0
27	0x3f800000	1.0
28	0x3f800000	1.0
29	0x3f800000	1.0
30	0x3f800000	1.0
31	0x3f800000	1.0
32	0x3f800000	1.0
33	0x3f800000	1.0
34	0x3f800000	1.0
35	0x3f800000	1.0
36	0x3f800000	1.0
37	0x3f800000	1.0
38	0x3f800000	1.0
39	0x3f800000	1.0
40	0x3f800000	1.0
41	0x3f800000	1.0
42	0x3f800000	1.0
43	0x3f800000	1.0
44	0x3f800000	1.0
45	0x3f800000	1.0
46	0x3f800000	1.0
47	0x3f800000	1.0
48	0x3f800000	1.0
49	0x3f800000	1.0
50	0x3f800000	1.0
51	0x3f800000	1.0
52	0x3f800000	1.0
53	0x3f800000	1.0
54	0x3f800000	1.0
55	0x3f800000	1.0
56	0x3f800000	1.0
57	0x3f800000	1.0
58	0x3f800000	1.0
59	0x3f800000	1.0
60	0x3f800000	1.0
61	0x3f800000	1.0
62	0x3f800000	1.0
63	0x3f800000	1.0
64	0x3f800000	1.0
65	0x3f800000	1.0
66	0x3f800000	1.0
67	0x3f800000	1.0
68	0x3f800000	1.0
69	0x3f800000	1.0
70	0x3f800000	1.0
71	0x3f800000	1.0
72	0x3f800000	1.0
73	0x3f800000	1.0
74	0x3f800000	1.0
75	0x3f800000	1.0
76	0x3f800000	1.0
77	0x3f800000	1.0
78	0x3f800000	1.0
79	0x3f800000	1.0
80	0x3f800000	1.0
81	0x3f800000	1.0
82	0x3f800000	1.0
83	0x3f800000	1.0
84	0x3f800000	1.0
85	0x3f800000	1.0
86	0x3f800000	1.0
87	0x3f800000	1.0
88	0x3f800000	1.0
89	0x3f800000	1.0
90	0x3f800000	1.0
91	0x3f800000	1.0
92	0x3f800000	1.0
93	0x3f800000	1.0
94	0x3f800000	1.0
95	0x3f800000	1.0
96	0x3f800000	1.0
97	0x3f800000	1.0
98	0x3f800000	1.0
99	0x3f800000	1.0

_transform._transforms.0.autoregressive_net.blocks.1.linear_layers.1.weight f4 [10, 10]
0	0xbe699bbb	-0.22813313
1	0xbd91e3f0	-0.07123554
2	0x3e401227	0.18756925
3	0x3e8bd794	0.2731291
4	0x3e7d442b	0.24733035
5	0xbe80a099	-0.25122526
6	0xbecd2ce7	-0.4007332
7	0x3c8a465a	0.01687925
8	0xbea0f2b5	-0.3143517
9	0x3d51bb12	0.051203795
10	0xbdf0ff0d	-0.11767397
11	0x3d4412cd	0.047869492
12	0xbdbc5d88	-0.09197527
13	0xbe1ce0d5	-0.15320142
14	0xbc375a40	-0.011190951
15	0x3c903ef0	0.017608136
16	0x3cb5ab07	0.022176279
17	0xbd6185d9	-0.055059288
18	0x3aa493fa	0.0012556307
19	0xbdacb235	-0.08432428
20	0xbec1a6e1	-0.3782263
21	0xbd6f5997	-0.05843505
22	0xbe4f14a2	-0.20222715
23	0xbd410012	-0.047119208
24	0xbe8a3246	-0.2699148
25	0x3e803594	0.25040877
26	0x3f051b51	0.51994807
27	0x3ee86057	0.45386
28	0x3e869aef	0.2629008
29	0xbc2fe82b	-0.0107365055
30	0x3e586f1c	0.21136135
31	0x3d9e9c65	0.07744674
32	0x3de82067	0.11334305
33	0xbea9f2b9	-0.33192995
34	0x3e170391	0.14747454
35	0xbdfe9d78	-0.124323785
36	0x3e012e1a	0.12615243
37	0xbda09cef	-0.07842433
38	0xbd4018a5	-0.046898503
39	0x3e148bd4	0.14506465
40	0xbe3af966	-0.182592
41	0xbd91ae5b	-0.07113334
42	0xbd45eaa6	-0.04831948
43	0x3d4aee52	0.049543686
44	0xbd9f43ae	-0.07776581
45	0x3ce88770	0.028384894
46	0xbe168e73	-0.14702778
47	0x3e0bf2ea	0.13666883
48	0x3c88713c	0.016655557
49	0x3be43958	0.0069648437
50	0xbe1c3241	-0.15253545
51	0xbc353393	-0.0110596595
52	0xbdc397d7	-0.095504455
53	0x3d9074bd	0.07053516
54	0xbe5ebbca	-0.21751323
55	0x3de64d91	0.11245263
56	0x3e49e06f	0.19714521
57	0x3e027096	0.1273826
58	0x3dcfaaef	0.10140025
59	0xbe48fc96	-0.19627604
60	0x3ecacbe4	0.3960868
61	0x39e98788	0.00044542202
62	0x3da35207	0.0797463
63	0x3d6f430d	0.058413554
64	0x3e307580	0.17232323
65	0xbd9d2cd6	-0.076745674
66	0xbea59cc5	-0.32346168
67	0xbede046a	-0.43362743
68	0xbdcb7672	-0.09934701
69	0xbe454ce8	-0.19267619
70	0xbe691376	-0.2276133
71	0x3d9e6120	0.07733369
72	0xbde45846	-0.11149649
73	0xbe1e1831	-0.15438916
74	0xbdb160dc	-0.086610526
75	0x3d67aed3	0.05656321
76	0x3e471375	0.19441016
77	0x3d84f688	0.064923346
78	0x3d39f6e8	0.045401484
79	0xbd200eee	-0.039076738
80	0xbe5b14e3	-0.21394686
81	0x3b389bec	0.0028169109
82	0xbd9d960c	-0.07694635
83	0xbde8b2a3	-0.11362197
84	0xbdda1a69	-0.106495686
85	0x3da4f042	0.08053638
86	0x3cb08b07	0.021550668
87	0x3e9dcdfa	0.3082121
88	0x3dd89599	0.105754085
89	0x3e333b06	0.17502984
90	0xbde87842	-0.11351062
91	0x3d9cf446	0.07663779
92	0x3e6846c6	0.22683248
93	0x3e54a8cd	0.20767517
94	0xbc52ca78	-0.012865655
95	0xbe11ea85	-0.14249618
96	0xbe0633ca	-0.13105693
97	0xbd54c80e	-0.0519486
98	0xbe4a7705	-0.19771965
99	0x3dacf1a1	0.084445246

_transform._transforms.0.autoregressive_net.blocks.1.linear_layers.1.bias f4 [10]
0	0xbe94d0ea	-0.2906564
1	0x3e5cdae7	0.2156788
2	0x3e1a971b	0.15096705
3	0xbd5c7a76	-0.053827725
4	0x3cc84081	0.02444482
5	0x3e506c92	0.20353916
6	0xbe1c4672	-0.15261248
7	0x3e9a4b7b	0.30135712
8	0x3d04c06e	0.032410078
9	0x3e2eb600	0.17061615

_transform._transforms.0.autoregressive_net.blocks.1.linear_layers.1.mask f4 [10, 10]
0	0x3f800000	1.0
1	0x3f800000	1.0
2	0x3f800000	1.0
3	0x3f800000	1.0
4	0x3f800000	1.0
5	0x3f800000	1.0
6	0x3f800000	1.0
7	0x3f800000	1.0
8	0x3f800000	1.0
9	0x3f800000	1.0
10	0x3f800000	1.0
11	0x3f800000	1.0
12	0x3f800000	1.0
13	0x3f800000	1.0
14	0x3f800000	1.0
15	0x3f800000	1.0
16	0x3f800000	1.0
17	0x3f800000	1.0
18	0x3f800000	1.0
19	0x3f800000	1.0
20	0x3f800000	1.0
21	0x3f800000	1.0
22	0x3f800000	1.0
23	0x3f800000	1.0
24	0x3f800000	1.0
25	0x3f800000	1.0
26	0x3f800000	1.0
27	0x3f800000	1.0
28	0x3f800000	1.0
29	0x3f800000	1.0
30	0x3f800000	1.0
31	0x3f800000	1.0
32	0x3f800000	1.0
33	0x3f800000	1.0
34	0x3f800000	1.0
35	0x3f800000	1.0
36	0x3f800000	1.0
37	0x3f800000	1.0
38	0x3f800000	1.0
39	0x3f800000	1.0
40	0x3f800000	1.0
41	0x3f800000	1.0
42	0x3f800000	1.0
43	0x3f800000	1.0
44	0x3f800000	1.0
45	0x3f800000	1.0
46	0x3f800000	1.0
47	0x3f800000	1.0
48	0x3f800000	1.0
49	0x3f800000	1.0
50	0x3f800000	1.0
51	0x3f800000	1.0
52	0x3f800000	1.0
53	0x3f800000	1.0
54	0x3f800000	1.0
55	0x3f800000	1.0
56	0x3f800000	1.0
57	0x3f800000	1.0
58	0x3f800000	1.0
59	0x3f800000	1.0
60	0x3f800000	1.0
61	0x3f800000	1.0
62	0x3f800000	1.0
63	0x3f800000	1.0
64	0x3f800000	1.0
65	0x3f800000	1.0
66	0x3f800000	1.0
67	0x3f800000	1.0
68	0x3f800000	1.0
69	0x3f800000	1.0
70	0x3f800000	1.0
71	0x3f800000	1.0
72	0x3f800000	1.0
73	0x3f800000	1.0
74	0x3f800000	1.0
75	0x3f800000	1.0
76	0x3f800000	1.0
77	0x3f800000	1.0
78	0x3f800000	1.0
79	0x3f800000	1.0
80	0x3f800000	1.0
81	0x3f800000	1.0
82	0x3f800000	1.0
83	0x3f800000	1.0
84	0x3f800000	1.0
85	0x3f800000	1.0
86	0x3f800000	1.0
87	0x3f800000	1.0
88	0x3f800000	1.0
89	0x3f800000	1.0
90	0x3f800000	1.0
91	0x3f800000	1.0
92	0x3f800000	1.0
93	0x3f800000	1.0
94	0x3f800000	1.0
95	0x3f800000	1.0
96	0x3f800000	1.0
97	0x3f800000	1.0
98	0x3f800000	1.0
99	0x3f800000	1.0

_transform._transforms.0.autoregressive_net.final_layer.weight f4 [4, 10]
0	0x3e1614ef	0.14656423
1	0xbe117bf4	-0.1420744
2	0xbe9569ef	-0.29182383
3	0xbdb29423	-0.08719661
4	0x3dca6b79	0.0988378
5	0xbdae720a	-0.08517845
6	0x3e892c1b	0.26791462
7	0x3e75a14c	0.23987311
8	0x3c6d6d08	0.014491327
9	0x3d825c81	0.063653
10	0x3e2a4b40	0.16630268
11	0xbdbb2894	-0.09138599
12	0xbdd03aca	-0.10167463
13	0xbe64a48b	-0.22328393
14	0x3e1976d8	0.14986742
15	0xbe7ada27	-0.24497281
16	0x3ccd5d06	0.025068771
17	0x3da421fe	0.08014296
18	0x3c095e44	0.008384291
19	0x3e289a41	0.16465093
20	0x3df61bf0	0.120170474
21	0x3eeb301e	0.45935148
22	0x3ee61e2a	0.44944888
23	0xbe19aa53	-0.1500638
24	0x3ee7b01d	0.4525155
25	0x3f54e2ed	0.8315876
26	0xbeef7972	-0.46772343
27	0x3f1efa3c	0.6210058
28	0x3ed365a1	0.41288474
29	0x3ec041bb	0.37550148
30	0x3d7ca2f7	0.061678853
31	0x3e162738	0.14663398
32	0xbe23f0d1	-0.16009833
33	0x3b0f2b19	0.0021845757
34	0xbd8116b4	-0.063031584
35	0xbe262c29	-0.16227783
36	0x3e0e87b9	0.13918962
37	0x3ca3b437	0.019983394
38	0xbdeec58b	-0.11658772
39	0xbd9d0c0c	-0.076683134

_transform._transforms.0.autoregressive_net.final_layer.bias f4 [4]
0	0x3d065784	0.032798305
1	0xbd2354f2	-0.039875932
2	0x3f36b5ea	0.7137133
3	0xbe4b0ffc	-0.19830316

_transform._transforms.0.autoregressive_net.final_layer.mask f4 [4, 10]
0	0x00000000	0.0
1	0x00000000	0.0
2	0x00000000	0.0
3	0x00000000	0.0
4	0x00000000	0.0
5	0x00000000	0.0
6	0x00000000	0.0
7	0x00000000	0.0
8	0x00000000	0.0
9	0x00000000	0.0
10	0x00000000	0.0
11	0x00000000	0.0
12	0x00000000	0.0
13	0x00000000	0.0
14	0x00000000	0.0
15	0x00000000	0.0
16	0x00000000	0.0
17	0x00000000	0.0
18	0x00000000	0.0
19	0x00000000	0.0
20	0x3f800000	1.0
21	0x3f800000	1.0
22	0x3f800000	1.0
23	0x3f800000	1.0
24	0x3f800000	1.0
25	0x3f800000	1.0
26	0x3f800000	1.0
27	0x3f800000	1.0
28	0x3f800000	1.0
29	0x3f800000	1.0
30	0x3f800000	1.0
31	0x3f800000	1.0
32	0x3f800000	1.0
33	0x3f800000	1.0
34	0x3f800000	1.0
35	0x3f800000	1.0
36	0x3f800000	1.0
37	0x3f800000	1.0
38	0x3f800000	1.0
39	0x3f800000	1.0

_transform._transforms.2.autoregressive_net.initial_layer.weight f4 [10, 2]
0	0x3d13ea1e	0.036111943
1	0xbd42339e	-0.047412507
2	0x3eed9f34	0.46410525
3	0x3cc74dff	0.024329184
4	0xbe8b2b59	-0.2718151
5	0xbe062a41	-0.13102056
6	0x3e6ccbac	0.2312457
7	0xbe72f659	-0.23726787
8	0x3f4cb5ab	0.79964703
9	0x3e59f8c2	0.212863
10	0xbf80a514	-1.0050378
11	0x3f32b88b	0.6981284
12	0xbeb2e837	-0.3494279
13	0xbe7ff193	-0.24994497
14	0x3f973f44	1.1816182
15	0x3d93d806	0.072189376
16	0xbe6d6e8d	-0.23186703
17	0x3f28d446	0.65948904
18	0xbe378ef2	-0.17925623
19	0x3f1c5e3e	0.610813

_transform._transforms.2.autoregressive_net.initial_layer.bias f4 [10]
0	0x3e32520e	0.17414114
1	0xbe070e97	-0.1318916
2	0xbe419640	-0.18904972
3	0xbef34fe7	-0.47521898
4	0x3f15859e	0.5840701
5	0xbdd7efeb	-0.105438076
6	0x3eeeb74a	0.46624213
7	0xbf8eb26d	-1.1148201
8	0xbf162a14	-0.58657956
9	0x3c468dca	0.012118766

_transform._transforms.2.autoregressive_net.initial_layer.mask f4 [10, 2]
0	0x3f800000	1.0
1	0x00000000	0.0
2	0x3f800000	1.0
3	0x00000000	0.0
4	0x3f800000	1.0
5	0x00000000	0.0
6	0x3f800000	1.0
7	0x00000000	0.0
8	0x3f800000	1.0
9	0x00000000	0.0
10	0x3f800000	1.0
11	0x00000000	0.0
12	0x3f800000	1.0
13	0x00000000	0.0
14	0x3f800000	1.0
15	0x00000000	0.0
16	0x3f800000	1.0
17	0x00000000	0.0
18	0x3f800000	1.0
19	0x00000000	0.0

_transform._transforms.2.autoregressive_net.context_layer.weight f4 [10, 3]
0	0xbf126fe7	-0.57202
1	0xc01792ca	-2.3683343
2	0xbfa65cd1	-1.2997075
3	0x3d49b61b	0.049245935
4	0xbff4ea3f	-1.9133986
5	0xbf1660b9	-0.5874134
6	0x3e22f285	0.15912826
7	0x3fbd0ca2	1.476948
8	0x3eedf0a0	0.46472645
9	0xbe52c530	-0.20583034
10	0xbf86a3e3	-1.0518764
11	0xbdf6711f	-0.12033295
12	0xbeea9b7f	-0.4582176
13	0x3f6d520a	0.92703307
14	0x3e5b775f	0.21432255
15	0xbda99e83	-0.08282187
16	0xbf7531de	-0.95779216
17	0xbf8d0088	-1.1015787
18	0x3f3fd1b5	0.7492936
19	0xbec0a6f5	-0.37627378
20	0x3f806b7b	1.00328
21	0xbf8f559b	-1.1198
22	0x3fff93c1	1.9966966
23	0xbd931c63	-0.07183149
24	0x3d924877	0.07142728
25	0x3f6e9679	0.93198353
26	0x3e294734	0.16531068
27	0xbf172694	-0.5904324
28	0x3fbf352e	1.4938104
29	0x3f21ac98	0.6315398

_transform._transforms.2.autoregressive_net.context_layer.bias f4 [10]
0	0xbdfe95df	-0.124309294
1	0xbf0e3041	-0.5554238
2	0x3e3c6677	0.18398462
3	0xbea4820c	-0.32130468
4	0xbe82fcf4	-0.25583613
5	0xbebf7ba5	-0.3739902
6	0x3dee21cb	0.11627539
7	0xbf448828	-0.7677026
8	0xbeb0f5cc	-0.34562528
9	0x3dcb0760	0.09913516

_transform._transforms.2.autoregressive_net.blocks.0.context_layer.weight f4 [10, 3]
0	0xbd27da4d	-0.040979672
1	0xbe3af830	-0.18258739
2	0x3e43c20f	0.19116996
3	0x3e547b7d	0.20750232
4	0xbf7cc857	-0.98743194
5	0xbea88472	-0.32913548
6	0xbf0d1eb3	-0.5512497
7	0xbf8704b0	-1.0548306
8	0xbf5ea165	-0.8696502
9	0xbce777c0	-0.028255343
10	0xbe54d2f6	-0.207836
11	0xbe3e3a80	-0.18577003
12	0x3b9facfc	0.0048729163
13	0x3f054061	0.5205136
14	0xbf2bab6d	-0.6705845
15	0x3f511b7e	0.81682575
16	0xbf10e97b	-0.5660626
17	0x3da75123	0.081697725
18	0xbc5079a1	-0.012724311
19	0xbc3fa6ea	-0.01169751
20	0xbf121b2e	-0.5707272
21	0xbe6e2e17	-0.2325977
22	0x3f9bb778	1.2165365
23	0x3f4a284e	0.7896775
24	0xbbeea2e0	-0.0072826
25	0xbfd19771	-1.6374341
26	0xbf0e2554	-0.5552571
27	0xbe904f01	-0.28185275
28	0xbe83f71c	-0.25774467
29	0x3f8b684c	1.0891204

_transform._transforms.2.autoregressive_net.blocks.0.context_layer.bias f4 [10]
0	0x3e2897a4	0.16464096
1	0xbeebb4b8	-0.46036315
2	0xbed13590	-0.40861177
3	0x3f0837d9	0.53210217
4	0x3ece4083	0.40283594
5	0x3f009c13	0.5023815
6	0xbee8f26f	-0.45497462
7	0x3cc1b2d4	0.023644842
8	0xbdd357f2	-0.103195086
9	0x3f0b93ef	0.54522604

_transform._transforms.2.autoregressive_net.blocks.0.linear_layers.0.weight f4 [10, 10]
0	0x3f55ff42	0.8359262
1	0xbe0521e5	-0.13001211
2	0x3e5d5464	0.21614224
3	0x3bfea68c	0.007771319
4	0xbda33667	-0.07969361
5	0x3ddab0ed	0.10678277
6	0x3ee431dd	0.44569293
7	0x3def854a	0.11695345
8	0xbd67c500	-0.05658436
9	0x3e3860d5	0.18005688
10	0x3ebd3d0d	0.3696064
11	0x3daf66a1	0.08564497
12	0xbe8416b7	-0.2579858
13	0x3ddd434b	0.10803851
14	0x3e33a7de	0.17544505
15	0xbe58c3d5	-0.21168454
16	0x3d9c3b5a	0.07628508
17	0xbf34f8d4	-0.7069218
18	0xbdd57724	-0.10423115
19	0xbe187042	-0.14886573
20	0x3f59bf0f	0.8505716
21	0x3e22db6b	0.15904014
22	0x3ce3350b	0.027735254
23	0x3d8d4e04	0.06899646
24	0x3e6e4ae1	0.23270752
25	0xbe186959	-0.14883937
26	0x3def2e32	0.11678733
27	0xbef965ee	-0.4871058
28	0x3d68aa99	0.05680332
29	0xbd371d86	-0.04470589
30	0x3e868aa3	0.26277646
31	0x3e1f9ae2	0.15586427
32	0xbd168cb8	-0.036755294
33	0x3e0081d6	0.12549528
34	0xbe9e34e0	-0.30899715
35	0x3ee51d88	0.44749093
36	0xbe5a4c96	-0.21318278
37	0x3e996a0e	0.29963726
38	0xbece36a7	-0.4027607
39	0x3d7470a2	0.059677728
40	0x3f15dcb5	0.585399
41	0xbe706843	-0.23477273
42	0x3eece400	0.462677
43	0xbcffe125	-0.031235287
44	0xbe3bacd7	-0.18327652
45	0x3d588b14	0.05286701
46	0xbc724336	-0.014786532
47	0x3d2b631a	0.041842557
48	0xbe2ca864	-0.16861111
49	0xbc0cefcb	-0.008602093
50	0xbe34d0da	-0.17657796
51	0x3d402505	0.046910305
52	0x3e6e6b51	0.23283125
53	0x3e9695fd	0.29411307
54	0x3edf2416	0.4358222
55	0xbf353bba	-0.7079426
56	0xbebb223e	-0.36549562
57	0x3db479c9	0.08812291
58	0x3c299efc	0.010352846
59	0xbee85c28	-0.4538281
60	0x3efe10b6	0.49622124
61	0x3ddbb0ed	0.10727105
62	0xbe9735d6	-0.2953326
63	0x3e28e0b5	0.16491969
64	0x3ecf7674	0.4052006
65	0x3ddd1d12	0.1079656
66	0x3c9ca159	0.019119905
67	0xbf2b4602	-0.669037
68	0xbea0ee9d	-0.31432047
69	0x3df9e507	0.122018866
70	0xbf5cce66	-0.8625244
71	0xbe96a5cf	-0.29423377
72	0x3e1a1d2a	0.15050188
73	0x3c19cf2f	0.009387775
74	0x3e1d307c	0.15350527
75	0xbe18e90e	-0.14932653
76	0x3e68f1f3	0.22748546
77	0x3e990b22	0.29891306
78	0x3e9f8499	0.3115585
79	0xbcf6e948	-0.030140534
80	0x3f103ddd	0.56344396
81	0x3e760a2e	0.2402732
82	0xbe8757c0	-0.26434135
83	0xbd478e78	-0.048719853
84	0x3db99970	0.09062469
85	0x3e5694f4	0.20955259
86	0xbe15763c	-0.14595884
87	0xbedf11f5	-0.43568388
88	0xbe8b4f8a	-0.2720912
89	0xbdc8a9c1	-0.09798003
90	0xbd769bfa	-0.060207345
91	0x3e96b22f	0.29432818
92	0xbe5d00e9	-0.21582378
93	0xbe4b96b5	-0.19881709
94	0xbf0682bd	-0.5254324
95	0x3ddba070	0.107239604
96	0x3e23a43d	0.1598062
97	0x3f25c88d	0.6475914
98	0x3e2982c2	0.16553786
99	0xbcbd5167	-0.023110105

_transform._transforms.2.autoregressive_net.blocks.0.linear_layers.0.bias f4 [10]
0	0x3b42d1e4	0.0029727155
1	0xbeab3379	-0.33437708
2	0x3d582dea	0.052778162
3	0xbc5b8b3c	-0.013399895
4	0xbdb3465b	-0.087536536
5	0xbe92762a	-0.28605777
6	0xbe674c2b	-0.2258765
7	0x3e0bfbea	0.13670316
8	0xbe897d28	-0.268533
9	0x3e608983	0.21927457

_transform._transforms.2.autoregressive_net.blocks.0.linear_layers.0.mask f4 [10, 10]
0	0x3f800000	1.0
1	0x3f800000	1.0
2	0x3f800000	1.0
3	0x3f800000	1.0
4	0x3f800000	1.0
5	0x3f800000	1.0
6	0x3f800000	1.0
7	0x3f800000	1.0
8	0x3f800000	1.0
9	0x3f800000	1.0
10	0x3f800000	1.0
11	0x3f800000	1.0
12	0x3f800000	1.0
13	0x3f800000	1.0
14	0x3f800000	1.0
15	0x3f800000	1.0
16	0x3f800000	1.0
17	0x3f800000	1.0
18	0x3f800000	1.0
19	0x3f800000	1.0
20	0x3f800000	1.0
21	0x3f800000	1.0
22	0x3f800000	1.0
23	0x3f800000	1.0
24	0x3f800000	1.0
25	0x3f800000	1.0
26	0x3f800000	1.0
27	0x3f800000	1.0
28	0x3f800000	1.0
29	0x3f800000	1.0
30	0x3f800000	1.0
31	0x3f800000	1.0
32	0x3f800000	1.0
33	0x3f800000	1.0
34	0x3f800000	1.0
35	0x3f800000	1.0
36	0x3f800000	1.0
37	0x3f800000	1.0
38	0x3f800000	1.0
39	0x3f800000	1.0
40	0x3f800000	1.0
41	0x3f800000	1.0
42	0x3f800000	1.0
43	0x3f800000	1.0
44	0x3f800000	1.0
45	0x3f800000	1.0
46	0x3f800000	1.0
47	0x3f800000	1.0
48	0x3f800000	1.0
49	0x3f800000	1.0
50	0x3f800000	1.0
51	0x3f800000	1.0
52	0x3f800000	1.0
53	0x3f800000	1.0
54	0x3f800000	1.0
55	0x3f800000	1.0
56	0x3f800000	1.0
57	0x3f800000	1.0
58	0x3f800000	1.0
59	0x3f800000	1.0
60	0x3f800000	1.0
61	0x3f800000	1.0
62	0x3f800000	1.0
63	0x3f800000	1.0
64	0x3f800000	1.0
65	0x3f800000	1.0
66	0x3f800000	1.0
67	0x3f800000	1.0
68	0x3f800000	1.0
69	0x3f800000	1.0
70	0x3f800000	1.0
71	0x3f800000	1.0
72	0x3f800000	1.0
73	0x3f800000	1.0
74	0x3f800000	1.0
75	0x3f800000	1.0
76	0x3f800000	1.0
77	0x3f800000	1.0
78	0x3f800000	1.0
79	0x3f800000	1.0
80	0x3f800000	1.0
81	0x3f800000	1.0
82	0x3f800000	1.0
83	0x3f800000	1.0
84	0x3f800000	1.0
85	0x3f800000	1.0
86	0x3f800000	1.0
87	0x3f800000	1.0
88	0x3f800000	1.0
89	0x3f800000	1.0
90	0x3f800000	1.0
91	0x3f800000	1.0
92	0x3f800000	1.0
93	0x3f800000	1.0
94	0x3f800000	1.0
95	0x3f800000	1.0
96	0x3f800000	1.0
97	0x3f800000	1.0
98	0x3f800000	1.0
99	0x3f800000	1.0

_transform._transforms.2.autoregressive_net.blocks.0.linear_layers.1.weight f4 [10, 10]
0	0xbdb75eb3	-0.08953609
1	0x3c02ac8b	0.007975708
2	0x3d61e0e7	0.055146124
3	0xbe80f4e6	-0.25186843
4	0xbdce4f13	-0.10073676
5	0x3d33ed48	0.04392746
6	0x3d344f16	0.044020735
7	0xbde5221f	-0.11188149
8	0x3c754eba	0.014972383
9	0xbd3f1e25	-0.046659607
10	0x3ea7aea8	0.3275044
11	0x3e60f1b1	0.21967198
12	0x3e3704c8	0.17872918
13	0xbde85d61	-0.113459356
14	0x3eafd607	0.34342977
15	0x3e0b34d6	0.13594374
16	0x3e3031e6	0.17206535
17	0x3d5f2d86	0.054486774
18	0x3da0b197	0.078463726
19	0xbe8879bf	-0.26655385
20	0x3d2388d1	0.0399254
21	0x3b2aea6e	0.0026079672
22	0xbdd6cef4	-0.10488692
23	0xbe31da24	-0.1736837
24	0x3d0a385b	0.03374515
25	0xbd4dd0aa	-0.050247826
26	0xbdb5f98f	-0.0888549
27	0x3edcdd2e	0.43137497
28	0xbecd29fb	-0.4007109
29	0xbd1c89dd	-0.038217414
30	0xbe3d4c0e	-0.18486044
31	0x3e2eab7b	0.17057602
32	0x3e17eb42	0.14835837
33	0xbc9c0594	-0.019045629
34	0xbe42e149	-0.19031252
35	0xbdd6691c	-0.10469267
36	0x3df555b3	0.119792365
37	0xbea38595	-0.31937853
38	0x3e9a95f3	0.30192527
39	0xbd427af5	-0.047480542
40	0x3b54f4ab	0.0032494466
41	0x3ef58eae	0.47960418
42	0x3ea8c2ce	0.32961124
43	0xbf1c10bd	-0.6096304
44	0xb8a37c97	-7.795652e-05
45	0x3e9fdcc2	0.31223112
46	0x3ec5e789	0.3865321
47	0xbd3040c8	-0.04303053
48	0x3e6d8930	0.23196864
49	0xbf144ed0	-0.5793276
50	0xbd7e1c3c	-0.062038645
51	0xbec8eab1	-0.39241555
52	0xbe938765	-0.28814235
53	0x3ee8aeda	0.454459
54	0xbd554b2b	-0.05207364
55	0xbe5c12d9	-0.21491565
56	0xbea4ed0c	-0.32212102
57	0xbcb3127b	-0.021859398
58	0xbe40fe9a	-0.18847123
59	0x3ef5ae6f	0.47984645
60	0x3e11d2c9	0.14240564
61	0xbe747c14	-0.23875457
62	0xbe181c6e	-0.14854595
63	0x3db19ef7	0.08672898
64	0x3dcbf2c7	0.099584155
65	0xbc4282a5	-0.011871968
66	0xbe4f1460	-0.20222616
67	0x3e63f8ec	0.22262925
68	0xbe4e16a6	-0.20125827
69	0x3ea1cb15	0.31600252
70	0xbe493835	-0.19650348
71	0xbddfab79	-0.10921378
72	0xbdf07fb4	-0.117431074
73	0x3d00fe24	0.031492367
74	0xbe6fafa6	-0.23406848
75	0xbdb10eef	-0.086454265
76	0xbdf089e7	-0.11745053
77	0xbdbc95a3	-0.092082284
78	0xbd4ac768	-0.049506575
79	0x3e0bd032	0.13653639
80	0xbe8a31cb	-0.26991114
81	0xbc884d36	-0.01663838
82	0xbe0c695f	-0.13712071
83	0xbe021636	-0.12703785
84	0xbe683525	-0.22676523
85	0x3dc7682d	0.09736667
86	0xbcef4468	-0.029207423
87	0x3ccb758e	0.024836328
88	0xbe52208c	-0.20520228
89	0xbdf2775a	-0.11839171
90	0xbc873bf3	-0.016508078
91	0xbe16f7b5	-0.1474293
92	0xbceac17b	-0.028656712
93	0xbe63a421	-0.22230579
94	0xbd454490	-0.04816109
95	0x3c104113	0.008804577
96	0xbe53f5d3	-0.20699243
97	0x3ea8c5f2	0.3296352
98	0xbec708dc	-0.38873947
99	0x3b99e510	0.004696496

_transform._transforms.2.autoregressive_net.blocks.0.linear_layers.1.bias f4 [10]
0	0xbda8d582	-0.082438484
1	0xbe0b5d83	-0.1360989
2	0x3e6f1125	0.23346384
3	0xbe754f90	-0.23956132
4	0xbf07bfeb	-0.5302722
5	0xbe7fd94c	-0.24985236
6	0x3f23cd41	0.6398507
7	0xbfa0e123	-1.2568706
8	0xbe136310	-0.14393258
9	0x3e1805e6	0.14846

_transform._transforms.2.autoregressive_net.blocks.0.linear_layers.1.mask f4 [10, 10]
0	0x3f800000	1.0
1	0x3f800000	1.0
2	0x3f800000	1.0
3	0x3f800000	1.0
4	0x3f800000	1.0
5	0x3f800000	1.0
6	0x3f800000	1.0
7	0x3f800000	1.0
8	0x3f800000	1.0
9	0x3f800000	1.0
10	0x3f800000	1.0
11	0x3f800000	1.0
12	0x3f800000	1.0
13	0x3f800000	1.0
14	0x3f800000	1.0
15	0x3f800000	1.0
16	0x3f800000	1.0
17	0x3f800000	1.0
18	0x3f800000	1.0
19	0x3f800000	1.0
20	0x3f800000	1.0
21	0x3f800000	1.0
22	0x3f800000	1.0
23	0x3f800000	1.0
24	0x3f800000	1.0
25	0x3f800000	1.0
26	0x3f800000	1.0
27	0x3f800000	1.0
28	0x3f800000	1.0
29	0x3f800000	1.0
30	0x3f800000	1.0
31	0x3f800000	1.0
32	0x3f800000	1.0
33	0x3f800000	1.0
34	0x3f800000	1.0
35	0x3f800000	1.0
36	0x3f800000	1.0
37	0x3f800000	1.0
38	0x3f800000	1.0
39	0x3f800000	1.0
40	0x3f800000	1.0
41	0x3f800000	1.0
42	0x3f800000	1.0
43	0x3f800000	1.0
44	0x3f800000	1.0
45	0x3f800000	1.0
46	0x3f800000	1.0
47	0x3f800000	1.0
48	0x3f800000	1.0
49	0x3f800000	1.0
50	0x3f800000	1.0
51	0x3f800000	1.0
52	0x3f800000	1.0
53	0x3f800000	1.0
54	0x3f800000	1.0
55	0x3f800000	1.0
56	0x3f800000	1.0
57	0x3f800000	1.0
58	0x3f800000	1.0
59	0x3f800000	1.0
60	0x3f800000	1.0
61	0x3f800000	1.0
62	0x3f800000	1.0
63	0x3f800000	1.0
64	0x3f800000	1.0
65	0x3f800000	1.0
66	0x3f800000	1.0
67	0x3f800000	1.0
68	0x3f800000	1.0
69	0x3f800000	1.0
70	0x3f800000	1.0
71	0x3f800000	1.0
72	0x3f800000	1.0
73	0x3f800000	1.0
74	0x3f800000	1.0
75	0x3f800000	1.0
76	0x3f800000	1.0
77	0x3f800000	1.0
78	0x3f800000	1.0
79	0x3f800000	1.0
80	0x3f800000	1.0
81	0x3f800000	1.0
82	0x3f800000	1.0
83	0x3f800000	1.0
84	0x3f800000	1.0
85	0x3f800000	1.0
86	0x3f800000	1.0
87	0x3f800000	1.0
88	0x3f800000	1.0
89	0x3f800000	1.0
90	0x3f800000	1.0
91	0x3f800000	1.0
92	0x3f800000	1.0
93	0x3f800000	1.0
94	0x3f800000	1.0
95	0x3f800000	1.0
96	0x3f800000	1.0
97	0x3f800000	1.0
98	0x3f800000	1.0
99	0x3f800000	1.0

_transform._transforms.2.autoregressive_net.blocks.1.context_layer.weight f4 [10, 3]
0	0x3eb09e11	0.34495595
1	0x3d943877	0.07237332
2	0xbd072173	-0.032990884
3	0x3e52835a	0.20557919
4	0xbe3f5f12	-0.1868861
5	0x3cb79ab9	0.022412645
6	0xbeb269f8	-0.34846473
7	0x3f95a6fb	1.1691583
8	0x3f062983	0.5240709
9	0xbd300718	-0.042975515
10	0x3fb2c8bd	1.396751
11	0x3efc45e2	0.49272066
12	0x3edd576b	0.43230757
13	0x3fc2cbad	1.5218407
14	0x3f23c451	0.6397143
15	0x3f24a087	0.64307445
16	0xbed11b22	-0.40841013
17	0x3eb6c8fc	0.35700214
18	0x3e1512c3	0.14557938
19	0xbf1ee508	-0.62068224
20	0x3eb3ac85	0.3509256
21	0xbe7ad272	-0.24494341
22	0xbf6e6a44	-0.931309
23	0xbee776a6	-0.4520771
24	0x3e8d7d3a	0.27634603
25	0x3f1b043b	0.6055333
26	0x3ea477a0	0.32122517
27	0xbdc08d49	-0.09401948
28	0x3f37468b	0.71592015
29	0x3e16872f	0.14700006

_transform._transforms.2.autoregressive_net.blocks.1.context_layer.bias f4 [10]
0	0x3ea84dc5	0.32871833
1	0xbeb8850f	-0.36039016
2	0xbf00bc9d	-0.502878
3	0xbf23b96a	-0.63954794
4	0x3d1fc9e8	0.039010912
5	0x3e86c60e	0.2632298
6	0x3ebc73b6	0.3680703
7	0x3f27b125	0.65504676
8	0xbebcc7f2	-0.36871296
9	0xbf1a502d	-0.6027859

_transform._transforms.2.autoregressive_net.blocks.1.linear_layers.0.weight f4 [10, 10]
0	0xbeefb369	-0.46816567
1	0xbdf789f2	-0.12086858
2	0x3dfa0998	0.12208861
3	0xbe1c8d2a	-0.15288225
4	0x3e4617f7	0.1934508
5	0x3eda5daa	0.42649585
6	0xbeacc410	-0.33743334
7	0x3ed02559	0.40653494
8	0xbe545e59	-0.20739116
9	0xbee67d86	-0.45017642
10	0x3e469172	0.1939142
11	0x3e85e8c6	0.26154155
12	0x3e6152e2	0.22004274
13	0x3e501592	0.20320728
14	0xbbbd589b	-0.005778385
15	0xbe5aae4c	-0.21355551
16	0x3e991c50	0.29904413
17	0xbf0d506b	-0.55200833
18	0x3d651556	0.05592855
19	0x3e837879	0.2567785
20	0xbe8485cb	-0.25883326
21	0x3e37d21d	0.17951246
22	0xbd0c63b9	-0.03427479
23	0x3cf76dd8	0.030203745
24	0xbe9a0f4f	-0.30089805
25	0xbf5e6e47	-0.8688702
26	0x3e61383f	0.21994112
27	0xbedf9821	-0.43670753
28	0x3ee8b947	0.45453855
29	0xbe855812	-0.26043755
30	0x3cdb0891	0.026737483
31	0xbe50341c	-0.20332378
32	0xbd60d351	-0.054889027
33	0x3e898c7d	0.26864997
34	0xbe597b69	-0.21238483
35	0xbf7b6011	-0.9819346
36	0x3eaf14a3	0.34195432
37	0xbe9895da	-0.29801828
38	0x3d883d46	0.06652312
39	0xbe433d94	-0.19066459
40	0x3d27dca5	0.040981907
41	0x3d55659f	0.052098867
42	0x3c4c8fef	0.012485488
43	0x3eb80b5e	0.35946172
44	0xbe949768	-0.29021764
45	0xbf362580	-0.7115097
46	0x3d76cceb	0.06025402
47	0xbee47a7f	-0.44624707
48	0x3ea93b44	0.3305303
49	0xbe1a94a3	-0.15095763
50	0xbe88bed8	-0.26708102
51	0xbeb8b402	-0.36074835
52	0xbe0e2f22	-0.13885167
53	0xbd922ff4	-0.071380526
54	0x3e2156c0	0.15755749
55	0x3eca89d2	0.39558274
56	0xbe9ba329	-0.3039792
57	0x3eb29ac4	0.34883702
58	0x3d06f743	0.03295065
59	0xbe83ffa6	-0.25780982
60	0xbd7b6e75	-0.061384637
61	0xbd83d3a9	-0.06436855
62	0xbd3686db	-0.044562202
63	0xbebd5fb2	-0.36987072
64	0x3e832e9b	0.25621495
65	0x3f4da58a	0.8033072
66	0xbe4a5456	-0.19758734
67	0x3ea868ca	0.32892448
68	0xbebd9cbd	-0.37033644
69	0xbd19e2da	-0.037569858
70	0xbe4aa431	-0.19789197
71	0x3db92bdb	0.09041568
72	0x3e81956c	0.25309312
73	0x3d164b15	0.036692698
74	0x3e432121	0.19055606
75	0x3f2efc70	0.6835394
76	0xbe67ad85	-0.22624786
77	0x3ece06ad	0.40239468
78	0xbead1040	-0.3380146
79	0xbd9d4de1	-0.0768087
80	0xbdc840a2	-0.09777953
81	0x3e44bc21	0.1921239
82	0xbe011ff4	-0.12609845
83	0x3dc8f21b	0.09811803
84	0xbe2a004a	-0.16601673
85	0xbedda636	-0.4329087
86	0x3e8b832a	0.27248508
87	0xbeb07eff	-0.3447189
88	0x3edf57ac	0.43621576
89	0x3defb0ba	0.1170363
90	0x3e53f8b5	0.20700343
91	0x3eb7d99c	0.3590821
92	0x3cb7cb8d	0.022435928
93	0x3dea475d	0.11439393
94	0xbe95442b	-0.2915357
95	0xbf007302	-0.5017549
96	0x3e958d96	0.29209584
97	0xbea884da	-0.32913858
98	0xbe527894	-0.2055381
99	0x3e8825eb	0.2659143

_transform._transforms.2.autoregressive_net.blocks.1.linear_layers.0.bias f4 [10]
0	0x3e8aa767	0.27080843
1	0xbed40c2c	-0.41415536
2	0xbe798e4a	-0.24370685
3	0xbee09aea	-0.4386819
4	0xbef6f718	-0.48235393
5	0x3ed95fed	0.42455998
6	0x3d46df45	0.04855277
7	0x3e44ff4b	0.19238012
8	0xbd362295	-0.044466574
9	0xbe86eeca	-0.26354057

_transform._transforms.2.autoregressive_net.blocks.1.linear_layers.0.mask f4 [10, 10]
0	0x3f800000	1.0
1	0x3f800000	1.0
2	0x3f800000	1.0
3	0x3f800000	1.0
4	0x3f800000	1.0
5	0x3f800000	1.0
6	0x3f800000	1.0
7	0x3f800000	1.0
8	0x3f800000	1.0
9	0x3f800000	1.0
10	0x3f800000	1.0
11	0x3f800000	1.0
12	0x3f800000	1.0
13	0x3f800000	1.0
14	0x3f800000	1.0
15	0x3f800000	1.0
16	0x3f800000	1.0
17	0x3f800000	1.0
18	0x3f800000	1.0
19	0x3f800000	1.0
20	0x3f800000	1.0
21	0x3f800000	1.0
22	0x3f800000	1.0
23	0x3f800000	1.0
24	0x3f800000	1.0
25	0x3f800000	1.0
26	0x3f800000	1.0
27	0x3f800000	1.0
28	0x3f800000	1.0
29	0x3f800000	1.0
30	0x3f800000	1.0
31	0x3f800000	1.0
32	0x3f800000	1.0
33	0x3f800000	1.0
34	0x3f800000	1.0
35	0x3f800000	1.0
36	0x3f800000	1.0
37	0x3f800000	1.0
38	0x3f800000	1.0
39	0x3f800000	1.0
40	0x3f800000	1.0
41	0x3f800000	1.0
42	0x3f800000	1.0
43	0x3f800000	1.0
44	0x3f800000	1.0
45	0x3f800000	1.0
46	0x3f800000	1.0
47	0x3f800000	1.0
48	0x3f800000	1.0
49	0x3f800000	1.0
50	0x3f800000	1.0
51	0x3f800000	1.0
52	0x3f800000	1.0
53	0x3f800000	1.0
54	0x3f800000	1.0
55	0x3f800000	1.0
56	0x3f800000	1.0
57	0x3f800000	1.0
58	0x3f800000	1.0
59	0x3f800000	1.0
60	0x3f800000	1.0
61	0x3f800000	1.0
62	0x3f800000	1.0
63	0x3f800000	1.0
64	0x3f800000	1.0
65	0x3f800000	1.0
66	0x3f800000	1.0
67	0x3f800000	1.0
68	0x3f800000	1.0
69	0x3f800000	1.0
70	0x3f800000	1.0
71	0x3f800000	1.0
72	0x3f800000	1.0
73	0x3f800000	1.0
74	0x3f800000	1.0
75	0x3f800000	1.0
76	0x3f800000	1.0
77	0x3f800000	1.0
78	0x3f800000	1.0
79	0x3f800000	1.0
80	0x3f800000	1.0
81	0x3f800000	1.0
82	0x3f800000	1.0
83	0x3f800000	1.0
84	0x3f800000	1.0
85	0x3f800000	1.0
86	0x3f800000	1.0
87	0x3f800000	1.0
88	0x3f800000	1.0
89	0x3f800000	1.0
90	0x3f800000	1.0
91	0x3f800000	1.0
92	0x3f800000	1.0
93	0x3f800000	1.0
94	0x3f800000	1.0
95	0x3f800000	1.0
96	0x3f800000	1.0
97	0x3f800000	1.0
98	0x3f800000	1.0
99	0x3f800000	1.0

_transform._transforms.2.autoregressive_net.blocks.1.linear_layers.1.weight f4 [10, 10]
0	0x3d168174	0.03674455
1	0xbcacadb4	-0.021078922
2	0xbeca28bf	-0.39484212
3	0xbed57928	-0.41693997
4	0xbef9927b	-0.48744568
5	0x3d9ef4cd	0.07761536
6	0x3e45c774	0.19314367
7	0x3ece8d0b	0.40341982
8	0xbea829c9	-0.3284438
9	0xbdc0a167	-0.09405785
10	0xbda77b6d	-0.081778385
11	0x3e175c87	0.1478139
12	0x3e0ad35c	0.1355719
13	0x3da72150	0.08160651
14	0x3e360a31	0.17777325
15	0xbde8dc81	-0.11370183
16	0xbd7da3e9	-0.061923895
17	0xbdf43f97	-0.11926191
18	0x3df42ef2	0.119230166
19	0x3d00337c	0.0312991
20	0x3d7f749a	0.06236706
21	0xbdc74bc8	-0.09731251
22	0x3e38cef0	0.1804769
23	0x3e713b8c	0.23557872
24	0x3e2d4a6d	0.16922922
25	0x3d2ee811	0.042701785
26	0xbd8d5a04	-0.06901935
27	0xbe55db1b	-0.20884363
28	0x3de76905	0.11299328
29	0xbccc3e76	-0.024932127
30	0xbd39389e	-0.04522001
31	0x3e08f3d5	0.13374265
32	0x3e0467df	0.12930249
33	0x3d97e084	0.0741587
34	0x3e35af13	0.17742567
35	0xbdd70f10	-0.1050092
36	0xbd10cac9	-0.03534964
37	0xbde81e89	-0.11333949
38	0x3dfb6b1c	0.12276289
39	0xbbeddca2	-0.0072589675
40	0xbf11207e	-0.56690204
41	0x3f2b117a	0.6682354
42	0x3fe17b0c	1.7615676
43	0x3fd3c01f	1.6543006
44	0x40058918	2.0864925
45	0xbf5542de	-0.83305156
46	0xbf903fd8	-1.1269484
47	0xbffa5778	-1.9557943
48	0x3fca9eee	1.5829751
49	0x3f13c6d1	0.57725245
50	0x3ece87f0	0.40338087
51	0xbecfca0c	-0.40583837
52	0xbf85d15b	-1.0454515
53	0xbf808b55	-1.0042521
54	0xbf9b247e	-1.2120512
55	0x3efc0e89	0.4922984
56	0x3f3000cd	0.6875122
57	0x3f8b6f51	1.0893346
58	0xbf6c2d42	-0.9225656
59	0xbee645cc	-0.44975126
60	0x3f114e50	0.5676012
61	0xbf606783	-0.87657946
62	0xbfe5874a	-1.7931912
63	0xbfc56e8e	-1.5424364
64	0xc00e36fc	-2.222106
65	0x3f4761de	0.7788371
66	0x3f825fb1	1.0185453
67	0x3ff49eea	1.9110997
68	0xbfc3439d	-1.5255009
69	0xbf01055e	-0.50398815
70	0xbf23b186	-0.63942754
71	0x3f7fb552	0.9988605
72	0x400344ba	2.0510697
73	0x3fdf2aab	1.7434896
74	0x40287186	2.631929
75	0xbf68cf0a	-0.90940917
76	0xbf95b071	-1.1694471
77	0xc00c5c3a	-2.193129
78	0x3fe748ae	1.8069055
79	0x3f1431b2	0.5788833
80	0xbebd171b	-0.3693169
81	0x3edfa3cc	0.43679655
82	0x3f9c983f	1.2233962
83	0x3f93c11d	1.1543308
84	0x3fb5e97a	1.4211876
85	0xbf05457e	-0.5205916
86	0xbf397732	-0.724475
87	0xbfa8bfbf	-1.3183516
88	0x3f8ad5a2	1.0846446
89	0x3ed0c50f	0.40775344
90	0x3df9187e	0.12162875
91	0xbe7e9373	-0.24860935
92	0xbeed7a95	-0.46382585
93	0xbecec694	-0.40385878
94	0xbf1241ed	-0.57131845
95	0x3e6e70ba	0.2328519
96	0x3e4f5b5c	0.20249695
97	0x3ee2700d	0.44226113
98	0xbec3a7d3	-0.38213977
99	0xbd9a9b21	-0.0754912

_transform._transforms.2.autoregressive_net.blocks.1.linear_layers.1.bias f4 [10]
0	0xbd70f765	-0.058829684
1	0xbe43a7fb	-0.19107048
2	0x3e0c2702	0.13686755
3	0xbe1651d8	-0.14679658
4	0xbe551c63	-0.2081161
5	0x3dbe17bb	0.0928187
6	0x3e6de60e	0.2323229
7	0xbe698210	-0.22803521
8	0xbd7e1b32	-0.062037654
9	0x3e87b617	0.2650611

_transform._transforms.2.autoregressive_net.blocks.1.linear_layers.1.mask f4 [10, 10]
0	0x3f800000	1.0
1	0x3f800000	1.0
2	0x3f800000	1.0
3	0x3f800000	1.0
4	0x3f800000	1.0
5	0x3f800000	1.0
6	0x3f800000	1.0
7	0x3f800000	1.0
8	0x3f800000	1.0
9	0x3f800000	1.0
10	0x3f800000	1.0
11	0x3f800000	1.0
12	0x3f800000	1.0
13	0x3f800000	1.0
14	0x3f800000	1.0
15	0x3f800000	1.0
16	0x3f800000	1.0
17	0x3f800000	1.0
18	0x3f800000	1.0
19	0x3f800000	1.0
20	0x3f800000	1.0
21	0x3f800000	1.0
22	0x3f800000	1.0
23	0x3f800000	1.0
24	0x3f800000	1.0
25	0x3f800000	1.0
26	0x3f800000	1.0
27	0x3f800000	1.0
28	0x3f800000	1.0
29	0x3f800000	1.0
30	0x3f800000	1.0
31	0x3f800000	1.0
32	0x3f800000	1.0
33	0x3f800000	1.0
34	0x3f800000	1.0
35	0x3f800000	1.0
36	0x3f800000	1.0
37	0x3f800000	1.0
38	0x3f800000	1.0
39	0x3f800000	1.0
40	0x3f800000	1.0
41	0x3f800000	1.0
42	0x3f800000	1.0
43	0x3f800000	1.0
44	0x3f800000	1.0
45	0x3f800000	1.0
46	0x3f800000	1.0
47	0x3f800000	1.0
48	0x3f800000	1.0
49	0x3f800000	1.0
50	0x3f800000	1.0
51	0x3f800000	1.0
52	0x3f800000	1.0
53	0x3f800000	1.0
54	0x3f800000	1.0
55	0x3f800000	1.0
56	0x3f800000	1.0
57	0x3f800000	1.0
58	0x3f800000	1.0
59	0x3f800000	1.0
60	0x3f800000	1.0
61	0x3f800000	1.0
62	0x3f800000	1.0
63	0x3f800000	1.0
64	0x3f800000	1.0
65	0x3f800000	1.0
66	0x3f800000	1.0
67	0x3f800000	1.0
68	0x3f800000	1.0
69	0x3f800000	1.0
70	0x3f800000	1.0
71	0x3f800000	1.0
72	0x3f800000	1.0
73	0x3f800000	1.0
74	0x3f800000	1.0
75	0x3f800000	1.0
76	0x3f800000	1.0
77	0x3f800000	1.0
78	0x3f800000	1.0
79	0x3f800000	1.0
80	0x3f800000	1.0
81	0x3f800000	1.0
82	0x3f800000	1.0
83	0x3f800000	1.0
84	0x3f800000	1.0
85	0x3f800000	1.0
86	0x3f800000	1.0
87	0x3f800000	1.0
88	0x3f800000	1.0
89	0x3f800000	1.0
90	0x3f800000	1.0
91	0x3f800000	1.0
92	0x3f800000	1.0
93	0x3f800000	1.0
94	0x3f800000	1.0
95	0x3f800000	1.0
96	0x3f800000	1.0
97	0x3f800000	1.0
98	0x3f800000	1.0
99	0x3f800000	1.0

_transform._transforms.2.autoregressive_net.final_layer.weight f4 [4, 10]
0	0x3e14299f	0.14469002
1	0x3d41b255	0.04728921
2	0x3db5ff2e	0.08886562
3	0xbe5fe8c2	-0.21866134
4	0xbc3cef83	-0.011531713
5	0x3debfa60	0.115223646
6	0x3ea14e7e	0.31505197
7	0x3ea136f8	0.3148725
8	0xbe79dad1	-0.24399878
9	0xbe9dd9c1	-0.30830196
10	0x3e06fd34	0.13182527
11	0x3d4cb0ae	0.049973182
12	0x3c362192	0.011116402
13	0xbdd1a6b6	-0.10236876
14	0x3da8960e	0.08231746
15	0xbd82ec21	-0.06392694
16	0x3e8b6cc4	0.2723142
17	0x3e393e17	0.18090092
18	0xbe92b52a	-0.28653842
19	0x3e971373	0.29507026
20	0x3d24398c	0.040093943
21	0xbf006375	-0.5015176
22	0x3e09156a	0.13387075
23	0xbeb7e942	-0.3592015
24	0xbf075512	-0.5286418
25	0x3ea93065	0.33044735
26	0x3ef9b487	0.48770544
27	0xbeea7e06	-0.45799273
28	0xbe838658	-0.25688434
29	0x3ed60a0d	0.41804543
30	0xbf050f97	-0.51976913
31	0x3c9e29a7	0.01930697
32	0x3f11fb27	0.57023853
33	0xbd95af91	-0.07308877
34	0x3f633fb7	0.88769096
35	0xbf2cea8f	-0.6754541
36	0xbf01de0c	-0.5072944
37	0x3eea1adf	0.45723626
38	0x3f0ce72c	0.5504024
39	0xbe077e56	-0.13231787

_transform._transforms.2.autoregressive_net.final_layer.bias f4 [4]
0	0x3f385c42	0.72015774
1	0x3c546aaa	0.012964884
2	0x3e5c1688	0.2149297
3	0xbdf1c121	-0.118044145

_transform._transforms.2.autoregressive_net.final_layer.mask f4 [4, 10]
0	0x00000000	0.0
1	0x00000000	0.0
2	0x00000000	0.0
3	0x00000000	0.0
4	0x00000000	0.0
5	0x00000000	0.0
6	0x00000000	0.0
7	0x00000000	0.0
8	0x00000000	0.0
9	0x00000000	0.0
10	0x00000000	0.0
11	0x00000000	0.0
12	0x00000000	0.0
13	0x00000000	0.0
14	0x00000000	0.0
15	0x00000000	0.0
16	0x00000000	0.0
17	0x00000000	0.0
18	0x00000000	0.0
19	0x00000000	0.0
20	0x3f800000	1.0
21	0x3f800000	1.0
22	0x3f800000	1.0
23	0x3f800000	1.0
24	0x3f800000	1.0
25	0x3f800000	1.0
26	0x3f800000	1.0
27	0x3f800000	1.0
28	0x3f800000	1.0
29	0x3f800000	1.0
30	0x3f800000	1.0
31	0x3f800000	1.0
32	0x3f800000	1.0
33	0x3f800000	1.0
34	0x3f800000	1.0
35	0x3f800000	1.0
36	0x3f800000	1.0
37	0x3f800000	1.0
38	0x3f800000	1.0
39	0x3f800000	1.0

_transform._transforms.4.autoregressive_net.initial_layer.weight f4 [10, 2]
0	0xbc4b0333	-0.0123908995
1	0x3f1e70d1	0.61890894
2	0x3f6045ae	0.8760632
3	0xbf1b6660	-0.60703087
4	0x3e94e91c	0.29084098
5	0xbecae5a5	-0.3962833
6	0x3d4388ec	0.047738
7	0x3e046f57	0.12933098
8	0x3ecf02ab	0.40431723
9	0x3f106b4a	0.5641371
10	0xbef3e5c4	-0.47636235
11	0xbdd4b4bf	-0.10386037
12	0x3f2995bb	0.66244096
13	0x3ef19b2c	0.471887
14	0x3f62301d	0.88354665
15	0xbdabcb14	-0.083883435
16	0xbf2b0dda	-0.6681801
17	0x3ecd31b7	0.40076992
18	0xbd91b68b	-0.071148954
19	0xbee05d1f	-0.43821046

_transform._transforms.4.autoregressive_net.initial_layer.bias f4 [10]
0	0x3ebee60c	0.37284887
1	0xbee0c504	-0.4390031
2	0xbf4a2498	-0.7896209
3	0xbf2143db	-0.62994164
4	0xbe83882d	-0.2568983
5	0x3f3cfcc8	0.73823214
6	0xbd77732e	-0.06041258
7	0xbf25c148	-0.6474805
8	0xbe98e2da	-0.29860574
9	0x3ebae2e9	0.36501244

_transform._transforms.4.autoregressive_net.initial_layer.mask f4 [10, 2]
0	0x3f800000	1.0
1	0x00000000	0.0
2	0x3f800000	1.0
3	0x00000000	0.0
4	0x3f800000	1.0
5	0x00000000	0.0
6	0x3f800000	1.0
7	0x00000000	0.0
8	0x3f800000	1.0
9	0x00000000	0.0
10	0x3f800000	1.0
11	0x00000000	0.0
12	0x3f800000	1.0
13	0x00000000	0.0
14	0x3f800000	1.0
15	0x00000000	0.0
16	0x3f800000	1.0
17	0x00000000	0.0
18	0x3f800000	1.0
19	0x00000000	0.0
