symmetry-informed-flows/notebooks/DampedHarmonicOscillator/damped-harmonic-oscillator-with-similarity-embedding-flow-weights.pth (torch, 92767 bytes, 120 tensors)

_transform._transforms.0.autoregressive_net.initial_layer.weight f4 [10, 2]
00000000: 4d70 673f 6b19 fbbe 8ec6 023d 7777 893d
00000010: 72f8 b63d e152 e7be 2fc4 963e f6b1 913e
00000020: 3c05 b0be 6f15 223f 3745 923f cd2a dd3e
00000030: 65e4 9d3c aaf1 cc3e 5e37 bf3c df6b 0bbf
00000040: 39b2 5abf eb87 2ebf 538b a3be e4e3 563e
0.9040573 -0.4904283 0.031927638 0.06712239 0.08934106 -0.4518042 0.2944655 0.28456086
-0.34378994 0.63313955 1.1427373 0.43196717 0.019273946 0.40028125 0.02334183 -0.54461473
-0.85428196 -0.68176144 -0.31942233 0.20985371

_transform._transforms.0.autoregressive_net.initial_layer.bias f4 [10]
00000000: 1efd ecbe 2a68 2d3e 909c 313f 0e8c 2dbf
00000010: 87e2 b6be 4819 edbe f2b4 cfbe 5b34 9ebd
00000020: b1b9 2dbf 742d 1dbf
-0.46286863 0.16934267 0.6937952 -0.6779183 -0.35719702 -0.4630835 -0.40567738 -0.0772483
-0.6786147 -0.6139748

_transform._transforms.0.autoregressive_net.initial_layer.mask f4 [10, 2]
00000000: 0000 803f 0000 0000 0000 803f 0000 0000
00000010: 0000 803f 0000 0000 0000 803f 0000 0000
00000020: 0000 803f 0000 0000 0000 803f 0000 0000
00000030: 0000 803f 0000 0000 0000 803f 0000 0000
00000040: 0000 803f 0000 0000 0000 803f 0000 0000
1.0 0.0 1.0 0.0 1.0 0.0 1.0 0.0
1.0 0.0 1.0 0.0 1.0 0.0 1.0 0.0
1.0 0.0 1.0 0.0

_transform._transforms.0.autoregressive_net.context_layer.weight f4 [10, 3]
00000000: 6931 83be 05ca 7b3c 9d32 3dbd e8fb 63be
00000010: ca4c 4a3e 0534 9e3e 476d 9a3e 9114 2a3e
00000020: d2b1 83be 7318 a9be b399 c73e 0d61 103f
00000030: 1431 ebbd f32a d03e 4931 1bbf 99eb 2f3e
00000040: 6e0c 4cbe 3233 fb3e ef93 26be 9cbd 1e3c
00000050: f277 423c a895 743d 09d1 693e 759e 4b3e
00000060: 6377 90be fb8e d13d 6bd7 a2bd 688d 83be
00000070: dfe2 123f eb1d c6bc
-0.25623634 0.015367989 -0.046190847 -0.22264063 0.19755855 0.30899063 0.30161497 0.16609408
-0.25721604 -0.33026466 0.3898445 0.5639809 -0.1148397 0.40657768 -0.6062208 0.17179717
-0.19926617 0.49062496 -0.1626737 0.009688761 0.0118694175 0.059713036 0.22833647 0.19884665
-0.28216085 0.102323495 -0.07951244 -0.25693822 0.5737743 -0.024184188

_transform._transforms.0.autoregressive_net.context_layer.bias f4 [10]
00000000: 6dc1 8bbf 206c 8bbf 36b7 ccbf 128b 3e3f
00000010: f6c8 543f 2cb4 853e b21a e7bf 0063 f63f
00000020: 49b9 973f 4cd5 06bf
-1.0918404 -1.0892372 -1.5993412 0.74430954 0.8311914 0.26114023 -1.8055022 1.9248962
1.185342 -0.52669215

_transform._transforms.0.autoregressive_net.blocks.0.context_layer.weight f4 [10, 3]
00000000: a81a 34bf c3d1 1b3f d572 e73e 38ab ba3c
00000010: 62f3 42bf 0f02 39be 055c 95be 34cf ac3e
00000020: 8b8e 62bd 54a5 4f3f 3d03 0ebf bb99 acbe
00000030: 1439 a6be 02e6 063f 7252 003f 1a34 51be
00000040: b6c9 373e 94bd fd3b 6577 0fbf 18e5 9cbe
00000050: b30e 0c3f 3d96 193e 5f53 423e 1a53 cbbe
00000060: b040 d9be da2c 30be 3df3 37bf dbea fe3e
00000070: 7d28 72be c9aa 4f3f
-0.70353174 0.60866946 0.45204797 0.022786722 -0.7615262 -0.18067192 -0.29171768 0.33751833
-0.05531172 0.81111646 -0.5547369 -0.33711037 -0.32465422 0.52694714 0.501258 -0.20430031
0.1794804 0.0077435467 -0.56041557 -0.30643535 0.5470993 0.14998718 0.18977116 -0.3971184
-0.42432165 -0.1720461 -0.7185553 0.49788556 -0.23648258 0.8111997

_transform._transforms.0.autoregressive_net.blocks.0.context_layer.bias f4 [10]
00000000: 61f6 f63d ea29 003f de84 403f 071a 59bf
00000010: 3a25 5fbe f575 27bf 24e0 07bf 6f13 11bf
00000020: 0358 313e 16fa 393f
0.12058712 0.50063956 0.7520274 -0.8480534 -0.21791545 -0.65414363 -0.53076386 -0.5667028
0.1731873 0.72647226

_transform._transforms.0.autoregressive_net.blocks.0.linear_layers.0.weight f4 [10, 10]
00000000: 941f 1b3f ffaf edbe abea 013e 3502 59bf
00000010: c349 b3be 2ae7 37be 12e1 bdbb 3184 c4be
00000020: a747 df3e 5f45 3f3f 19eb 83bf 1d5b f63f
00000030: 3f93 98be b6a4 c4bf 2b65 e7bf dcec 8b3f
00000040: b590 2abf 6dcc d23e 0141 75bf 6c65 42bf
00000050: f9c0 02bf 7878 c13f bcf0 b43f 3c8e 7a3f
00000060: d7f8 08c0 dcd0 c03f 6268 a43f 52fb 1d3e
00000070: b831 ccc0 d892 713f 6c57 aebe 3e5c 83be
00000080: 6afa 243e 798e 473d cbf9 6ebf a769 8dbe
00000090: 4428 733f a2e1 063f a296 33be dedf 64be
000000a0: be09 fb3f a383 a3bf 102b a43e e280 85be
000000b0: b997 bb3f 02c1 24bf cb18 b93d 2882 0a3f
000000c0: ee0c 3f3f 80c3 4abe 9fa3 c9be 5a6d 703f
000000d0: a0c9 a73f 90fb 043f 8b5c ec3d e69f 933f
000000e0: 6907 0c40 b45b 94be 714d 98c0 1650 bcbf
000000f0: 3a1d e4bf 8edc 743f d9f0 17be fa12 8d3f
00000100: 7485 c73e cded b73e c8ee 123f cd5c 983f
00000110: 6315 7c3e c0a1 1e40 73b6 a13f 9529 41bf
00000120: 02c5 12bf fb55 acbe f99d 9dbf 7423 ca3f
00000130: 3fb2 9a3f d082 f3be a8fe 03bf 1a07 13bf
00000140: f625 8abd eab7 a13f 2568 0cbf 3918 47bf
00000150: 901d 62bf 98ab a93f 21ef ad3e 3d89 b2be
00000160: f055 8dbf e6a5 11c0 ddbc 2ec0 1845 34bf
00000170: 28af efbe 4012 8ebf 742e ae3f 9de8 ccbe
00000180: 57e4 64be b0b2 6dbe 60ee c93b 8ddf 803f
0.6059506 -0.46423337 0.12687175 -0.8476899 -0.35017213 -0.17959276 -0.0057946527 -0.38382104
0.43609354 0.74715227 -1.0306121 1.9246556 -0.2979984 -1.5362766 -1.8077749 1.0931659
-0.66627055 0.4117159 -0.95802313 -0.7593601 -0.510757 1.5114889 1.4135966 0.9787328
-2.140188 1.5063739 1.2844355 0.15427902 -6.381069 0.9436469 -0.34051073 -0.25656313
0.1611115 0.048719857 -0.93349904 -0.2761967 0.94983315 0.5268804 -0.1753793 -0.22351024
1.9612348 -1.2774547 0.32064104 -0.26074892 1.4655677 -0.64357007 0.09037932 0.5410485
0.74629104 -0.1980114 -0.39382645 0.9391686 1.3108406 0.51946354 0.11541089 1.1533172
2.1879523 -0.28976214 -4.7594533 -1.471194 -1.7821419 0.9564904 -0.1483797 1.1021416
0.38969004 0.35923615 0.573956 1.190332 0.24617533 2.4786224 1.2633804 -0.75454074
-0.5733186 -0.33659348 -1.2313834 1.579207 1.2085646 -0.4756074 -0.5156045 -0.5743271
-0.06745522 1.2634251 -0.5484641 -0.77771336 -0.8832636 1.3255491 0.33971503 -0.3487033
-1.1041851 -2.2757506 -2.7302773 -0.7041793 -0.4681332 -1.109932 1.3607926 -0.4002122
-0.2235273 -0.23212695 0.0061624497 1.0068222

_transform._transforms.0.autoregressive_net.blocks.0.linear_layers.0.bias f4 [10]
00000000: b98f 60be f82f 9d3e b109 283f 52f6 d8be
00000010: 1b33 6dbe 03fe 0abe 8564 123b 5024 5cbf
00000020: 9274 5abe 463f 043e
-0.21929826 0.3070066 0.6563979 -0.42375427 -0.23164026 -0.1357346 0.0022337746 -0.8599291
-0.2133353 0.12914762

_transform._transforms.0.autoregressive_net.blocks.0.linear_layers.0.mask f4 [10, 10]
00000000: 0000 803f 0000 803f 0000 803f 0000 803f
00000010: 0000 803f 0000 803f 0000 803f 0000 803f
00000020: 0000 803f 0000 803f 0000 803f 0000 803f
00000030: 0000 803f 0000 803f 0000 803f 0000 803f
00000040: 0000 803f 0000 803f 0000 803f 0000 803f
00000050: 0000 803f 0000 803f 0000 803f 0000 803f
00000060: 0000 803f 0000 803f 0000 803f 0000 803f
00000070: 0000 803f 0000 803f 0000 803f 0000 803f
00000080: 0000 803f 0000 803f 0000 803f 0000 803f
00000090: 0000 803f 0000 803f 0000 803f 0000 803f
000000a0: 0000 803f 0000 803f 0000 803f 0000 803f
000000b0: 0000 803f 0000 803f 0000 803f 0000 803f
000000c0: 0000 803f 0000 803f 0000 803f 0000 803f
000000d0: 0000 803f 0000 803f 0000 803f 0000 803f
000000e0: 0000 803f 0000 803f 0000 803f 0000 803f
000000f0: 0000 803f 0000 803f 0000 803f 0000 803f
00000100: 0000 803f 0000 803f 0000 803f 0000 803f
00000110: 0000 803f 0000 803f 0000 803f 0000 803f
00000120: 0000 803f 0000 803f 0000 803f 0000 803f
00000130: 0000 803f 0000 803f 0000 803f 0000 803f
00000140: 0000 803f 0000 803f 0000 803f 0000 803f
00000150: 0000 803f 0000 803f 0000 803f 0000 803f
00000160: 0000 803f 0000 803f 0000 803f 0000 803f
00000170: 0000 803f 0000 803f 0000 803f 0000 803f
00000180: 0000 803f 0000 803f 0000 803f 0000 803f
1.0 1.0 1.0 1.0 1.0 1.0 1.0 1.0
1.0 1.0 1.0 1.0 1.0 1.0 1.0 1.0
1.0 1.0 1.0 1.0 1.0 1.0 1.0 1.0
1.0 1.0 1.0 1.0 1.0 1.0 1.0 1.0
1.0 1.0 1.0 1.0 1.0 1.0 1.0 1.0
1.0 1.0 1.0 1.0 1.0 1.0 1.0 1.0
1.0 1.0 1.0 1.0 1.0 1.0 1.0 1.0
1.0 1.0 1.0 1.0 1.0 1.0 1.0 1.0
1.0 1.0 1.0 1.0 1.0 1.0 1.0 1.0
1.0 1.0 1.0 1.0 1.0 1.0 1.0 1.0
1.0 1.0 1.0 1.0 1.0 1.0 1.0 1.0
1.0 1.0 1.0 1.0 1.0 1.0 1.0 1.0
1.0 1.0 1.0 1.0

_transform._transforms.0.autoregressive_net.blocks.0.linear_layers.1.weight f4 [10, 10]
00000000: 4a87 323f 63e2 593e 30b6 883e 0303 afbd
00000010: 2b97 083e 3ecc 133f f411 a63e 559a f73e
00000020: 68e3 313d b0f7 3ebc ff9a 6abd da35 f53d
00000030: f5c4 7f3d 41b5 ef3d 0e39 3ebe fb09 4dbd
00000040: 10c3 81bd 6632 87bd bca6 df3d 7674 903e
00000050: d185 e33e 40ea 36be 3217 25bf 3e8e 10be
00000060: 49fc 773d d5c2 9e3e 9028 fa3c 1b42 d53d
00000070: 8bfb 123d 44ae 043e 2a5a 143f 4699 99bd
00000080: 9180 5f3e 3dd6 d2be caaa 9c3e 992b d83e
00000090: 91b5 a9bd 6cfe 45bd 0ec5 4ebe 0903 85be
000000a0: ffb7 4d3e df67 d7be 23f6 203d 74b8 743e
000000b0: 2f8d c03e 522f 473e d26e 14bf a09e 943e
000000c0: 7369 8b3c f95b b33d 5a27 c03c 5107 21bc
000000d0: e20f 52be 0188 81be 206c 7b3e fa1b 863e
000000e0: 7ea3 2e3e 946f 67bf 17f8 a63d f803 993d
000000f0: 72f2 c7bd 6aa0 79bc 24ea 75bd 35ca 84bd
00000100: 14ff 82be 22c5 ddbd b442 a43d db70 173e
00000110: 8ed1 55bd 0bbb 24be 156d fc3b 0842 c23d
00000120: 2869 8f3e 51fa 723d 7b4f 9e3e 2526 9d3e
00000130: f9a7 39be 991d e9bc 8afd 90bd da4b 023e
00000140: ed57 413c 7cb3 64bd ae9a 213d cc72 17bc
00000150: 89b1 12be 679f 193c 9697 123e be69 a13e
00000160: 66ea d13d f7e3 8e3c d4b3 6e3e 8658 55be
00000170: 6b72 e3be d7f0 babe 415b 743e c2db 2bbf
00000180: 0a14 a8be 4f56 36be e960 b5be af7e 643e
0.69737685 0.21277766 0.26701498 -0.08545496 0.13338916 0.57733524 0.32435572 0.48359933
0.043429762 -0.011655733 -0.057276722 0.11973162 0.062443692 0.11704493 -0.18576452 -0.050058346
-0.06336033 -0.066014096 0.10920474 0.28213853 0.4443803 -0.17862797 -0.6448852 -0.14116761
0.060543332 0.3100802 0.03053692 0.10412999 0.03588442 0.12957102 0.5795008 -0.07499938
0.21826388 -0.41179076 0.30599052 0.42220762 -0.08286584 -0.04833834 -0.20192358 -0.25978878
0.2008972 -0.42071435 0.039297234 0.23898488 0.37607715 0.19451645 -0.579816 0.2902727
0.017018056 0.08757777 0.023456264 -0.0098284045 -0.20513871 -0.25299075 0.24552965 0.2619322
0.17054555 -0.9040463 0.08152788 0.0747146 -0.0976304 -0.015236 -0.060037747 -0.064838804
-0.25585234 -0.10828616 0.08020535 0.14789145 -0.0522018 -0.16086976 0.0077034333 0.09485251
0.28009915 0.05932075 0.30920014 0.30693164 -0.18130483 -0.028456496 -0.07079609 0.12724248
0.011800748 -0.055835232 0.039454155 -0.009243678 -0.14325537 0.009376383 0.14315638 0.31525987
0.10249786 0.017442686 0.23310786 -0.2083455 -0.4442323 -0.3651187 0.23862936 -0.671322
-0.3282779 -0.17806362 -0.354255 0.22313951

_transform._transforms.0.autoregressive_net.blocks.0.linear_layers.1.bias f4 [10]
00000000: b01e 6d3e eedf 10be 3ad3 093f 185d 33bf
00000010: e3e0 08be 499f aabe dcdd 3cbe 6488 bb3d
00000020: 901f 28bf 36e7 06bf
0.23156238 -0.14147922 0.5383793 -0.70063925 -0.13367037 -0.3332465 -0.18444008 0.09156874
-0.6567316 -0.5269655

_transform._transforms.0.autoregressive_net.blocks.0.linear_layers.1.mask f4 [10, 10]
00000000: 0000 803f 0000 803f 0000 803f 0000 803f
00000010: 0000 803f 0000 803f 0000 803f 0000 803f
00000020: 0000 803f 0000 803f 0000 803f 0000 803f
00000030: 0000 803f 0000 803f 0000 803f 0000 803f
00000040: 0000 803f 0000 803f 0000 803f 0000 803f
00000050: 0000 803f 0000 803f 0000 803f 0000 803f
00000060: 0000 803f 0000 803f 0000 803f 0000 803f
00000070: 0000 803f 0000 803f 0000 803f 0000 803f
00000080: 0000 803f 0000 803f 0000 803f 0000 803f
00000090: 0000 803f 0000 803f 0000 803f 0000 803f
000000a0: 0000 803f 0000 803f 0000 803f 0000 803f
000000b0: 0000 803f 0000 803f 0000 803f 0000 803f
000000c0: 0000 803f 0000 803f 0000 803f 0000 803f
000000d0: 0000 803f 0000 803f 0000 803f 0000 803f
000000e0: 0000 803f 0000 803f 0000 803f 0000 803f
000000f0: 0000 803f 0000 803f 0000 803f 0000 803f
00000100: 0000 803f 0000 803f 0000 803f 0000 803f
00000110: 0000 803f 0000 803f 0000 803f 0000 803f
00000120: 0000 803f 0000 803f 0000 803f 0000 803f
00000130: 0000 803f 0000 803f 0000 803f 0000 803f
00000140: 0000 803f 0000 803f 0000 803f 0000 803f
00000150: 0000 803f 0000 803f 0000 803f 0000 803f
00000160: 0000 803f 0000 803f 0000 803f 0000 803f
00000170: 0000 803f 0000 803f 0000 803f 0000 803f
00000180: 0000 803f 0000 803f 0000 803f 0000 803f
1.0 1.0 1.0 1.0 1.0 1.0 1.0 1.0
1.0 1.0 1.0 1.0 1.0 1.0 1.0 1.0
1.0 1.0 1.0 1.0 1.0 1.0 1.0 1.0
1.0 1.0 1.0 1.0 1.0 1.0 1.0 1.0
1.0 1.0 1.0 1.0 1.0 1.0 1.0 1.0
1.0 1.0 1.0 1.0 1.0 1.0 1.0 1.0
1.0 1.0 1.0 1.0 1.0 1.0 1.0 1.0
1.0 1.0 1.0 1.0 1.0 1.0 1.0 1.0
1.0 1.0 1.0 1.0 1.0 1.0 1.0 1.0
1.0 1.0 1.0 1.0 1.0 1.0 1.0 1.0
1.0 1.0 1.0 1.0 1.0 1.0 1.0 1.0
1.0 1.0 1.0 1.0 1.0 1.0 1.0 1.0
1.0 1.0 1.0 1.0

_transform._transforms.0.autoregressive_net.blocks.1.context_layer.weight f4 [10, 3]
00000000: 5dfd f93e 4f06 04bf 460d c9be 6927 a73e
00000010: f520 85be 061e f2be 79e8 4abf 064e be3e
00000020: 5bfc 483e 5f0c 1abe 7e60 abbd c31d 3b3e
00000030: d65f e23e c776 df3e 2636 8abf 7f73 87be
00000040: 4df8 063e c050 e43d d449 113e 21de cdbe
00000050: c2e0 52bd f941 8ebe bbf0 02bf 3706 823e
00000060: d12b 173f f1e8 993d c852 b2be 279c 31bf
00000070: 3672 053e 68cc 143e
0.48826113 -0.51572126 -0.3926794 0.32647255 -0.26001707 -0.4728853 -0.79260975 0.37168902
0.19627516 -0.15043782 -0.08368014 0.18273072 0.44213742 0.43645307 -1.0797775 -0.26455304
0.13180657 0.11148214 0.1418832 -0.40208533 -0.051483877 -0.27784708 -0.51148576 0.25395367
0.59051234 0.07515133 -0.34828782 -0.69378895 0.1303185 0.145311

_transform._transforms.0.autoregressive_net.blocks.1.context_layer.bias f4 [10]
00000000: 33b8 023f 9448 0abf c0f0 fd3d 6204 da3e
00000010: fd4f 5a3f f758 52be 9666 a33e 9a27 0b3f
00000020: 0c50 1bbf 1268 94be
0.51062316 -0.54016995 0.12399435 0.4258147 0.852783 -0.2054175 0.31914204 0.543573
-0.60669017 -0.2898565

_transform._transforms.0.autoregressive_net.blocks.1.linear_layers.0.weight f4 [10, 10]
00000000: 8a26 193f 76e2 47bf 6579 723f 96cc 753f
00000010: 1eb2 71bf 03ca 2a3e 091c 02bf 67d3 3a3f
00000020: d566 4ebe 1a60 a8bf c151 c8bd 326f eebc
00000030: fe30 34bf a3ac 093d c444 debf 0790 673f
00000040: 3d4a 283d dff3 a1be aa78 edbd 7f06 71bf
00000050: 3fb4 383f 8ed5 12bf 03b9 9b3e d7fa 3a3f
00000060: d57e bdbe 5193 5ebe 44ab 8bbf 335b 63be
00000070: 2628 edbe fd05 d1bd 64ab 1d3f 1cae aabf
00000080: 3989 7a3f 833a 423f 6133 e7be d522 c8bf
00000090: 66e7 edbd 1966 41bd 6fbf b43d 1197 323f
000000a0: 94dc 35bf d935 76bf 8e5e 38be 53f6 843e
000000b0: 61c4 47bf 2069 1f3e fc86 293f e3f5 7b3e
000000c0: f5cf 0bbe fccc f2bf 9a06 80bf ebee 3c3f
000000d0: 7145 623e 0db6 8f3e ecc3 bdbe edf0 86be
000000e0: 7b3e 5e3f 3f8c 1bbf 4509 26bf 353f ee3f
000000f0: 9329 84be 6cf5 c0bf dd3e 8a3f 2769 d33e
00000100: fd2f 0f40 6ab8 0bbe 6c01 8b3e 80cb b53e
00000110: 13be 5e3f 5e50 273f b52f 01c0 843f 593f
00000120: d7ed 213e ee89 d13f 7b93 b4bf 08aa 6d3f
00000130: e4dc 6abf a212 943f 1c3b 1abe 0b56 bebf
00000140: 9d1c 2cbf 3ac1 b13e cfee f5be 9f7f c4bf
00000150: 667f f0bd c55c 9c3f 1b79 d13e 9bf9 30bf
00000160: 6ab4 663e 4f5e e43c 5a3f d9be bb68 4d3e
00000170: 15ad 113d 7659 d13f c468 1e3f 52b4 483f
00000180: 3ca9 4fbc d5d9 4d3f 7071 9c3e 8db0 873f
0.5982443 -0.78079927 0.94716483 0.960153 -0.9441241 0.16678624 -0.5082403 0.72978824
-0.20156415 -1.3154328 -0.09781218 -0.029105756 -0.70387256 0.033611905 -1.7364736 0.90454143
0.041086424 -0.3163137 -0.115952805 -0.9415054 0.72150034 -0.5735711 0.3041459 0.73039
-0.37010828 -0.21735884 -1.0911641 -0.22202758 -0.46319693 -0.1020622 0.61589646 -1.3334384
0.97865635 0.7587053 -0.45156386 -1.563563 -0.116164014 -0.04721651 0.088255756 0.6976176
-0.710397 -0.96175915 -0.1800482 0.2596918 -0.78034025 0.15567446 0.66221595 0.24605517
-0.13653548 -1.8968806 -1.0002015 0.7380206 0.22096802 0.2806858 -0.3706354 -0.26355687
0.8681409 -0.60760874 -0.64857894 1.8613039 -0.2581297 -1.5074897 1.0800434 0.41291162
2.237304 -0.13644567 0.27149522 0.3550682 0.8700878 0.65357006 -2.0185368 0.8486254
0.15813385 1.6370218 -1.4107507 0.9283757 -0.917433 1.1568186 -0.15061611 -1.4870008
-0.6723116 0.34717733 -0.4803376 -1.5351447 -0.11743049 1.2215811 0.4091271 -0.6913087
0.2252976 0.027877001 -0.42431146 0.20059483 0.035565455 1.6355426 0.6187861 0.78400147
-0.012674626 0.8041051 0.30555296 1.0600754

_transform._transforms.0.autoregressive_net.blocks.1.linear_layers.0.bias f4 [10]
00000000: f930 173d e2e2 1b3d 1174 b83e b61a 683e
00000010: 94ad ce3e cc70 173f 187c fa3e 4bdf fc3d
00000020: 4369 b7be 649b 263d
0.03691194 0.03805817 0.36026052 0.2266644 0.40366805 0.5915649 0.489228 0.12347277
-0.35822496 0.040675536

_transform._transforms.0.autoregressive_net.blocks.1.linear_layers.0.mask f4 [10, 10]
00000000: 0000 803f 0000 803f 0000 803f 0000 803f
00000010: 0000 803f 0000 803f 0000 803f 0000 803f
00000020: 0000 803f 0000 803f 0000 803f 0000 803f
00000030: 0000 803f 0000 803f 0000 803f 0000 803f
00000040: 0000 803f 0000 803f 0000 803f 0000 803f
00000050: 0000 803f 0000 803f 0000 803f 0000 803f
00000060: 0000 803f 0000 803f 0000 803f 0000 803f
00000070: 0000 803f 0000 803f 0000 803f 0000 803f
00000080: 0000 803f 0000 803f 0000 803f 0000 803f
00000090: 0000 803f 0000 803f 0000 803f 0000 803f
000000a0: 0000 803f 0000 803f 0000 803f 0000 803f
000000b0: 0000 803f 0000 803f 0000 803f 0000 803f
000000c0: 0000 803f 0000 803f 0000 803f 0000 803f
000000d0: 0000 803f 0000 803f 0000 803f 0000 803f
000000e0: 0000 803f 0000 803f 0000 803f 0000 803f
000000f0: 0000 803f 0000 803f 0000 803f 0000 803f
00000100: 0000 803f 0000 803f 0000 803f 0000 803f
00000110: 0000 803f 0000 803f 0000 803f 0000 803f
00000120: 0000 803f 0000 803f 0000 803f 0000 803f
00000130: 0000 803f 0000 803f 0000 803f 0000 803f
00000140: 0000 803f 0000 803f 0000 803f 0000 803f
00000150: 0000 803f 0000 803f 0000 803f 0000 803f
00000160: 0000 803f 0000 803f 0000 803f 0000 803f
00000170: 0000 803f 0000 803f 0000 803f 0000 803f
00000180: 0000 803f 0000 803f 0000 803f 0000 803f
1.0 1.0 1.0 1.0 1.0 1.0 1.0 1.0
1.0 1.0 1.0 1.0 1.0 1.0 1.0 1.0
1.0 1.0 1.0 1.0 1.0 1.0 1.0 1.0
1.0 1.0 1.0 1.0 1.0 1.0 1.0 1.0
1.0 1.0 1.0 1.0 1.0 1.0 1.0 1.0
1.0 1.0 1.0 1.0 1.0 1.0 1.0 1.0
1.0 1.0 1.0 1.0 1.0 1.0 1.0 1.0
1.0 1.0 1.0 1.0 1.0 1.0 1.0 1.0
1.0 1.0 1.0 1.0 1.0 1.0 1.0 1.0
1.0 1.0 1.0 1.0 1.0 1.0 1.0 1.0
1.0 1.0 1.0 1.0 1.0 1.0 1.0 1.0
1.0 1.0 1.0 1.0 1.0 1.0 1.0 1.0
1.0 1.0 1.0 1.0

_transform._transforms.0.autoregressive_net.blocks.1.linear_layers.1.weight f4 [10, 10]
00000000: 3ea6 24be 8d4a 393c 9288 54be efcb e6bd
00000010: c791 e13c fea5 693e d5b0 99bd 1eb9 d8bd
00000020: 8d9a 543e bd6f a83d 77dc 22be 4429 ba3d
00000030: 03d5 a73b a306 58be e8d9 5f3d ab7c 1e3e
00000040: 0775 65bd 2f3c f1bd d57b 103e b0da 673d
00000050: 0981 fb3d b0d4 093e 1c7d 18be 1cdd bd3e
00000060: baff 96ba 259f 3f3b 74d0 d93d c3c8 873d
00000070: 1ffc 66bd faf2 bd3d cf15 cebd b66f 4b3e
00000080: 5d39 f7bd aacb 3bbe e218 c9bb 2304 d23d
00000090: e7cf 7c3d fc6a 4ebb 8fbe dc3d 8d2f a0bb
000000a0: a33a 8cbd 24f3 873d 0b85 bf3b d711 b1be
000000b0: c229 95be 62d2 8abc e4ba a6bc b727 7d3e
000000c0: 9383 3239 678a 1ebe 803d c1bd e1ee 3a3e
000000d0: 228f d43d a759 74be 3d8b bbbc 33cd 0d3c
000000e0: 7792 e43d 2c7e 51bb 6c36 53bd 5207 963c
000000f0: b121 07bd 1376 313d 6b32 a13c badb 82be
00000100: 716d a6bd 94eb 22bc d263 03be 7ce2 31bb
00000110: 7507 8d3d 1198 f0bd df8d 4fbe 6a39 c03d
00000120: 7001 8dbd 4c19 acbd 96fd 5a3d 39cd 7d3e
00000130: a074 9cbd 802e ffbd c3df 903d e3ad e03d
00000140: 4b70 c0bd 8ba5 13bd f871 463d 39ce e0be
00000150: 838b 36be 256e 16bd c150 9ebd 423c d43d
00000160: 4b11 8e3d c5da 58be 1956 603e 4409 173c
00000170: 1e93 bf3d 6b9d 7c3c 4d8d 0abe 7a92 9abe
00000180: 0530 df3d 677f 5e3e ae18 f2bd cf48 38be
-0.16079041 0.011309278 -0.20755222 -0.11269366 0.027535332 0.22817227 -0.07504431 -0.10582183
0.20762081 0.082244374 -0.15904413 0.09089902 0.0051218285 -0.21096282 0.05465117 0.15477245
-0.05601981 -0.11779057 0.14109738 0.05660504 0.12280471 0.1346004 -0.14891475 0.37082756
-0.0011520304 0.0029239145 0.106354624 0.06630089 -0.056392785 0.0927486 -0.100627534 0.19866833
-0.12071488 -0.1833941 -0.0061369995 0.10254695 0.06172171 -0.0031496873 0.10778534 -0.004888481
-0.068471216 0.06638172 0.0058447174 -0.34583923 -0.2913342 -0.016946021 -0.020352788 0.24722181
0.00017024418 -0.15482484 -0.09435558 0.18255188 0.10378863 -0.23862325 -0.022893542 0.00865488
0.111607485 -0.0031966073 -0.051565573 0.018314037 -0.032991115 0.043325495 0.019677361 -0.25558263
-0.08126343 -0.0099438615 -0.12831047 -0.0027143052 0.06886188 -0.11747754 -0.20268963 0.09385951
-0.0688504 -0.084032625 0.053464495 0.24785317 -0.07639432 -0.12460041 0.07073929 0.10970666
-0.09396418 -0.036046546 0.048448533 -0.43907335 -0.17826657 -0.036726136 -0.07730246 0.10363056
0.06936892 -0.21177204 0.21907844 0.009218518 0.09354232 0.015418391 -0.13530464 -0.30189878
0.10897831 0.21728288 -0.118211135 -0.17996524

_transform._transforms.0.autoregressive_net.blocks.1.linear_layers.1.bias f4 [10]
00000000: c9de f73e 1b87 b23d a616 d93e 28c0 35bd
00000010: c848 1ebf ab9c 59bf 09d4 9cbe cb20 6d3e
00000020: 0814 3bbf c263 0dbf
0.4841216 0.087171756 0.42400092 -0.044372708 -0.61829805 -0.8500468 -0.3063052 0.23157041
-0.7307744 -0.55230343

_transform._transforms.0.autoregressive_net.blocks.1.linear_layers.1.mask f4 [10, 10]
00000000: 0000 803f 0000 803f 0000 803f 0000 803f
00000010: 0000 803f 0000 803f 0000 803f 0000 803f
00000020: 0000 803f 0000 803f 0000 803f 0000 803f
00000030: 0000 803f 0000 803f 0000 803f 0000 803f
00000040: 0000 803f 0000 803f 0000 803f 0000 803f
00000050: 0000 803f 0000 803f 0000 803f 0000 803f
00000060: 0000 803f 0000 803f 0000 803f 0000 803f
00000070: 0000 803f 0000 803f 0000 803f 0000 803f
00000080: 0000 803f 0000 803f 0000 803f 0000 803f
00000090: 0000 803f 0000 803f 0000 803f 0000 803f
000000a0: 0000 803f 0000 803f 0000 803f 0000 803f
000000b0: 0000 803f 0000 803f 0000 803f 0000 803f
000000c0: 0000 803f 0000 803f 0000 803f 0000 803f
000000d0: 0000 803f 0000 803f 0000 803f 0000 803f
000000e0: 0000 803f 0000 803f 0000 803f 0000 803f
000000f0: 0000 803f 0000 803f 0000 803f 0000 803f
00000100: 0000 803f 0000 803f 0000 803f 0000 803f
00000110: 0000 803f 0000 803f 0000 803f 0000 803f
00000120: 0000 803f 0000 803f 0000 803f 0000 803f
00000130: 0000 803f 0000 803f 0000 803f 0000 803f
00000140: 0000 803f 0000 803f 0000 803f 0000 803f
00000150: 0000 803f 0000 803f 0000 803f 0000 803f
00000160: 0000 803f 0000 803f 0000 803f 0000 803f
00000170: 0000 803f 0000 803f 0000 803f 0000 803f
00000180: 0000 803f 0000 803f 0000 803f 0000 803f
1.0 1.0 1.0 1.0 1.0 1.0 1.0 1.0
1.0 1.0 1.0 1.0 1.0 1.0 1.0 1.0
1.0 1.0 1.0 1.0 1.0 1.0 1.0 1.0
1.0 1.0 1.0 1.0 1.0 1.0 1.0 1.0
1.0 1.0 1.0 1.0 1.0 1.0 1.0 1.0
1.0 1.0 1.0 1.0 1.0 1.0 1.0 1.0
1.0 1.0 1.0 1.0 1.0 1.0 1.0 1.0
1.0 1.0 1.0 1.0 1.0 1.0 1.0 1.0
1.0 1.0 1.0 1.0 1.0 1.0 1.0 1.0
1.0 1.0 1.0 1.0 1.0 1.0 1.0 1.0
1.0 1.0 1.0 1.0 1.0 1.0 1.0 1.0
1.0 1.0 1.0 1.0 1.0 1.0 1.0 1.0
1.0 1.0 1.0 1.0

_transform._transforms.0.autoregressive_net.final_layer.weight f4 [4, 10]
00000000: 2574 243e 7a1d 663d 33cb 88be 1eec 523e
00000010: 6d66 98be 8f0b e73c 3703 f7bd 1c13 9a3e
00000020: 18a3 51bd 95ff 96be 6d3b f4bd 3fc7 2e3e
00000030: cdaf 27bd 99f7 703e 7c0e 79be dfeb 9a3e
00000040: de84 4b3e f210 87be 8618 cabd 90d3 7c3d
00000050: 1f34 143f 9a33 d13e a80a fa3e 0f5f c93c
00000060: b03c a0be 9431 d5be beb6 63be 29ff c93e
00000070: eb27 4abf a4c0 b7bf e2c8 ec3c 996f 633e
00000080: 8588 93bc 105e 6a3d 0d76 133e 8c7b e73c
00000090: ee8c 043f 32d0 553e bf28 933d 01cb 01bb
0.1605993 0.056180455 -0.2671753 0.20597884 -0.29765645 0.028203754 -0.1206116 0.30092704
-0.05118093 -0.2949187 -0.11925397 0.17068194 -0.04093914 0.23531951 -0.24321932 0.3025808
0.19874904 -0.26380116 -0.09867959 0.0617252 0.5789203 0.4085968 0.48836255 0.02458146
-0.312963 -0.41639388 -0.2223768 0.39452484 -0.7896716 -1.4355664 0.028904382 0.2221054
-0.018009434 0.05721861 0.14400502 0.028257154 0.5177754 0.20880201 0.07185506 -0.0019804838

_transform._transforms.0.autoregressive_net.final_layer.bias f4 [4]
00000000: f3a4 363f c18e 5c3d 191d 5c3f 4d8e 3e3e
0.7134544 0.05384708 0.859819 0.18608971

_transform._transforms.0.autoregressive_net.final_layer.mask f4 [4, 10]
00000000: 0000 0000 0000 0000 0000 0000 0000 0000
00000010: 0000 0000 0000 0000 0000 0000 0000 0000
00000020: 0000 0000 0000 0000 0000 0000 0000 0000
00000030: 0000 0000 0000 0000 0000 0000 0000 0000
00000040: 0000 0000 0000 0000 0000 0000 0000 0000
00000050: 0000 803f 0000 803f 0000 803f 0000 803f
00000060: 0000 803f 0000 803f 0000 803f 0000 803f
00000070: 0000 803f 0000 803f 0000 803f 0000 803f
00000080: 0000 803f 0000 803f 0000 803f 0000 803f
00000090: 0000 803f 0000 803f 0000 803f 0000 803f
0.0 0.0 0.0 0.0 0.0 0.0 0.0 0.0
0.0 0.0 0.0 0.0 0.0 0.0 0.0 0.0
0.0 0.0 0.0 0.0 1.0 1.0 1.0 1.0
1.0 1.0 1.0 1.0 1.0 1.0 1.0 1.0
1.0 1.0 1.0 1.0 1.0 1.0 1.0 1.0

_transform._transforms.2.autoregressive_net.initial_layer.weight f4 [10, 2]
00000000: debd afbe 4154 d9be 7c69 553f 5cfb bc3c
00000010: 5b4c 993d 0bf8 00bf 6c31 013f ba93 853e
00000020: 5cb8 273f df06 ea3e 4328 043e 3e7c acbe
00000030: a0b9 2b3e f862 a93c f335 a73f 6dbc 0c3f
00000040: 02e9 afbf ec07 0b3f a393 dabe ab9a 613e
-0.34324545 -0.42447093 0.8336408 0.023069076 0.07485267 -0.50378484 0.50466037 0.2608927
0.65515685 0.45708367 0.12905984 -0.3368854 0.16770029 0.020677075 1.3063339 0.54975015
-1.3742983 0.5430896 -0.42690763 0.22031657

_transform._transforms.2.autoregressive_net.initial_layer.bias f4 [10]
00000000: 4ac2 c5be 2c9c ccbe f537 5d3e cb94 3fbe
00000010: 8b38 9dbc 31df 133f 1866 5abe 51ac 483f
00000020: e567 243f 07a2 593f
-0.38624793 -0.399629 0.21603377 -0.18709104 -0.019192 0.5776244 -0.21328008 0.78387934
0.6422103 0.8501286

_transform._transforms.2.autoregressive_net.initial_layer.mask f4 [10, 2]
00000000: 0000 803f 0000 0000 0000 803f 0000 0000
00000010: 0000 803f 0000 0000 0000 803f 0000 0000
00000020: 0000 803f 0000 0000 0000 803f 0000 0000
00000030: 0000 803f 0000 0000 0000 803f 0000 0000
00000040: 0000 803f 0000 0000 0000 803f 0000 0000
1.0 0.0 1.0 0.0 1.0 0.0 1.0 0.0
1.0 0.0 1.0 0.0 1.0 0.0 1.0 0.0
1.0 0.0 1.0 0.0

_transform._transforms.2.autoregressive_net.context_layer.weight f4 [10, 3]
00000000: a1f7 a13e c8fa fabc 4b32 72be 5ad3 803e
00000010: 8e0b 91be ea01 47bf c1e4 263f 09e3 f6be
00000020: 7955 373e 82bd 433e d8e8 323e b67b bdbc
00000030: 847e 13be f370 ffbd a921 c5bd d170 623e
00000040: e210 2a3d 6672 213e 0997 9fbd fa36 5cbd
00000050: b363 5dbe 5d6d c6bd 2b21 c2be 0e6f f53d
00000060: 8e16 ecbe dcf8 f13d d740 243e f1f7 ff3e
00000070: 564d e0be 9e89 533e
0.31634238 -0.03063716 -0.23651998 0.25161248 -0.28329128 -0.77737296 0.651928 -0.4822009
0.17903699 0.1911526 0.17471635 -0.023130279 -0.1440373 -0.12472715 -0.09625561 0.22113349
0.041520007 0.15766296 -0.077924795 -0.053763367 -0.21620063 -0.09688828 -0.3791593 0.119840726
-0.46110958 0.11815044 0.1604036 0.49993852 -0.43809003 0.20657966

_transform._transforms.2.autoregressive_net.context_layer.bias f4 [10]
00000000: 286a 7bbf 9173 ce3d 3a4e a53f a2ad 793f
00000010: d274 a6bf 5414 2e3d df19 673e eb9c 973e
00000020: 8956 a23c 8632 2abf
-0.98208857 0.10080636 1.2914498 0.9753057 -1.3004401 0.042499855 0.22568463 0.29611906
0.019816654 -0.6648334

_transform._transforms.2.autoregressive_net.blocks.0.context_layer.weight f4 [10, 3]
00000000: 3a41 02be b46d e83e 918a 133e ddb0 1abe
00000010: 021a 143d 453e 793e 390f f1be fd58 aabe
00000020: e857 183e 300b 2b3f 70dc dc3d 8034 37bf
00000030: 3687 a3bd 0169 58bd 7ef7 21bf 4f28 2a3f
00000040: 7946 b63d d376 0ebf 3c68 a0be d613 333f
00000050: 09f6 0fbf 375a 263f 75ab 1bbe f500 cebe
00000060: d400 d13e 44ba 0f3d 49cf 05be c9f3 813e
00000070: cc69 ddbe 4c25 9abe
-0.12720194 0.45396197 0.14408328 -0.1510653 0.036157615 0.2434016 -0.47081926 -0.33271018
0.14877284 0.66813946 0.107842326 -0.71564484 -0.07984774 -0.052834515 -0.6326827 0.66467756
0.0890016 -0.5565006 -0.31329525 0.6995214 -0.56234795 0.64981407 -0.15202124 -0.40235105
0.40820944 0.035089746 -0.13067354 0.25381306 -0.4324478 -0.3010658

_transform._transforms.2.autoregressive_net.blocks.0.context_layer.bias f4 [10]
00000000: b9f1 3dbe 36a4 cbbd 3af5 843e d665 5d3e
00000010: 963d 9a3b 8318 27be b45e 12bf bbce 463f
00000020: dbe3 6e3f 5fab fc3c
-0.18549241 -0.0994343 0.25968343 0.21620879 0.0047070486 -0.16317944 -0.57175756 0.77659196
0.9331643 0.030843435

_transform._transforms.2.autoregressive_net.blocks.0.linear_layers.0.weight f4 [10, 10]
00000000: ceab a93e ebec 3b3f ecc8 e83d 0702 6dbf
00000010: 04d3 1abf 1ee4 48bf efc1 1c3e f86a a2bf
00000020: a3d0 233e 3aaf 013d df05 82bf 7298 bd3f
00000030: 9f7f c3bd 7269 08bf 5061 ca3f ffce 06bf
00000040: 81d4 0640 9b99 2d3f e1ba 6dbe 40ec cfbd
00000050: c201 c6bd c9c5 8fbe 9da2 c8bf e3c5 2abe
00000060: c326 38be ca46 12bf 7d5f 38be 0aff 8ebe
00000070: 4ba0 aa3f ef1b 9ebf 2ea1 74be 9013 f33e
00000080: db8c c8be c317 a13d 5e07 033e 581e 0dbc
00000090: 706a 3dbf 8e42 acbe fee3 97be a038 973e
000000a0: 4e49 583f 6322 67bf 4ff3 e53e aa91 92bf
000000b0: 4c59 6cbe b255 1dbf d651 5ebf fac0 15bf
000000c0: f857 99bc b2ec 0b3f 12b7 a33e 260e 95bf
000000d0: e83a 44bf 2945 56bf 96db 393f 2337 98be
000000e0: 0e33 07be b515 e43d 0ea4 f3bc 6817 65bf
000000f0: 3afa 733f 00c4 d9be 30a9 3bbf 5c73 18be
00000100: bca0 f2be 6448 15bf 1fbf 3cbf 6900 58be
00000110: b163 113f 7287 07be 01dc efbe dbcd 803e
00000120: 5887 0dbd aa7c bcbe b1eb a93e 6c0b 80bc
00000130: 6e2b ef3d 47c5 673f 6676 51bc 52be dfbe
00000140: 684c 08bf 8575 043e ae4a 173e e973 1fbf
00000150: b5da 403f 6443 12bf b65e 243e 25de 533f
00000160: e11b a03f 3839 05be 99e6 513e 285b c53f
00000170: f4e8 ebbf f3d1 a53e a15c 6d3f 5bc0 a83d
00000180: b122 d33e df31 9d3e f8e9 24bf 249a 4dc0
0.3313889 0.73408383 0.11366448 -0.9258122 -0.60478234 -0.7847308 0.15308355 -1.2688894
0.15997557 0.03166125 -1.0158042 1.4812148 -0.09545826 -0.53285897 1.5810947 -0.526596
2.1067202 0.6781251 -0.2321582 -0.10152483 -0.09668304 -0.28080586 -1.5674626 -0.1667705
-0.17983536 -0.57139266 -0.18005176 -0.27928954 1.3330168 -1.2352275 -0.2388961 0.47475863
-0.39169964 0.0786586 0.12795779 -0.008613192 -0.73990536 -0.33644527 -0.29666132 0.2953539
0.84486854 -0.90286845 0.44912192 -1.1450703 -0.23080939 -0.61458886 -0.8684362 -0.58497584
-0.018718705 0.54658043 0.3197561 -1.1644943 -0.76652384 -0.8369928 0.72600687 -0.29729566
-0.1320307 0.11136953 -0.029741313 -0.8948884 0.9530369 -0.4253235 -0.73305035 -0.14887756
-0.47388256 -0.58313584 -0.7372913 -0.21093906 0.5679274 -0.13235262 -0.46847537 0.25157055
-0.034552902 -0.3681386 0.3318763 -0.015630446 0.116782054 0.90535396 -0.012784576 -0.4369989
-0.53241587 0.12935455 0.14774582 -0.6228624 0.7533372 -0.5713408 0.16051754 0.8276084
1.2508508 -0.13010108 0.20498122 1.5418444 -1.8430467 0.3238674 0.92719465 0.08239814
0.41237405 0.3070211 -0.6441951 -3.212533

_transform._transforms.2.autoregressive_net.blocks.0.linear_layers.0.bias f4 [10]
00000000: 0a30 6dbf ab0c e03e 764a b63d 9cb7 bbbd
00000010: 6266 0abf 4eb0 92be f1c7 c3bd 3f05 8a3e
00000020: bd3f df3e 841d 693e
-0.92651427 0.43759665 0.08900921 -0.0916588 -0.54062474 -0.28650135 -0.0955962 0.26957127
0.43603316 0.22765166

_transform._transforms.2.autoregressive_net.blocks.0.linear_layers.0.mask f4 [10, 10]
00000000: 0000 803f 0000 803f 0000 803f 0000 803f
00000010: 0000 803f 0000 803f 0000 803f 0000 803f
00000020: 0000 803f 0000 803f 0000 803f 0000 803f
00000030: 0000 803f 0000 803f 0000 803f 0000 803f
00000040: 0000 803f 0000 803f 0000 803f 0000 803f
00000050: 0000 803f 0000 803f 0000 803f 0000 803f
00000060: 0000 803f 0000 803f 0000 803f 0000 803f
00000070: 0000 803f 0000 803f 0000 803f 0000 803f
00000080: 0000 803f 0000 803f 0000 803f 0000 803f
00000090: 0000 803f 0000 803f 0000 803f 0000 803f
000000a0: 0000 803f 0000 803f 0000 803f 0000 803f
000000b0: 0000 803f 0000 803f 0000 803f 0000 803f
000000c0: 0000 803f 0000 803f 0000 803f 0000 803f
000000d0: 0000 803f 0000 803f 0000 803f 0000 803f
000000e0: 0000 803f 0000 803f 0000 803f 0000 803f
000000f0: 0000 803f 0000 803f 0000 803f 0000 803f
00000100: 0000 803f 0000 803f 0000 803f 0000 803f
00000110: 0000 803f 0000 803f 0000 803f 0000 803f
00000120: 0000 803f 0000 803f 0000 803f 0000 803f
00000130: 0000 803f 0000 803f 0000 803f 0000 803f
00000140: 0000 803f 0000 803f 0000 803f 0000 803f
00000150: 0000 803f 0000 803f 0000 803f 0000 803f
00000160: 0000 803f 0000 803f 0000 803f 0000 803f
00000170: 0000 803f 0000 803f 0000 803f 0000 803f
00000180: 0000 803f 0000 803f 0000 803f 0000 803f
1.0 1.0 1.0 1.0 1.0 1.0 1.0 1.0
1.0 1.0 1.0 1.0 1.0 1.0 1.0 1.0
1.0 1.0 1.0 1.0 1.0 1.0 1.0 1.0
1.0 1.0 1.0 1.0 1.0 1.0 1.0 1.0
1.0 1.0 1.0 1.0 1.0 1.0 1.0 1.0
1.0 1.0 1.0 1.0 1.0 1.0 1.0 1.0
1.0 1.0 1.0 1.0 1.0 1.0 1.0 1.0
1.0 1.0 1.0 1.0 1.0 1.0 1.0 1.0
1.0 1.0 1.0 1.0 1.0 1.0 1.0 1.0
1.0 1.0 1.0 1.0 1.0 1.0 1.0 1.0
1.0 1.0 1.0 1.0 1.0 1.0 1.0 1.0
1.0 1.0 1.0 1.0 1.0 1.0 1.0 1.0
1.0 1.0 1.0 1.0

_transform._transforms.2.autoregressive_net.blocks.0.linear_layers.1.weight f4 [10, 10]
00000000: 3202 c53d 3168 2bbe 6a0a 09bd 5d9e e6bd
00000010: 2938 2bbe 1d9a 2fbe f2db b9be d83b 07bc
00000020: 38dd 9ebe 053d 0e3d 13bd 553d 08c7 11be
00000030: 1d89 a6be c36d 1abf 2f69 7d3c 6084 c03e
00000040: 5b55 b3bb 6294 fbbe b257 11be 49bd 53be
00000050: 2bb1 dbbd 4b34 8cbe 292f 193e d868 933e
00000060: 3637 ecbd 6198 97be 699d 0dbe 4ff4 b93e
00000070: 0ded 1abe 20ed 3abe 15a4 d13e 2c83 1bbf
00000080: 9418 bf3d d1f7 38bc 0e86 753e f150 b2be
00000090: 0579 a43e 33c7 9cbe 6c62 0fbe 817b aebe
000000a0: fff2 043f 2b4e d5be cbc3 c9bd 1dc7 c4be
000000b0: f089 bbbd a0e4 d7be f024 8b3d 5c25 573e
000000c0: 3c39 c7bd 4b3e c63c 2475 e03e 0531 1dbf
000000d0: 716f d1bd 3013 56be 56ae c2bb bd36 353e
000000e0: ff0b 753c 796f 7e3e f19b 8abd 9d09 47be
000000f0: 7265 b4be a124 573c 5486 ac3d fd0e 90be
00000100: afa8 cc3d d272 193e f7a1 61be 9873 2a3e
00000110: dea3 b13e fceb b1bc dfcb b5bd b930 44be
00000120: 76bf 4abe f62a d03b ec87 14bd 65e7 23be
00000130: bc59 d93b 70de f83e 3afd 9a3e 6d0a 72be
00000140: 568f 193f 8cc0 c6be 87d5 02bd 0907 c4bd
00000150: f378 2c3e 1c38 4c3e b3bb 983d 7609 44bf
00000160: d2ab bebd 9ef8 3bbd 35ea 3e3e af6c cdbc
00000170: 6067 6ebe 4f45 353d 3494 7dbe 108d 0c3f
00000180: 7860 133f 4c1c fb3e 5506 f43e f73b 313e
0.09619559 -0.16738965 -0.033457197 -0.11260674 -0.16720642 -0.17148633 -0.36300617 -0.008254014
-0.31028152 0.03472616 0.05218227 -0.1423608 -0.32526484 -0.60323733 0.015466972 0.37600994
-0.0054728216 -0.49136645 -0.1419361 -0.20677675 -0.107271515 -0.27383646 0.14959396 0.28790927
-0.11533968 -0.29608443 -0.13829578 0.36319205 -0.1512949 -0.18254519 0.40945497 -0.6074703
0.0933086 -0.011289553 0.23976919 -0.34827378 0.3212358 -0.30620727 -0.14002389 -0.340786
0.5193328 -0.416612 -0.09851798 -0.3843316 -0.09157169 -0.42166615 0.06794155 0.21010345
-0.097277135 0.024199625 0.4383937 -0.6140292 -0.10226334 -0.20905757 -0.0059411926 0.17696662
0.014956473 0.24847211 -0.06768025 -0.19437261 -0.35233647 0.013131292 0.084240586 -0.28136435
0.09993111 0.14985207 -0.22034441 0.16645658 0.34695333 -0.021718971 -0.08876776 -0.19159211
-0.19799599 0.0063527776 -0.036262438 -0.16006239 0.0066330116 0.48607206 0.30271322 -0.2363679
0.5998434 -0.38818777 -0.031941917 -0.09571654 0.16843013 0.19943279 0.07457676 -0.76576936
-0.09310116 -0.045891397 0.1864403 -0.025076238 -0.23281622 0.04425555 -0.24763566 0.54902744
0.57569075 0.49045026 0.4766108 0.17308031

_transform._transforms.2.autoregressive_net.blocks.0.linear_layers.1.bias f4 [10]
00000000: 86b7 44be 9533 993e 1b5a 323c 58ea 163e
00000010: 74a9 463e 1275 d43e cd3d e3bc 40a0 813e
00000020: d78c 1a3f 9811 603e
-0.19210634 0.29922166 0.010885741 0.14737833 0.19400579 0.41495568 -0.02773943 0.25317574
0.60371155 0.21881711

_transform._transforms.2.autoregressive_net.blocks.0.linear_layers.1.mask f4 [10, 10]
00000000: 0000 803f 0000 803f 0000 803f 0000 803f
00000010: 0000 803f 0000 803f 0000 803f 0000 803f
00000020: 0000 803f 0000 803f 0000 803f 0000 803f
00000030: 0000 803f 0000 803f 0000 803f 0000 803f
00000040: 0000 803f 0000 803f 0000 803f 0000 803f
00000050: 0000 803f 0000 803f 0000 803f 0000 803f
00000060: 0000 803f 0000 803f 0000 803f 0000 803f
00000070: 0000 803f 0000 803f 0000 803f 0000 803f
00000080: 0000 803f 0000 803f 0000 803f 0000 803f
00000090: 0000 803f 0000 803f 0000 803f 0000 803f
000000a0: 0000 803f 0000 803f 0000 803f 0000 803f
000000b0: 0000 803f 0000 803f 0000 803f 0000 803f
000000c0: 0000 803f 0000 803f 0000 803f 0000 803f
000000d0: 0000 803f 0000 803f 0000 803f 0000 803f
000000e0: 0000 803f 0000 803f 0000 803f 0000 803f
000000f0: 0000 803f 0000 803f 0000 803f 0000 803f
00000100: 0000 803f 0000 803f 0000 803f 0000 803f
00000110: 0000 803f 0000 803f 0000 803f 0000 803f
00000120: 0000 803f 0000 803f 0000 803f 0000 803f
00000130: 0000 803f 0000 803f 0000 803f 0000 803f
00000140: 0000 803f 0000 803f 0000 803f 0000 803f
00000150: 0000 803f 0000 803f 0000 803f 0000 803f
00000160: 0000 803f 0000 803f 0000 803f 0000 803f
00000170: 0000 803f 0000 803f 0000 803f 0000 803f
00000180: 0000 803f 0000 803f 0000 803f 0000 803f
1.0 1.0 1.0 1.0 1.0 1.0 1.0 1.0
1.0 1.0 1.0 1.0 1.0 1.0 1.0 1.0
1.0 1.0 1.0 1.0 1.0 1.0 1.0 1.0
1.0 1.0 1.0 1.0 1.0 1.0 1.0 1.0
1.0 1.0 1.0 1.0 1.0 1.0 1.0 1.0
1.0 1.0 1.0 1.0 1.0 1.0 1.0 1.0
1.0 1.0 1.0 1.0 1.0 1.0 1.0 1.0
1.0 1.0 1.0 1.0 1.0 1.0 1.0 1.0
1.0 1.0 1.0 1.0 1.0 1.0 1.0 1.0
1.0 1.0 1.0 1.0 1.0 1.0 1.0 1.0
1.0 1.0 1.0 1.0 1.0 1.0 1.0 1.0
1.0 1.0 1.0 1.0 1.0 1.0 1.0 1.0
1.0 1.0 1.0 1.0

_transform._transforms.2.autoregressive_net.blocks.1.context_layer.weight f4 [10, 3]
00000000: 61d1 013e fa58 85be 8274 653e bd60 a6bd
00000010: 5581 283e da77 0ebe d4b1 c43e a0cd d4be
00000020: 1e51 b1be cd4d 81be cfe7 88bd 81f2 0b3e
00000030: b078 353d f7c0 77bf 08ec 90be 1562 97be
00000040: b79f 873e 9997 1b3d aafb d03e 3da7 dcbe
00000050: eb88 d0bd cfd3 94be 2c2b 2dbd de65 8d3e
00000060: 6a11 bcbc 281b 8dbe 69c2 95bd c7b8 a33e
00000070: d4a1 29be 10a0 96be
0.12677528 -0.26044446 0.22407725 -0.0812392 0.16455586 -0.13912907 0.38416922 -0.4156313
-0.346322 -0.2525467 -0.06684839 0.13666727 0.04430455 -0.96778816 -0.28305078 -0.29567018
0.2648904 0.03798637 0.40817004 -0.43096343 -0.10182365 -0.29067847 -0.0422775 0.2761678
-0.022957522 -0.2755978 -0.073124714 0.3197691 -0.16565639 -0.29418993

_transform._transforms.2.autoregressive_net.blocks.1.context_layer.bias f4 [10]
00000000: 8202 793e 7a6e 8a3f ac73 a13d f04e 2dbf
00000010: b691 043f 344b 423f 70a9 1fbf a354 283f
00000020: 28e9 b3bf 10c0 86bf
0.24317363 1.0814965 0.07883391 -0.67698574 0.5178484 0.75896 -0.62367916 0.65754145
-1.4055529 -1.0527363

_transform._transforms.2.autoregressive_net.blocks.1.linear_layers.0.weight f4 [10, 10]
00000000: b39b 3abd 4771 86be 8ad4 d4be 6805 0fc0
00000010: 1c00 113e 55ba 7abf 3082 cc3f 392d 883e
00000020: 133a 52bf 51a6 d8bc 3616 0ebf 345e f7be
00000030: af8b 953f c588 a5be 8585 803f 718c a43e
00000040: 7a8f 003d 3c9a 743f e851 a7be 0dd8 eb3e
00000050: f739 93be 5144 e93f df42 29bf 965d 8a3f
00000060: af7d 3b3f 3688 043f 8a3d 363f f99d 8b3f
00000070: a750 abbf cee8 433f f108 f03e 5356 5e3f
00000080: 1fac 66bf 5c79 873e 3431 7dbf 46bb 1c3e
00000090: c697 b2be f315 67bf 4e14 40bf fdc8 8c3e
000000a0: a204 f7be eebe 13c0 78e4 c63f 13dc 843f
000000b0: 3ad2 dbbf 92f7 973f 4c9c a03e f240 173f
000000c0: 9443 59bf fc21 563f fe24 f9bd 5f19 3c3f
000000d0: 1848 653e afa0 063f 3d02 2c3e 329d 2fbf
000000e0: 6301 b5bf 72fc 57bb 87d4 433f 7231 e13e
000000f0: 2e39 c53e 9877 18be c56a 8bbe 50fd 60bf
00000100: 7036 253d 85a6 00bf 99ed 3c3f 5130 0ebf
00000110: 464c 973d 9838 ed3e 4d07 c8be da24 853f
00000120: 73c4 14bd 70b3 3f3e dece a33c 9be8 5b3f
00000130: 94f0 203e 7b41 b43e 4f4c e63f 9c87 f63e
00000140: 8a32 423f dd4a c9bd 53c4 37bf 1705 403f
00000150: 6ed3 c9bf 676f 923e 90d3 2dbf 55e8 19bf
00000160: b511 ac3f 88c5 083e 00d4 b93e a5a8 6cbf
00000170: 4d03 15bb f631 10bf e2b5 2ebd 80ea 933f
00000180: 7741 cfbb dfa7 aebf 8b58 7a40 bea0 943e
-0.045558643 -0.262583 -0.41568404 -2.234705 0.14160198 -0.9794057 1.597723 0.26597002
-0.82119864 -0.026446493 -0.5550264 -0.4831406 1.1683253 -0.3233091 1.0040747 0.32138398
0.03138683 0.9554784 -0.32679677 0.4606327 -0.2875516 1.8223974 -0.6611766 1.080981
0.7323865 0.5177034 0.7118765 1.0907584 -1.3383988 0.76527107 0.46881822 0.8685047
-0.90106386 0.26459777 -0.98903203 0.15305814 -0.3488142 -0.90267867 -0.7503098 0.27497092
-0.48245722 -2.3085284 1.5538473 1.0379661 -1.7173531 1.1872427 0.31369245 0.59083474
-0.8486874 0.83645606 -0.12165259 0.73476213 0.22390783 0.52588934 0.16797729 -0.68599236
-1.4141048 -0.0032956866 0.76496166 0.43983036 0.38520187 -0.14889371 -0.27229896 -0.87886524
0.04033512 -0.5025409 0.73800045 -0.55542475 0.07387595 0.4633224 -0.3906807 1.0401871
-0.03632016 0.18720794 0.019996103 0.859018 0.15716773 0.35206208 1.7992038 0.48150337
0.75858366 -0.09828732 -0.7178394 0.75007766 -1.5767648 0.28600618 -0.67900944 -0.60120136
1.3442904 0.13356602 0.36294556 -0.9244483 -0.0022737563 -0.56326234 -0.042653926 1.1555939
-0.0063249427 -1.364498 3.9116542 0.29028887

_transform._transforms.2.autoregressive_net.blocks.1.linear_layers.0.bias f4 [10]
00000000: 071f be3e 1ac7 703f 5414 0f3f 926f 0ebf
00000010: b57d 3f3f 023d a23c 1b82 d2be 5fce a03d
00000020: f99f 5cbf 36d9 05bf
0.37133047 0.94053805 0.55890393 -0.5563899 0.7480119 0.019804481 -0.41114888 0.07851862
-0.861816 -0.5228456

_transform._transforms.2.autoregressive_net.blocks.1.linear_layers.0.mask f4 [10, 10]
00000000: 0000 803f 0000 803f 0000 803f 0000 803f
00000010: 0000 803f 0000 803f 0000 803f 0000 803f
00000020: 0000 803f 0000 803f 0000 803f 0000 803f
00000030: 0000 803f 0000 803f 0000 803f 0000 803f
00000040: 0000 803f 0000 803f 0000 803f 0000 803f
00000050: 0000 803f 0000 803f 0000 803f 0000 803f
00000060: 0000 803f 0000 803f 0000 803f 0000 803f
00000070: 0000 803f 0000 803f 0000 803f 0000 803f
00000080: 0000 803f 0000 803f 0000 803f 0000 803f
00000090: 0000 803f 0000 803f 0000 803f 0000 803f
000000a0: 0000 803f 0000 803f 0000 803f 0000 803f
000000b0: 0000 803f 0000 803f 0000 803f 0000 803f
000000c0: 0000 803f 0000 803f 0000 803f 0000 803f
000000d0: 0000 803f 0000 803f 0000 803f 0000 803f
000000e0: 0000 803f 0000 803f 0000 803f 0000 803f
000000f0: 0000 803f 0000 803f 0000 803f 0000 803f
00000100: 0000 803f 0000 803f 0000 803f 0000 803f
00000110: 0000 803f 0000 803f 0000 803f 0000 803f
00000120: 0000 803f 0000 803f 0000 803f 0000 803f
00000130: 0000 803f 0000 803f 0000 803f 0000 803f
00000140: 0000 803f 0000 803f 0000 803f 0000 803f
00000150: 0000 803f 0000 803f 0000 803f 0000 803f
00000160: 0000 803f 0000 803f 0000 803f 0000 803f
00000170: 0000 803f 0000 803f 0000 803f 0000 803f
00000180: 0000 803f 0000 803f 0000 803f 0000 803f
1.0 1.0 1.0 1.0 1.0 1.0 1.0 1.0
1.0 1.0 1.0 1.0 1.0 1.0 1.0 1.0
1.0 1.0 1.0 1.0 1.0 1.0 1.0 1.0
1.0 1.0 1.0 1.0 1.0 1.0 1.0 1.0
1.0 1.0 1.0 1.0 1.0 1.0 1.0 1.0
1.0 1.0 1.0 1.0 1.0 1.0 1.0 1.0
1.0 1.0 1.0 1.0 1.0 1.0 1.0 1.0
1.0 1.0 1.0 1.0 1.0 1.0 1.0 1.0
1.0 1.0 1.0 1.0 1.0 1.0 1.0 1.0
1.0 1.0 1.0 1.0 1.0 1.0 1.0 1.0
1.0 1.0 1.0 1.0 1.0 1.0 1.0 1.0
1.0 1.0 1.0 1.0 1.0 1.0 1.0 1.0
1.0 1.0 1.0 1.0

_transform._transforms.2.autoregressive_net.blocks.1.linear_layers.1.weight f4 [10, 10]
00000000: a1a5 033c c0a2 02be f8c2 d13d 9132 8f3e
00000010: 68ab 4c3d ae94 19be c021 2f3e bf9a c53a
00000020: f253 a83e c2a7 bf3c 3d9c 943d 7c28 43bd
00000030: 6b7b a8be ea90 073e d7f2 2b3d 6cae babd
00000040: 3b41 e43c 1cb0 85be a408 babc 90ac 1ebe
00000050: 8895 e8bd a928 adbd 549d 81bd 832c 913e
00000060: 49e4 78bc afb5 32be 0d51 0b3e f5cc 9a3c
00000070: b4a7 623e fb66 473d 3dc1 363e 3986 ca3c
00000080: 1f2d a0be 2979 c03d 79f5 863e 3e42 debd
00000090: 20d1 353d e3e3 1dbe 9939 32bd fc61 50be
000000a0: 9dfb c3bd f286 c8bd bb0d dcbe 877b 023d
000000b0: 09ed 4fbd f0de 28be 6091 d3bd b2ee d5be
000000c0: e990 103c 3600 103c 2bf0 7b3e 915a 353d
000000d0: f23a a2be a196 9dbd 0936 8a3e 0a7a 133d
000000e0: 55c3 e7bd a9e9 5ebe d75b 41be 997e 80be
000000f0: 34fe 0fbd 14b4 ca3d db1b 9bbd d423 7abe
00000100: a609 abbd 7942 103e 09f5 0fbe 547c a83c
00000110: 2c1c 93be 149e 863c a7bc aa3d f647 013c
00000120: 5626 41be 1b1d e6bd b4e1 d139 fdad b33d
00000130: a559 51be 41bc 73be 456e 45be 83e3 19be
00000140: a4d6 073e a29c 7a3d 72a3 97be bf9c 1dbc
00000150: dccc 023e 25e8 e5bc 90cc 7cbd 74e9 a0be
00000160: 1d2e 31be c9bc 98be 20f0 873d b8aa 263d
00000170: 9a42 e5bd 359c 2dbe aa26 4d3c e7df 253e
00000180: c076 2abe 84cd 8abd e9e7 72be ffbd 9ebd
0.0080350945 -0.12757397 0.102422655 0.27968267 0.049968153 -0.14998123 0.17102718 0.0015076025
0.32876545 0.023395423 0.072563626 -0.04764603 -0.3290666 0.13238874 0.041979637 -0.091152996
0.027863136 -0.26110923 -0.022709198 -0.15495515 -0.11356646 -0.08455021 -0.06328836 0.28354272
-0.015191146 -0.1745212 0.13605137 0.01889656 0.22134286 0.048682194 0.17847152 0.024722205
-0.31284425 0.093981095 0.26359156 -0.108524784 0.04438889 -0.15418963 -0.04351196 -0.20349878
-0.09569476 -0.09791364 -0.42979226 0.031856086 -0.050763164 -0.16491294 -0.103304625 -0.41783673
0.008823612 0.008789113 0.24603336 0.044275824 -0.31685597 -0.07694746 0.2699435 0.036005057
-0.113165535 -0.21768822 -0.1888269 -0.25096586 -0.035154536 0.098976284 -0.075736724 -0.2442773
-0.0835145 0.14087857 -0.14058317 0.020567097 -0.2873243 0.0164328 0.08336764 0.007890692
-0.1886228 -0.1123602 0.00040031748 0.0877342 -0.20444353 -0.23802282 -0.19280346 -0.15028195
0.13265473 0.061184533 -0.29616886 -0.009619891 0.1277346 -0.028064797 -0.061718524 -0.3142811
-0.17302747 -0.29831532 0.06637597 0.040690154 -0.11194344 -0.1695412 0.012521425 0.16198693
-0.16646862 -0.0677748 -0.23721279 -0.07751083

_transform._transforms.2.autoregressive_net.blocks.1.linear_layers.1.bias f4 [10]
00000000: a851 d8bd 08a8 243e 8aa8 ffbd 7cd8 983e
00000010: 661c d83d c8ec 9a3e 194a 653d b139 f43d
00000020: a713 9c3e c30c 803d
-0.1056245 0.16079724 -0.12483318 0.29852664 0.105522916 0.30258775 0.05597887 0.11925066
0.30483744 0.06252434

_transform._transforms.2.autoregressive_net.blocks.1.linear_layers.1.mask f4 [10, 10]
00000000: 0000 803f 0000 803f 0000 803f 0000 803f
00000010: 0000 803f 0000 803f 0000 803f 0000 803f
00000020: 0000 803f 0000 803f 0000 803f 0000 803f
00000030: 0000 803f 0000 803f 0000 803f 0000 803f
00000040: 0000 803f 0000 803f 0000 803f 0000 803f
00000050: 0000 803f 0000 803f 0000 803f 0000 803f
00000060: 0000 803f 0000 803f 0000 803f 0000 803f
00000070: 0000 803f 0000 803f 0000 803f 0000 803f
00000080: 0000 803f 0000 803f 0000 803f 0000 803f
00000090: 0000 803f 0000 803f 0000 803f 0000 803f
000000a0: 0000 803f 0000 803f 0000 803f 0000 803f
000000b0: 0000 803f 0000 803f 0000 803f 0000 803f
000000c0: 0000 803f 0000 803f 0000 803f 0000 803f
000000d0: 0000 803f 0000 803f 0000 803f 0000 803f
000000e0: 0000 803f 0000 803f 0000 803f 0000 803f
000000f0: 0000 803f 0000 803f 0000 803f 0000 803f
00000100: 0000 803f 0000 803f 0000 803f 0000 803f
00000110: 0000 803f 0000 803f 0000 803f 0000 803f
00000120: 0000 803f 0000 803f 0000 803f 0000 803f
00000130: 0000 803f 0000 803f 0000 803f 0000 803f
00000140: 0000 803f 0000 803f 0000 803f 0000 803f
00000150: 0000 803f 0000 803f 0000 803f 0000 803f
00000160: 0000 803f 0000 803f 0000 803f 0000 803f
00000170: 0000 803f 0000 803f 0000 803f 0000 803f
00000180: 0000 803f 0000 803f 0000 803f 0000 803f
1.0 1.0 1.0 1.0 1.0 1.0 1.0 1.0
1.0 1.0 1.0 1.0 1.0 1.0 1.0 1.0
1.0 1.0 1.0 1.0 1.0 1.0 1.0 1.0
1.0 1.0 1.0 1.0 1.0 1.0 1.0 1.0
1.0 1.0 1.0 1.0 1.0 1.0 1.0 1.0
1.0 1.0 1.0 1.0 1.0 1.0 1.0 1.0
1.0 1.0 1.0 1.0 1.0 1.0 1.0 1.0
1.0 1.0 1.0 1.0 1.0 1.0 1.0 1.0
1.0 1.0 1.0 1.0 1.0 1.0 1.0 1.0
1.0 1.0 1.0 1.0 1.0 1.0 1.0 1.0
1.0 1.0 1.0 1.0 1.0 1.0 1.0 1.0
1.0 1.0 1.0 1.0 1.0 1.0 1.0 1.0
1.0 1.0 1.0 1.0

_transform._transforms.2.autoregressive_net.final_layer.weight f4 [4, 10]
00000000: 46d1 6ebe e868 893e 4e1d 673e 28f0 683e
00000010: b66a 38bd 1ef8 a4bd 1186 543e 2489 aabb
00000020: b8b5 593c cfc1 7bbe bde4 e93d fabb 92be
00000030: b709 333e 2935 1bbe 5cb6 8dbe 0d6c 763e
00000040: c922 8bbe 62f6 923e ef00 a8bd 0dce 293e
00000050: 25b3 f93d f925 ae3e 50fa 4cbe ebc8 563e
00000060: 389e c0bd e4cc ad3e 9ab5 6bbd 764a 883e
00000070: da32 a53e 4cc3 0d3e 7103 c93e 0746 803e
00000080: 4c56 163e 08e6 643e 5ca7 82bd 8357 8f3c
00000090: 3fb5 4ebe 7a81 843d 5af2 3e3e fb1c 21bc
-0.23322019 0.2683785 0.22569773 0.22747862 -0.045023642 -0.08055137 0.20754267 -0.0052043367
0.013287954 -0.24585651 0.114205815 -0.2865904 0.17484175 -0.15156998 -0.27678192 0.24064656
-0.27174976 0.287036 -0.08203303 0.16582508 0.12192372 0.34013346 -0.20017362 0.20975082
-0.09405178 0.33945382 -0.057546236 0.2661931 0.3226536 0.13844031 0.39260438 0.25053427
0.14681357 0.22353375 -0.063795775 0.017497784 -0.20186327 0.06470008 0.18647137 -0.00983357

_transform._transforms.2.autoregressive_net.final_layer.bias f4 [4]
00000000: 2596 e93e a3a8 09be 047a b03e 799b 2a3e
0.45622364 -0.13443236 0.3446809 0.1666087

_transform._transforms.2.autoregressive_net.final_layer.mask f4 [4, 10]
00000000: 0000 0000 0000 0000 0000 0000 0000 0000
00000010: 0000 0000 0000 0000 0000 0000 0000 0000
00000020: 0000 0000 0000 0000 0000 0000 0000 0000
00000030: 0000 0000 0000 0000 0000 0000 0000 0000
00000040: 0000 0000 0000 0000 0000 0000 0000 0000
00000050: 0000 803f 0000 803f 0000 803f 0000 803f
00000060: 0000 803f 0000 803f 0000 803f 0000 803f
00000070: 0000 803f 0000 803f 0000 803f 0000 803f
00000080: 0000 803f 0000 803f 0000 803f 0000 803f
00000090: 0000 803f 0000 803f 0000 803f 0000 803f
0.0 0.0 0.0 0.0 0.0 0.0 0.0 0.0
0.0 0.0 0.0 0.0 0.0 0.0 0.0 0.0
0.0 0.0 0.0 0.0 1.0 1.0 1.0 1.0
1.0 1.0 1.0 1.0 1.0 1.0 1.0 1.0
1.0 1.0 1.0 1.0 1.0 1.0 1.0 1.0

_transform._transforms.4.autoregressive_net.initial_layer.weight f4 [10, 2]
00000000: cfdc 5e3f bd46 c5be c9c1 dcbd 9dfa 37bd
00000010: 1b11 80bf dc7a a6be 5d24 783c b34d 123f
00000020: 2763 283f da51 863e 6634 d2bd a021 313f
00000030: 0dde 10be 6b91 afbe 6f16 ca3b 1129 b53e
00000040: fdd4 fdbe 812a 123f 7220 ccbe f823 103e
0.8705568 -0.38530532 -0.10779149 -0.044916738 -1.000522 -0.3251561 0.015145388 0.5714981
0.65776294 0.26234323 -0.102639005 0.6919193 -0.14147206 -0.34290633 0.006167225 0.35382894
-0.4957656 0.57096106 -0.39868504 0.14076221

_transform._transforms.4.autoregressive_net.initial_layer.bias f4 [10]
00000000: fd69 92bf 2229 f9be 8fe2 d4be 1772 d2be
00000010: 747b dc3d e6c3 3dbf 370b 4c3d ec24 17be
00000020: 3915 3cbf 4ddc 153e
-1.1438595 -0.48664194 -0.415791 -0.4110267 0.10765734 -0.7412704 0.049815383 -0.14760178
-0.73469883 0.1463482

_transform._transforms.4.autoregressive_net.initial_layer.mask f4 [10, 2]
00000000: 0000 803f 0000 0000 0000 803f 0000 0000
00000010: 0000 803f 0000 0000 0000 803f 0000 0000
00000020: 0000 803f 0000 0000 0000 803f 0000 0000
00000030: 0000 803f 0000 0000 0000 803f 0000 0000
00000040: 0000 803f 0000 0000 0000 803f 0000 0000
1.0 0.0 1.0 0.0 1.0 0.0 1.0 0.0
1.0 0.0 1.0 0.0 1.0 0.0 1.0 0.0
1.0 0.0 1.0 0.0

_transform._transforms.4.autoregressive_net.context_layer.weight f4 [10, 3]
00000000: f4bf 603e 3c20 9abe 7541 54be 748a c73e
00000010: 16c5 663d de0c a2be 3734 d63e 1584 d8be
00000020: 0bdf b7be 1aa3 c73d ad17 92bd b8c5 463d
00000030: 682a 803d 610a e5bd 9050 c7bd 580a 9b3e
00000040: 796a c0bd 01d6 91be eeb4 33bd 1aa8 053e
00000050: 7a2e ba3d f031 0b3e 02f4 fb3d d76f 20be
00000060: 3608 9b3e 2624 84be d471 fb3c 693d 64be
00000070: 751f 923e 7f31 a83e
0.21948224 -0.30102718 -0.20728095 0.3897282 0.0563403 -0.31650442 0.41836712 -0.4228827
-0.35912356 0.09747906 -0.07133422 0.048528403 0.06258088 -0.1118362 -0.09732163 0.3028133
-0.09395308 -0.28483585 -0.04387372 0.13052407 0.09090896 0.13593268 0.123024 -0.15667664
0.30279702 -0.2580883 0.030693926 -0.22289051 0.28539625 0.32850263

_transform._transforms.4.autoregressive_net.context_layer.bias f4 [10]
00000000: 7dcb f0be a13a 52be e07e 5d3f 394d 53bf
00000010: 645e d33f d93e edbe 1dd1 a13f 731f 433f
00000020: 966d 613f de12 463f
-0.4703025 -0.20530178 0.8652172 -0.8253971 1.6513181 -0.4633701 1.2641941 0.7621986
0.8805784 0.7737254

_transform._transforms.4.autoregressive_net.blocks.0.context_layer.weight f4 [10, 3]
00000000: 07e1 3ebe 4113 b7be c8d9 95bd b536 333e
00000010: 45d8 223e b964 d1be b957 0b3e 0b90 2bbe
00000020: f683 5a3e bb40 9a3e edb5 ddbe 692c 563e
00000030: 74ee 75be 3e5a e2bb e9b0 093e 900a a43d
00000040: f5cc afbe c706 a73e a022 273e 46c0 59be
00000050: 2a51 d7be e3d7 2ebe 934c 9a3a dcf7 a03e
00000060: ad66 0fbe 0b19 8b3d f645 d4bd 8d48 bdbd
00000070: 4e82 27bd fd53 093e
-0.18640529 -0.35756877 -0.07316929 0.17501338 0.15902813 -0.40897158 0.13607682 -0.16754167
0.21339402 0.3012751 -0.4330286 0.20915379 -0.24016744 -0.0069077304 0.13446392 0.08009827
-0.34336057 0.32622358 0.16321802 -0.21264753 -0.4205411 -0.17074542 0.0011772088 0.31439102
-0.14004011 0.06791886 -0.103649065 -0.092423536 -0.040895753 0.13410945

_transform._transforms.4.autoregressive_net.blocks.0.context_layer.bias f4 [10]
00000000: 1c20 eebe 3a5c 8dbf 94f4 24bf e97d 1ebf
00000010: 5ec5 abbf 0484 953e c82c dc3d b41a cfbd
00000020: d8df d23d 7219 49be
-0.46508873 -1.104377 -0.64435697 -0.61910874 -1.3419607 0.29202282 0.10750729 -0.10112515
0.10296601 -0.19638613
