symmetry-informed-flows/notebooks/DampedHarmonicOscillator/damped-harmonic-oscillator-with-similarity-embedding-flow-weights.neurips.pth (torch, 864837 bytes, 263 tensors)

_transform._transforms.0.autoregressive_net.initial_layer.weight f4 [30, 2]
0	0x3e7cad9f	0.24675606
1	0xbf090c43	-0.53534335
2	0x3ec9af49	0.39391544
3	0xbf027188	-0.50954485
4	0xbf2d2650	-0.67636585
5	0x3edca9ca	0.4309829
6	0xbf37e2e1	-0.71830565
7	0x3f12180b	0.57067937
8	0x3e7df862	0.24801782
9	0x3ec63fc8	0.38720536
10	0xbd2e07f6	-0.04248806
11	0x3dcc9d0e	0.09990893
12	0x3e96e0ca	0.29468375
13	0xbe586ab3	-0.21134453
14	0xbed6e784	-0.41973507
15	0x3ee63c8e	0.44968075
16	0x3f0c400d	0.54785234
17	0x3f023047	0.50854915
18	0xbf254353	-0.64555854
19	0xbf00332f	-0.500781
20	0x3efff15b	0.49988827
21	0xbf297c71	-0.6620551
22	0xbf128724	-0.5723746
23	0x3ea73cc6	0.32663554
24	0x3d62e44f	0.055393513
25	0x3c7dde2f	0.015494867
26	0xbf3a80dc	-0.72852874
27	0x3f2a9fac	0.6664989
28	0xbc543085	-0.012951021
29	0xbea62974	-0.324535
30	0xbe7e1d2b	-0.24815814
31	0xbe7ac9df	-0.2449107
32	0xbdec6eae	-0.11544548
33	0x3f2c324e	0.6726426
34	0x3d1290f2	0.035782762
35	0x3e9b9fee	0.30395454
36	0x3f2173e7	0.6306748
37	0x3e3c23d4	0.18373042
38	0x3f297339	0.6619144
39	0xbf07a6ce	-0.529889
40	0xbe93f5d9	-0.28898504
41	0x3f319c50	0.6937914
42	0xbead2d2f	-0.33823535
43	0x3f2c55ab	0.6731822
44	0x3eb215e6	0.34782332
45	0x3f269380	0.6506882
46	0x3e93737d	0.28799048
47	0xbef6e2dc	-0.48219955
48	0xbd9577a7	-0.072982125
49	0xbf1a4c76	-0.6027292
50	0xbf2f927f	-0.6858291
51	0x3e3e6ea3	0.18596892
52	0x3f1b78aa	0.60730994
53	0x3eed25b9	0.46317843
54	0xbe9d22b9	-0.30690554
55	0xbee68fd9	-0.45031622
56	0x3e9329bc	0.28742778
57	0x3ede69bb	0.4344004
58	0x3dc1b325	0.09457997
59	0xbf3178ee	-0.6932515

_transform._transforms.0.autoregressive_net.initial_layer.bias f4 [30]
0	0xbf0bc5e5	-0.5459884
1	0x3f2ee131	0.68312365
2	0xbe694bf4	-0.2278288
3	0x3f0b3170	0.5437231
4	0xbf05d1d9	-0.5227333
5	0x3e1bb323	0.15205054
6	0x3d9cd96d	0.07658658
7	0xbf177574	-0.59163594
8	0xbf095382	-0.5364305
9	0x3cf44b4f	0.029821066
10	0x3ed5ef58	0.41784167
11	0x3f0e7d31	0.55659777
12	0xbec67b5d	-0.38765994
13	0x3f25b146	0.6472362
14	0x3c353721	0.011060507
15	0x3e055936	0.13022313
16	0x3f17ddfc	0.59323096
17	0xbbbeb17c	-0.0058194976
18	0xbeb3595d	-0.35029116
19	0xbdf27164	-0.11838034
20	0xbe6007cd	-0.21877976
21	0x3f1f9e6a	0.62351096
22	0xbecf331b	-0.40468678
23	0xbf278f52	-0.65453064
24	0x3ebf51bc	0.37367046
25	0xbea3231a	-0.31862718
26	0xbf22a270	-0.6352911
27	0xbee01ad0	-0.43770456
28	0xbf0bdf29	-0.5463739
29	0x3e8804c6	0.26566142

_transform._transforms.0.autoregressive_net.initial_layer.mask f4 [30, 2]
0	0x3f800000	1.0
1	0x00000000	0.0
2	0x3f800000	1.0
3	0x00000000	0.0
4	0x3f800000	1.0
5	0x00000000	0.0
6	0x3f800000	1.0
7	0x00000000	0.0
8	0x3f800000	1.0
9	0x00000000	0.0
10	0x3f800000	1.0
11	0x00000000	0.0
12	0x3f800000	1.0
13	0x00000000	0.0
14	0x3f800000	1.0
15	0x00000000	0.0
16	0x3f800000	1.0
17	0x00000000	0.0
18	0x3f800000	1.0
19	0x00000000	0.0
20	0x3f800000	1.0
21	0x00000000	0.0
22	0x3f800000	1.0
23	0x00000000	0.0
24	0x3f800000	1.0
25	0x00000000	0.0
26	0x3f800000	1.0
27	0x00000000	0.0
28	0x3f800000	1.0
29	0x00000000	0.0
30	0x3f800000	1.0
31	0x00000000	0.0
32	0x3f800000	1.0
33	0x00000000	0.0
34	0x3f800000	1.0
35	0x00000000	0.0
36	0x3f800000	1.0
37	0x00000000	0.0
38	0x3f800000	1.0
39	0x00000000	0.0
40	0x3f800000	1.0
41	0x00000000	0.0
42	0x3f800000	1.0
43	0x00000000	0.0
44	0x3f800000	1.0
45	0x00000000	0.0
46	0x3f800000	1.0
47	0x00000000	0.0
48	0x3f800000	1.0
49	0x00000000	0.0
50	0x3f800000	1.0
51	0x00000000	0.0
52	0x3f800000	1.0
53	0x00000000	0.0
54	0x3f800000	1.0
55	0x00000000	0.0
56	0x3f800000	1.0
57	0x00000000	0.0
58	0x3f800000	1.0
59	0x00000000	0.0

_transform._transforms.0.autoregressive_net.context_layer.weight f4 [30, 3]
0	0x3df0aa81	0.11751271
1	0xbf00605d	-0.5014704
2	0xbdc30713	-0.09522834
3	0xbf00db47	-0.5033459
4	0xbf112216	-0.56692636
5	0x3d2f40c1	0.042786364
6	0x3d924886	0.07142739
7	0x3e8ada7b	0.27119812
8	0x3ded6210	0.115909696
9	0x3ea6e3dc	0.32595718
10	0x3f0c96e5	0.54917747
11	0xbd7ad348	-0.06123665
12	0xbea8413a	-0.32862264
13	0x3e91d63c	0.2848376
14	0xbbb8e6dd	-0.0056427554
15	0xbe9b8911	-0.3037801
16	0x3d0ac8be	0.03388285
17	0xbe863bb9	-0.2621744
18	0x3e9f1e8b	0.3107799
19	0x3ea185da	0.31547433
20	0x3d6ba276	0.05752798
21	0xbede4552	-0.43412262
22	0x3efc4fad	0.49279538
23	0xbda7874a	-0.08180101
24	0xbe1379d7	-0.14401947
25	0x3e87948c	0.2648052
26	0x3f13a0d3	0.57667273
27	0x3e9910c7	0.29895613
28	0xbee3c1c0	-0.44483757
29	0xbd9a3336	-0.07529299
30	0xbf133511	-0.5750285
31	0xbeba39c6	-0.36372203
32	0xbec79fab	-0.38989004
33	0xbe982869	-0.2971833
34	0xbe97db87	-0.29659674
35	0x3da4d17a	0.08047767
36	0xbf011228	-0.5041833
37	0xbf1b9882	-0.60779583
38	0xbe80638f	-0.25075957
39	0xbe9a28ee	-0.30109352
40	0x3f1e48b4	0.61829686
41	0x3ee7254b	0.4514564
42	0xbf04e3cc	-0.5191009
43	0x3ed0cf37	0.40783092
44	0xbe9836f3	-0.29729423
45	0xbed19705	-0.4093553
46	0xbe31204d	-0.17297478
47	0x3eb70f26	0.35753745
48	0xbdfd5ade	-0.12370847
49	0xbdc2afa1	-0.09506155
50	0xbd0700c0	-0.0329597
51	0xbea1f209	-0.3162997
52	0x3ed93a9c	0.42427528
53	0xbd3e4264	-0.046450034
54	0xbf01fef0	-0.5077963
55	0xbee96b3e	-0.45589632
56	0xbeeb30b6	-0.459356
57	0xbebff0bf	-0.37488362
58	0x3ef2dee1	0.47435668
59	0xbef2b658	-0.47404742
60	0xbe26e341	-0.16297628
61	0x3ed97e94	0.42479384
62	0xbcd501cc	-0.026001833
63	0x3e4a61cc	0.19763869
64	0xbf0f8b64	-0.5607207
65	0x3ef90473	0.48636207
66	0x3e707f9d	0.2348618
67	0x3ea3e2f1	0.3200908
68	0xbe9fdfc4	-0.31225407
69	0xbeb412bc	-0.35170543
70	0xbeaac95b	-0.33356747
71	0x3e88de59	0.26732138
72	0xbeb9c9de	-0.36286825
73	0xbecd20ef	-0.4006419
74	0x3e9247f4	0.2857052
75	0x3c22014a	0.009888003
76	0x3f15c17e	0.5849837
77	0x3e01c5ba	0.12673083
78	0x3ef52e35	0.47886816
79	0xbe8c5557	-0.2740886
80	0x3dabee2c	0.08395037
81	0xbeeae594	-0.4587828
82	0xbd0eb512	-0.03484065
83	0xbf1d369f	-0.6141147
84	0x3f076d93	0.5290157
85	0xbe3f6902	-0.18692401
86	0xbf0370ef	-0.513442
87	0x3ef6871c	0.48149955
88	0x3e4daf9a	0.20086518
89	0xbf10eedb	-0.56614465

_transform._transforms.0.autoregressive_net.context_layer.bias f4 [30]
0	0xbc92217a	-0.017838228
1	0x3ed02e87	0.40660498
2	0xbe51b1e1	-0.20478012
3	0x3eed1fde	0.46313375
4	0xbed9c3b9	-0.42532137
5	0xbe9af3f1	-0.30264238
6	0xbe30f0b6	-0.17279324
7	0x3cf0b050	0.029380947
8	0x3ceaa541	0.028643252
9	0x3e6f86f4	0.23391324
10	0xbf023f4a	-0.5087782
11	0xbed107c3	-0.40826234
12	0xbeda8656	-0.42680615
13	0xbe772438	-0.2413491
14	0x3d5675af	0.052358326
15	0x3efd416a	0.4946397
16	0xbe415072	-0.18878344
17	0xbec162e8	-0.37770772
18	0x3e9a89cc	0.30183256
19	0x3ecbd432	0.3981033
20	0xbeb52b59	-0.35384634
21	0xbe5ff615	-0.21871217
22	0xbed39d45	-0.41330925
23	0xbe098441	-0.13429357
24	0xbde60da8	-0.112330735
25	0xbee11dad	-0.43967953
26	0x3e9f91dd	0.31165972
27	0xbe82b5bb	-0.25529274
28	0xbdcf5692	-0.10123934
29	0xbec98be0	-0.3936453

_transform._transforms.0.autoregressive_net.blocks.0.context_layer.weight f4 [30, 3]
0	0xbeceacd2	-0.40366226
1	0x3d952b7a	0.07283683
2	0x3f106908	0.56410265
3	0xbe98be6e	-0.29832786
4	0xbefce332	-0.49392086
5	0x3dcf9257	0.10135334
6	0xbeeef12f	-0.46668383
7	0xbdef9add	-0.1169946
8	0x3ec461e6	0.3835594
9	0x3ef37d26	0.47556418
10	0x3e8f33b3	0.2796913
11	0xbef4aece	-0.47789615
12	0x3eb2f127	0.3494961
13	0xbdcd0bbc	-0.10012004
14	0x3f023aa1	0.5087071
15	0x3d325e85	0.043547172
16	0xbe720b92	-0.23637226
17	0xbeee6480	-0.4656105
18	0x3cdb02c3	0.026734715
19	0xbe98983d	-0.2980365
20	0x3e824db8	0.2544992
21	0x3e7e08c8	0.24808037
22	0xbf0d10ef	-0.55103964
23	0xbeaf233a	-0.34206563
24	0xbe32200a	-0.17395034
25	0xbcc4f9b9	-0.024044858
26	0xbc922902	-0.01784182
27	0x3eac27ca	0.33624107
28	0xbeefefcd	-0.4686264
29	0x3ee9854f	0.4560952
30	0xbec5552c	-0.38541543
31	0xbeb472da	-0.35243875
32	0xbf0b7ccd	-0.54487306
33	0x3e2390ec	0.15973252
34	0xbeac73ec	-0.3368219
35	0x3ea218ee	0.31659645
36	0x3df91f9d	0.12164233
37	0x3e2fd172	0.17169741
38	0xbec02a8e	-0.37532467
39	0x3f02e2f3	0.5112755
40	0xbc22840f	-0.009919181
41	0x3f05c6f6	0.52256715
42	0x3e50712c	0.20355672
43	0xbd557499	-0.05211315
44	0xbe9ce4c9	-0.306433
45	0x3e919479	0.28433588
46	0x3e988b68	0.2979386
47	0xbec95780	-0.3932457
48	0xbeb75f4a	-0.35814887
49	0xbdae6e89	-0.08517177
50	0xbf12476a	-0.5714022
51	0x3e94968d	0.2902111
52	0xbeaf0632	-0.34184414
53	0xbf063016	-0.52417123
54	0xbec26b1b	-0.3797234
55	0xbdc15e0e	-0.09441768
56	0x3cbc8583	0.023012882
57	0xbefd2773	-0.4944416
58	0x3e1fe6fd	0.15615459
59	0x3edd3e19	0.4321144
60	0x3ec3215e	0.38111395
61	0xbc0692fa	-0.008213753
62	0xbe5c6452	-0.21522644
63	0xbe8c2d22	-0.27378184
64	0x3e471d07	0.19444667
65	0x3eb1b3b4	0.34707415
66	0x3dfb485e	0.12269662
67	0xbe13beee	-0.14428303
68	0x3ea65415	0.32486024
69	0x3ee20959	0.44147757
70	0x3ec96ce5	0.39340892
71	0x3c54a2f3	0.012978303
72	0x3e5c4080	0.2150898
73	0x3ead223b	0.33815178
74	0xbf057cfe	-0.5214385
75	0xbf1163b9	-0.5679279
76	0x3ed0bc14	0.40768492
77	0x3e393aff	0.18088911
78	0x3eb10571	0.34574464
79	0xbee8e3de	-0.4548635
80	0xbeb8b4fd	-0.36075583
81	0x3ef43541	0.4769688
82	0xbe05ee83	-0.13079266
83	0xbe0f6bbe	-0.14005944
84	0xbe2511c7	-0.16120063
85	0xbd2d726b	-0.042345446
86	0x3e87bcc4	0.26511204
87	0x3e28b21c	0.16474193
88	0x3c8386f9	0.01605557
89	0xbea2a871	-0.31769136

_transform._transforms.0.autoregressive_net.blocks.0.context_layer.bias f4 [30]
0	0x3ea4344f	0.32071158
1	0xbd9fbb74	-0.07799426
2	0x3f0567ac	0.52111316
3	0x3ed2def8	0.41185737
4	0x3ef414cf	0.47672126
5	0x3dda875b	0.10670348
6	0xbdcb75e6	-0.09934597
7	0x3eb3e943	0.35138902
8	0x3e483c08	0.1955415
9	0x3ef52439	0.47879198
10	0x3dbce276	0.092228815
11	0xbeeff75f	-0.46868417
12	0xbea4d824	-0.32196152
13	0xbe7d60cf	-0.24743961
14	0x3e11be76	0.14232811
15	0x3de70bbe	0.112815365
16	0xbca48fd8	-0.020088121
17	0x3ea80972	0.32819706
18	0x3ecb71cf	0.39735267
19	0x3cee84d2	0.029116068
20	0x3ec16887	0.3777506
21	0xbd064258	-0.032778114
22	0xbefb5162	-0.49085528
23	0x3ebe9000	0.37219238
24	0x3d9212bc	0.071324795
25	0x3ec5db2a	0.3864377
26	0xbefd7337	-0.49501964
27	0xbd0d8f8e	-0.034560733
28	0xbd8eb86d	-0.0696877
29	0x3e75ac41	0.23991491

_transform._transforms.0.autoregressive_net.blocks.0.linear_layers.0.weight f4 [30, 30]
0	0xbdcbb895	-0.099473156
1	0x3cb2e435	0.021837333
2	0x3d07326c	0.03300707
3	0xbde468c0	-0.11152792
4	0xbe097454	-0.13423282
5	0x3dca0e8f	0.09866058
6	0xbe1e11b9	-0.15436448
7	0xbe0ad404	-0.1355744
8	0x3dfa1f19	0.12212963
9	0xbdf9261e	-0.121654734
10	0xbe02b400	-0.12763977
11	0xbdba9469	-0.09110338
12	0x3e017e89	0.12645926
13	0x3cc05c38	0.023481473
14	0x3e161963	0.14658122
15	0xbd995cec	-0.074884266
16	0x3e22b1bd	0.15888114
17	0xbdd895d1	-0.1057545
18	0x3e19cdaf	0.15019868
19	0x3da179fc	0.07884595
20	0xbdd89164	-0.10574606
21	0xbc6f1bb0	-0.014594004
22	0xbd295b29	-0.041346703
23	0xba8e0ac9	-0.0010836954
24	0x3d8f89a8	0.07008678
25	0x3d1fd0dc	0.039017543
26	0x3de60946	0.112322375
27	0xbceb1134	-0.028694727
28	0xbe397512	-0.18111065
29	0xbdf3380a	-0.11875923
30	0xbdf1308d	-0.117768385
31	0x3d7b1946	0.0613034
32	0xbd9364b2	-0.071969405
33	0xbad177d7	-0.001598115
34	0x3d8292f8	0.06375688
35	0xbe3afca3	-0.18260436
36	0x3bdd8dac	0.0067612734
37	0xbda2d3ce	-0.07950555
38	0x3e20255f	0.15639256
39	0xbe01c810	-0.12673974
40	0x3d9b4970	0.075823665
41	0xbdbd87dc	-0.09254429
42	0x3dfd3e89	0.12365443
43	0xbc520e52	-0.012820797
44	0x3df5a097	0.11993521
45	0xbd90d67a	-0.07072158
46	0x3dd531a9	0.104098625
47	0x3b28dc32	0.0025766012
48	0xbde18639	-0.11011929
49	0x3e164734	0.146756
50	0x3c0a73c2	0.00845045
51	0x3dbb9975	0.09160129
52	0x3de8bc9f	0.113641016
53	0x3d04f56c	0.032460615
54	0x3d0caa5d	0.03434216
55	0xbdac989d	-0.08427546
56	0xbda948f2	-0.08265866
57	0xbd57f390	-0.052722514
58	0x3a6190ce	0.00086046464
59	0x3b934103	0.004493834
60	0xbe228657	-0.15871559
61	0xbcd225ad	-0.02565273
62	0xbdaf719f	-0.085665934
63	0x3e07cdba	0.13262072
64	0xbe2047a8	-0.15652335
65	0xbb8609f7	-0.0040905434
66	0x3c216e9e	0.009853033
67	0xbe10ef23	-0.14153723
68	0x3e16e109	0.14734282
69	0xbd57676d	-0.05258887
70	0x3d0eb60a	0.034841575
71	0xbe266d80	-0.16252708
72	0x3d8c47d8	0.068496406
73	0x3c830b54	0.015996613
74	0xbb173ad3	-0.0023075833
75	0xbe061e03	-0.13097386
76	0xbd00ad20	-0.031415105
77	0xbde3a23e	-0.111149296
78	0xbd0d1ada	-0.034449436
79	0x3dd342bb	0.10315462
80	0x3e2c09a8	0.16800559
81	0xbd4825b4	-0.04886408
82	0xbe21ac2b	-0.15788333
83	0x3dfa32b4	0.12216702
84	0x3dd27baa	0.10277493
85	0xbbddbc21	-0.0067668115
86	0x3d9f4766	0.0777729
87	0xbda834af	-0.082131736
88	0xbd4efaf3	-0.050532293
89	0xbe075f5c	-0.1321997
90	0x3dfe9f77	0.12432759
91	0x3e26fdc3	0.1630774
92	0xbb1042b8	-0.0022012424
93	0xbdd1464e	-0.10218488
94	0x3dc1eed8	0.09469384
95	0xbd65f54a	-0.05614213
96	0x3d84261e	0.06452583
97	0x3c4ed8b6	0.01262491
98	0xbe182326	-0.14857158
99	0xbe2b4b81	-0.16728021
100	0xbbf6c5b0	-0.0075308904
101	0x3e2f9115	0.17145188
102	0x3c965fe3	0.01835627
103	0x3da90d7a	0.082545236
104	0xbdc3dded	-0.09563813
105	0x3e02df0d	0.127804
106	0x3de66acf	0.11250841
107	0x3e0bfad0	0.13669896
108	0x3d7b90fa	0.061417557
109	0xbd899bf5	-0.067191996
110	0x3d6981a7	0.05700841
111	0xbdad0c4f	-0.08449613
112	0xbd910d51	-0.07082618
113	0x3b4840d6	0.0030556223
114	0x3e18090f	0.14847206
115	0x3e153b49	0.14573397
116	0xbe0eba95	-0.13938363
117	0x3d9364c7	0.07196956
118	0xbdec4b7e	-0.115378365
119	0xbb779203	-0.0037776239
120	0xbd089611	-0.03334624
121	0x3be3ce55	0.006952087
122	0xbe140bc8	-0.14457619
123	0x3de71106	0.11282544
124	0x3d3d9a80	0.04628992
125	0xbe166c54	-0.14689761
126	0xbc7b4e34	-0.015338469
127	0xbd4aca81	-0.04950953
128	0xbe1dd4ee	-0.15413257
129	0x3dc6077a	0.09669395
130	0xbe21f4dd	-0.15816064
131	0xbe149665	-0.14510496
132	0xbd998f80	-0.074980736
133	0xbc7a92a6	-0.015293753
134	0x3dea7466	0.114479825
135	0x3d36e961	0.04465616
136	0x3d307108	0.043076545
137	0x3e07092b	0.13187091
138	0xbcd12228	-0.025528982
139	0xbcbb7dfd	-0.022887224
140	0xbded9dc3	-0.11602356
141	0x3e220183	0.15820889
142	0x3e1619af	0.14658235
143	0x3c33c0c4	0.010971252
144	0xbd20fb24	-0.039302006
145	0x3e1284a4	0.14308411
146	0xbe0d493e	-0.13797471
147	0xbce530c8	-0.027977362
148	0x3cbd2cc8	0.023092642
149	0x3d885ace	0.066579446
150	0x3e328d44	0.17436701
151	0xbe37ca4c	-0.17948264
152	0x3d8918d7	0.06694191
153	0xbde7cf94	-0.11318889
154	0xbe16c568	-0.14723742
155	0x3e05296d	0.13004084
156	0x3db3a389	0.08771426
157	0xbdb12aa9	-0.08650715
158	0xbdedffe7	-0.11621075
159	0x3da2e1d5	0.0795323
160	0xbc361a33	-0.011114645
161	0x3df10528	0.117685616
162	0xbdeed67f	-0.11662006
163	0x3d2e354b	0.042531293
164	0x3d9bd40e	0.076088056
165	0xbe1a6293	-0.15076666
166	0xbe107b60	-0.14109564
167	0xbe07edf6	-0.13274369
168	0xbc22ce6c	-0.00993691
169	0xbe14ac7a	-0.1451892
170	0x3b8b6b5c	0.0042547416
171	0x3c9b8186	0.01898266
172	0xbe1b2baf	-0.15153383
173	0x3c99912c	0.018745981
174	0xbda79b53	-0.081839226
175	0x3d3fc6b6	0.046820365
176	0x3cd5bf64	0.026092239
177	0xbe071fdb	-0.13195746
178	0xbd0c9440	-0.03432107
179	0x3c98c323	0.018647736
180	0xbd424d02	-0.04743672
181	0x3b599f21	0.003320642
182	0x3da8dd31	0.08245314
183	0xbdc4bcaf	-0.09606301
184	0xbdf4c66a	-0.11951907
185	0x3d2c52a0	0.042070985
186	0xbe0311da	-0.12799779
187	0xbdee0eb6	-0.116239
188	0xbc39a886	-0.011331683
189	0xbae9c736	-0.0017835859
190	0x3d24e30d	0.040255595
191	0xbdacc5df	-0.084361784
192	0xbe313e18	-0.17308843
193	0xbe1afebb	-0.15136234
194	0x3d262a4c	0.04056768
195	0xbe375b7b	-0.17905991
196	0xbc7b1bcb	-0.015326451
197	0xbc9f10d3	-0.019417202
198	0xbd803f2d	-0.0626205
199	0xbe147b7f	-0.14500235
200	0x3e1720cc	0.14758605
201	0x3c320a91	0.010866777
202	0x3e25ef57	0.16204582
203	0x3d839f25	0.06426839
204	0xbdfa8b97	-0.12233656
205	0x3e1da605	0.15395363
206	0xbd5c1b43	-0.053736936
207	0x3d8f2626	0.06989698
208	0xbd599879	-0.053123925
209	0xbc429b82	-0.011877896
210	0x3cb8d79f	0.022563754
211	0xbc4ec4bb	-0.012620146
212	0xbe1d3cc4	-0.15355211
213	0xbd5642f5	-0.05230995
214	0x3d19dc8c	0.037563846
215	0x3d5f4813	0.054512095
216	0x3d349afa	0.04409311
217	0xbd7cd884	-0.061729923
218	0xbe1da1ba	-0.15393725
219	0x3dbee8cc	0.09321746
220	0x3df8349e	0.12119411
221	0xbdee4405	-0.116340674
222	0x3e313809	0.17306532
223	0xbe1f946f	-0.15583967
224	0x3e35a013	0.17736845
225	0x3e0512a6	0.12995395
226	0xbdb1d262	-0.086827055
227	0x3e024f1b	0.12725489
228	0xbe07091a	-0.13187066
229	0x3d6f1612	0.058370657
230	0xbd8af419	-0.06784839
231	0xbd6e7094	-0.05821283
232	0xbe0d8e7a	-0.13823882
233	0xbd8114d2	-0.06302799
234	0x3db6143d	0.08890579
235	0xbc93affe	-0.018028256
236	0xbd5ff775	-0.054679353
237	0xbe39c951	-0.18143202
238	0xbe08fba2	-0.1337724
239	0x3d8cd08d	0.068757154
240	0xbba61ae6	-0.0050691245
241	0xbde816d9	-0.11332483
242	0xbdf2e13b	-0.118593656
243	0x3c101821	0.008794815
244	0xbd2a78e3	-0.041619193
245	0x3e02bbbb	0.12766926
246	0x3df6fef7	0.120603494
247	0x3c0022a0	0.007820755
248	0x3d03c817	0.032173242
249	0x3d902e95	0.07040135
250	0xbde84b8b	-0.11342534
251	0x3d927d88	0.071528494
252	0xbd8626b6	-0.06550352
253	0xbe28eca8	-0.16496527
254	0x3d058e35	0.032606322
255	0xbd8b11e7	-0.06790524

_transform._transforms.0.autoregressive_net.blocks.0.linear_layers.0.bias f4 [30]
0	0xbda9604b	-0.082703196
1	0xbe2fd0b1	-0.17169453
2	0xbd041ce4	-0.032254115
3	0xbda637d4	-0.08116117
4	0x3d50df12	0.050993986
5	0xbdbfbd31	-0.09362257
6	0x3b026378	0.0019895714
7	0xbd04bf08	-0.032408744
8	0x3dc2e0d6	0.0951554
9	0x3db6cd91	0.089259274
10	0xbc6783de	-0.014130561
11	0x3e2dda40	0.16977787
12	0xbe19ce81	-0.15020181
13	0x3e1ee916	0.15518603
14	0x3dfc717d	0.12326334
15	0x3d846c5a	0.06465979
16	0x3e2d56d0	0.16927648
17	0xbe1fe43a	-0.15614405
18	0xbd2cd2f7	-0.04219338
19	0x3dbf393f	0.09337091
20	0x3e263bb7	0.16233717
21	0x3e36328b	0.17792718
22	0x3e249e31	0.1607597
23	0xbd831dbf	-0.06402158
24	0xbc6b86cb	-0.014375399
25	0xbd832b11	-0.06404699
26	0xbd9dcc61	-0.07704998
27	0xbd8a9cfb	-0.06768223
28	0x3d0383dc	0.032108173
29	0x3e1dc349	0.15406527

_transform._transforms.0.autoregressive_net.blocks.0.linear_layers.0.mask f4 [30, 30]
0	0x3f800000	1.0
1	0x3f800000	1.0
2	0x3f800000	1.0
3	0x3f800000	1.0
4	0x3f800000	1.0
5	0x3f800000	1.0
6	0x3f800000	1.0
7	0x3f800000	1.0
8	0x3f800000	1.0
9	0x3f800000	1.0
10	0x3f800000	1.0
11	0x3f800000	1.0
12	0x3f800000	1.0
13	0x3f800000	1.0
14	0x3f800000	1.0
15	0x3f800000	1.0
16	0x3f800000	1.0
17	0x3f800000	1.0
18	0x3f800000	1.0
19	0x3f800000	1.0
20	0x3f800000	1.0
21	0x3f800000	1.0
22	0x3f800000	1.0
23	0x3f800000	1.0
24	0x3f800000	1.0
25	0x3f800000	1.0
26	0x3f800000	1.0
27	0x3f800000	1.0
28	0x3f800000	1.0
29	0x3f800000	1.0
30	0x3f800000	1.0
31	0x3f800000	1.0
32	0x3f800000	1.0
33	0x3f800000	1.0
34	0x3f800000	1.0
35	0x3f800000	1.0
36	0x3f800000	1.0
37	0x3f800000	1.0
38	0x3f800000	1.0
39	0x3f800000	1.0
40	0x3f800000	1.0
41	0x3f800000	1.0
42	0x3f800000	1.0
43	0x3f800000	1.0
44	0x3f800000	1.0
45	0x3f800000	1.0
46	0x3f800000	1.0
47	0x3f800000	1.0
48	0x3f800000	1.0
49	0x3f800000	1.0
50	0x3f800000	1.0
51	0x3f800000	1.0
52	0x3f800000	1.0
53	0x3f800000	1.0
54	0x3f800000	1.0
55	0x3f800000	1.0
56	0x3f800000	1.0
57	0x3f800000	1.0
58	0x3f800000	1.0
59	0x3f800000	1.0
60	0x3f800000	1.0
61	0x3f800000	1.0
62	0x3f800000	1.0
63	0x3f800000	1.0
64	0x3f800000	1.0
65	0x3f800000	1.0
66	0x3f800000	1.0
67	0x3f800000	1.0
68	0x3f800000	1.0
69	0x3f800000	1.0
70	0x3f800000	1.0
71	0x3f800000	1.0
72	0x3f800000	1.0
73	0x3f800000	1.0
74	0x3f800000	1.0
75	0x3f800000	1.0
76	0x3f800000	1.0
77	0x3f800000	1.0
78	0x3f800000	1.0
79	0x3f800000	1.0
80	0x3f800000	1.0
81	0x3f800000	1.0
82	0x3f800000	1.0
83	0x3f800000	1.0
84	0x3f800000	1.0
85	0x3f800000	1.0
86	0x3f800000	1.0
87	0x3f800000	1.0
88	0x3f800000	1.0
89	0x3f800000	1.0
90	0x3f800000	1.0
91	0x3f800000	1.0
92	0x3f800000	1.0
93	0x3f800000	1.0
94	0x3f800000	1.0
95	0x3f800000	1.0
96	0x3f800000	1.0
97	0x3f800000	1.0
98	0x3f800000	1.0
99	0x3f800000	1.0
100	0x3f800000	1.0
101	0x3f800000	1.0
102	0x3f800000	1.0
103	0x3f800000	1.0
104	0x3f800000	1.0
105	0x3f800000	1.0
106	0x3f800000	1.0
107	0x3f800000	1.0
108	0x3f800000	1.0
109	0x3f800000	1.0
110	0x3f800000	1.0
111	0x3f800000	1.0
112	0x3f800000	1.0
113	0x3f800000	1.0
114	0x3f800000	1.0
115	0x3f800000	1.0
116	0x3f800000	1.0
117	0x3f800000	1.0
118	0x3f800000	1.0
119	0x3f800000	1.0
120	0x3f800000	1.0
121	0x3f800000	1.0
122	0x3f800000	1.0
123	0x3f800000	1.0
124	0x3f800000	1.0
125	0x3f800000	1.0
126	0x3f800000	1.0
127	0x3f800000	1.0
128	0x3f800000	1.0
129	0x3f800000	1.0
130	0x3f800000	1.0
131	0x3f800000	1.0
132	0x3f800000	1.0
133	0x3f800000	1.0
134	0x3f800000	1.0
135	0x3f800000	1.0
136	0x3f800000	1.0
137	0x3f800000	1.0
138	0x3f800000	1.0
139	0x3f800000	1.0
140	0x3f800000	1.0
141	0x3f800000	1.0
142	0x3f800000	1.0
143	0x3f800000	1.0
144	0x3f800000	1.0
145	0x3f800000	1.0
146	0x3f800000	1.0
147	0x3f800000	1.0
148	0x3f800000	1.0
149	0x3f800000	1.0
150	0x3f800000	1.0
151	0x3f800000	1.0
152	0x3f800000	1.0
153	0x3f800000	1.0
154	0x3f800000	1.0
155	0x3f800000	1.0
156	0x3f800000	1.0
157	0x3f800000	1.0
158	0x3f800000	1.0
159	0x3f800000	1.0
160	0x3f800000	1.0
161	0x3f800000	1.0
162	0x3f800000	1.0
163	0x3f800000	1.0
164	0x3f800000	1.0
165	0x3f800000	1.0
166	0x3f800000	1.0
167	0x3f800000	1.0
168	0x3f800000	1.0
169	0x3f800000	1.0
170	0x3f800000	1.0
171	0x3f800000	1.0
172	0x3f800000	1.0
173	0x3f800000	1.0
174	0x3f800000	1.0
175	0x3f800000	1.0
176	0x3f800000	1.0
177	0x3f800000	1.0
178	0x3f800000	1.0
179	0x3f800000	1.0
180	0x3f800000	1.0
181	0x3f800000	1.0
182	0x3f800000	1.0
183	0x3f800000	1.0
184	0x3f800000	1.0
185	0x3f800000	1.0
186	0x3f800000	1.0
187	0x3f800000	1.0
188	0x3f800000	1.0
189	0x3f800000	1.0
190	0x3f800000	1.0
191	0x3f800000	1.0
192	0x3f800000	1.0
193	0x3f800000	1.0
194	0x3f800000	1.0
195	0x3f800000	1.0
196	0x3f800000	1.0
197	0x3f800000	1.0
198	0x3f800000	1.0
199	0x3f800000	1.0
200	0x3f800000	1.0
201	0x3f800000	1.0
202	0x3f800000	1.0
203	0x3f800000	1.0
204	0x3f800000	1.0
205	0x3f800000	1.0
206	0x3f800000	1.0
207	0x3f800000	1.0
208	0x3f800000	1.0
209	0x3f800000	1.0
210	0x3f800000	1.0
211	0x3f800000	1.0
212	0x3f800000	1.0
213	0x3f800000	1.0
214	0x3f800000	1.0
215	0x3f800000	1.0
216	0x3f800000	1.0
217	0x3f800000	1.0
218	0x3f800000	1.0
219	0x3f800000	1.0
220	0x3f800000	1.0
221	0x3f800000	1.0
222	0x3f800000	1.0
223	0x3f800000	1.0
224	0x3f800000	1.0
225	0x3f800000	1.0
226	0x3f800000	1.0
227	0x3f800000	1.0
228	0x3f800000	1.0
229	0x3f800000	1.0
230	0x3f800000	1.0
231	0x3f800000	1.0
232	0x3f800000	1.0
233	0x3f800000	1.0
234	0x3f800000	1.0
235	0x3f800000	1.0
236	0x3f800000	1.0
237	0x3f800000	1.0
238	0x3f800000	1.0
239	0x3f800000	1.0
240	0x3f800000	1.0
241	0x3f800000	1.0
242	0x3f800000	1.0
243	0x3f800000	1.0
244	0x3f800000	1.0
245	0x3f800000	1.0
246	0x3f800000	1.0
247	0x3f800000	1.0
248	0x3f800000	1.0
249	0x3f800000	1.0
250	0x3f800000	1.0
251	0x3f800000	1.0
252	0x3f800000	1.0
253	0x3f800000	1.0
254	0x3f800000	1.0
255	0x3f800000	1.0

_transform._transforms.0.autoregressive_net.blocks.0.linear_layers.1.weight f4 [30, 30]
0	0x3c0f9b37	0.008765033
1	0x3c43d2a8	0.01195208
2	0x3c2e7c27	0.010649717
3	0xbc1f0663	-0.009706113
4	0x3c2e2e9c	0.01063123
5	0xbb0150de	-0.0019732038
6	0x3c07459c	0.008256342
7	0x3c83d1c1	0.01609123
8	0x3c0525de	0.008126704
9	0x3c516266	0.012779808
10	0x3c376b27	0.011194981
11	0x3c262b58	0.01014217
12	0xbc428174	-0.011871684
13	0x3aa9afc8	0.0012946064
14	0xbbd4f5c2	-0.006499023
15	0xbc23fabf	-0.010008513
16	0x3b2f60d6	0.00267606
17	0x3a7ede17	0.0009722425
18	0x3c13485c	0.00898942
19	0x3c1a0e52	0.009402828
20	0xbbfe5765	-0.007761883
21	0x3ba8e012	0.0051536644
22	0x3c29a9e1	0.010355444
23	0xbbdda5c4	-0.0067641456
24	0xbc3d8f82	-0.011569859
25	0xbbd8b6e9	-0.0066136015
26	0xba3ff0d7	-0.000732196
27	0xbbf63bcd	-0.007514453
28	0x3c1aa2ef	0.00943826
29	0xbb407239	-0.0029364957
30	0x3c7e3dad	0.015517634
31	0x3c92e6b6	0.017932277
32	0x3ca34c2a	0.019933779
33	0xbc9744dd	-0.018465454
34	0x3c9fa522	0.019487921
35	0x3bdbad7a	0.0067040296
36	0x3ca15f52	0.019698773
37	0x3b599920	0.0033202842
38	0x3d1b3a66	0.03789749
39	0x3c9dc404	0.019258507
40	0x3d6658c1	0.056236986
41	0x3ca4eb2d	0.020131672
42	0xbc9ea453	-0.019365465
43	0x3bf1e5aa	0.0073821144
44	0xbcaf86c5	-0.021426568
45	0xbca231c2	-0.019799117
46	0x3be9500d	0.0071201385
47	0xbc63c4dc	-0.013901915
48	0x3d08cd2e	0.0333988
49	0x3c7771a5	0.015102779
50	0xbce93938	-0.028469667
51	0x3c62c5ff	0.013841151
52	0x3c98eac2	0.018666629
53	0xbcbeb0c6	-0.023277652
54	0xbc9d77cb	-0.01922216
55	0x3c8c4e3e	0.017127153
56	0xbc3a8e2c	-0.0113864355
57	0xbcef117a	-0.029183138
58	0x3ca199cf	0.019726662
59	0xbca7d395	-0.020486632
60	0xbba151f6	-0.0049231006
61	0xbbd9214c	-0.0066262837
62	0xbbd95fd9	-0.0066337404
63	0x3bf1a20b	0.0073740534
64	0xbbc52934	-0.0060168747
65	0xbc06cb73	-0.008227217
66	0xbc05b995	-0.008161922
67	0x3c42cfb8	0.011890344
68	0xbcdae3ce	-0.026719954
69	0xbbea0338	-0.007141497
70	0xbd23c8c3	-0.039986383
71	0xbbd286c1	-0.0064247553
72	0x3bc8c1d1	0.0061266203
73	0xbb9883de	-0.0046543917
74	0x3c68b73d	0.014203844
75	0x3be9fb26	0.007140535
76	0xbbd0fe71	-0.006377988
77	0x3c6a03c5	0.014283125
78	0xbca667fe	-0.02031326
79	0xbb8f4343	-0.004372032
80	0x3ca5bc24	0.020231314
81	0xbc131015	-0.008976002
82	0xbbdfcab3	-0.0068295836
83	0x3c59f42c	0.013302844
84	0x3bbe42b7	0.005806293
85	0xbcb964a3	-0.022630995
86	0x3c313839	0.010816627
87	0x3cb5b637	0.022181613
88	0xbc1bd7c8	-0.0095118955
89	0x3c649e66	0.013953781
90	0xbc8ec8b5	-0.017429689
91	0xbc93732b	-0.017999252
92	0xbc842cc3	-0.016134625
93	0x3c738af0	0.014864668
94	0xbc8cf6af	-0.017207472
95	0x3c1cffb1	0.009582446
96	0xbc83c069	-0.01608296
97	0xbc195f72	-0.009361135
98	0xbc340146	-0.010986632
99	0xbc97dd6b	-0.018538198
100	0xbb9cd664	-0.0047862995
101	0xbc863477	-0.016382439
102	0x3c9635bb	0.018336168
103	0xbbec7b74	-0.007216865
104	0x3c5f1575	0.013615956
105	0x3c84f7e5	0.016231487
106	0x3b8eb845	0.0043554627
107	0x3bca52d6	0.0061744256
108	0xbc90ab70	-0.017659873
109	0xbc902de3	-0.017600005
110	0x3c78bd68	0.015181877
111	0xbc3ec450	-0.011643484
112	0xbc80c2a2	-0.015717808
113	0x3c638ba8	0.013888277
114	0x3c96d235	0.018410781
115	0x3a0c0e06	0.0005342666
116	0x3c049202	0.008091452
117	0x3c80f598	0.015742108
118	0xbc81ea54	-0.015858807
119	0x3c3463d7	0.011010132
120	0xbc902654	-0.017596401
121	0xbc80b94a	-0.015713353
122	0xbc7cdb78	-0.015433185
123	0x3c71f98f	0.014768972
124	0xbc7e5485	-0.015523081
125	0x3c85dc53	0.01634041
126	0xbc5c2cb8	-0.013438396
127	0xbbe56c59	-0.0070014414
128	0xbb0a4c30	-0.002110254
129	0xbc84b5ac	-0.01619991
130	0x3c0bdea7	0.008536971
131	0xbc7f2664	-0.015573118
132	0x3c85dc47	0.016340388
133	0xbb9fedbe	-0.004880636
134	0x3c587054	0.013210375
135	0x3c85099d	0.016239936
136	0x3c00e0df	0.007866113
137	0x3bf5605e	0.0074882945
138	0xbc68c745	-0.014207666
139	0xbcb1a715	-0.021686116
140	0x3c78340c	0.015149128
141	0xbc5605d5	-0.013062914
142	0xbc74babd	-0.0149371
143	0x3c72d168	0.014820434
144	0x3c8057c5	0.015666852
145	0x3855a19f	5.093368e-05
146	0x3c01eb28	0.007929601
147	0x3c570ca0	0.013125569
148	0xbc7939ad	-0.015211505
149	0x3c4067bb	0.011743481
150	0xb984c6e9	-0.00025325202
151	0xbadefc84	-0.0017012511
152	0xbb29d6b3	-0.0025915324
153	0x3b819cb4	0.003955448
154	0xbb46548f	-0.0030262803
155	0xbc0bb41c	-0.008526828
156	0xbb853300	-0.0040649176
157	0x3c2c03ea	0.01049898
158	0xbca6b8af	-0.020351736
159	0xbb0f3e70	-0.0021857284
160	0xbd035150	-0.032059968
161	0xbb5f1ff0	-0.0034046136
162	0x3aeaac40	0.0017904118
163	0xbb1d7ddb	-0.0024031315
164	0x3c0d969d	0.008641866
165	0x3b533333	0.0032226562
166	0xbbbc98dd	-0.0057555274
167	0x3c383cab	0.011244933
168	0xbc4f8277	-0.012665383
169	0xba93ff5e	-0.0011291315
170	0x3c6ec898	0.014574192
171	0xbbc4893b	-0.0059978045
172	0xbb49558a	-0.0030721151
173	0x3c067c6e	0.008208377
174	0x3b30af79	0.0026960059
175	0xbc9b4e68	-0.018958285
176	0x3bf2f538	0.0074144863
177	0x3c64af05	0.0139577435
178	0xbbc2ffcf	-0.005950905
179	0x3c08a97c	0.0083411895
180	0xbc98d052	-0.018654022
181	0xbcacbf78	-0.021087393
182	0xbc9cbac6	-0.01913203
183	0x3c9aa7f7	0.01887892
184	0xbca0d0e5	-0.019630859
185	0x3c5a11ad	0.013309878
186	0xbc8fe6e9	-0.017566161
187	0xbc84a806	-0.016193401
188	0xbbd7f92e	-0.006590984
189	0xbca8e7c0	-0.02061832
190	0x3b78ec72	0.003798273
191	0xbca7c171	-0.020477982
192	0x3cae0164	0.021240897
193	0xbbf9955a	-0.007616681
194	0x3c38fd2c	0.01129083
195	0x3ca7f5e9	0.020503001
196	0x3bdcca06	0.0067379503
197	0x3a874ac8	0.0010321969
198	0xbc7684ee	-0.015046341
199	0xbca7cd10	-0.020483524
200	0x3c380492	0.011231558
201	0xbc247b1e	-0.010039119
202	0xbca5cabf	-0.020238278
203	0x3c545c79	0.0129615
204	0x3cb243ab	0.021760782
205	0x3c25c20b	0.010117064
206	0x3b562934	0.0032678368
207	0x3c33912f	0.010959907
208	0xbc8a4417	-0.01687817
209	0x3c0a276c	0.0084322505
210	0xbc28d453	-0.010304528
211	0xbc20b3cd	-0.009808493
212	0xbc2577d2	-0.010099368
213	0x3c1e3b68	0.009657718
214	0xbc2e949a	-0.010655547
215	0x3a9cc42e	0.0011960322
216	0xbc1748b9	-0.009233647
217	0xbc04db18	-0.008108877
218	0xbc617023	-0.013759646
219	0xbc35f339	-0.011105352
220	0xbca79764	-0.02045793
221	0xbc30f248	-0.010799952
222	0x3c3b5592	0.011433976
223	0xbadbeb32	-0.0016778468
224	0x3c3e7e0f	0.011626734
225	0x3c228064	0.009918306
226	0xbb4f979d	-0.0031676062
227	0x3bc0935b	0.005876941
228	0xbc84b77d	-0.016200775
229	0xbc54f438	-0.012997679
230	0x3c817773	0.015804028
231	0xbc1cb355	-0.00956424
232	0xbc27a7d4	-0.010232884
233	0x3c467afe	0.012114285
234	0x3c437271	0.01192914
235	0xbb8d3565	-0.0043093436
236	0x3bcc5b7f	0.006236493
237	0x3c7af901	0.015318156
238	0xbc2eb009	-0.010662087
239	0x3c27511a	0.010212207
240	0xbc3654a1	-0.011128576
241	0xbc52f70a	-0.0128762815
242	0xbc547d1b	-0.012969281
243	0x3c5a579a	0.01332655
244	0xbc4b9663	-0.012425992
245	0x3c0897f7	0.0083370125
246	0xbc5bc3e2	-0.013413401
247	0x3c1caf65	0.009563302
248	0xbc7e3a15	-0.0155167775
249	0xbc534897	-0.012895725
250	0x3a5403af	0.0008087707
251	0xbc5b8e85	-0.0134006785
252	0x3c6a0627	0.014283693
253	0xbc220a1c	-0.009890106
254	0x3c52dded	0.012870294
255	0x3c597c34	0.013274241

_transform._transforms.0.autoregressive_net.blocks.0.linear_layers.1.bias f4 [30]
0	0x3c50abfd	0.012736318
1	0x3ca587f1	0.020206423
2	0xbbe57264	-0.007002162
3	0xbc9f55a8	-0.019450024
4	0xbc9b22a4	-0.018937416
5	0xbad12fe3	-0.0015959706
6	0xbcb5befc	-0.022185795
7	0xbc3e62c0	-0.0116202235
8	0xbc5e4756	-0.0135668125
9	0xbb0db77f	-0.0021624265
10	0xbcd7b629	-0.026331978
11	0xb8b137c8	-8.450408e-05
12	0xbc181b5e	-0.009283869
13	0xbc8bf980	-0.017086744
14	0x3c1a8bfc	0.009432789
15	0x3c1c0426	0.009522473
16	0x3c6af06d	0.014339549
17	0xbc9d3939	-0.019192325
18	0xbc655a6e	-0.013998611
19	0xbb05f07e	-0.0020437534
20	0xbceacbb2	-0.028661583
21	0x3c2cec84	0.010554437
22	0x3c08d984	0.008352641
23	0x3bd84a54	0.0066006575
24	0x3c78240a	0.015145311
25	0xbcc98e27	-0.024603916
26	0x3b2dd991	0.0026527385
27	0xbc1882f9	-0.00930857
28	0xbcee2fda	-0.029075552
29	0xbc4b8e4d	-0.012424064

_transform._transforms.0.autoregressive_net.blocks.0.linear_layers.1.mask f4 [30, 30]
0	0x3f800000	1.0
1	0x3f800000	1.0
2	0x3f800000	1.0
3	0x3f800000	1.0
4	0x3f800000	1.0
5	0x3f800000	1.0
6	0x3f800000	1.0
7	0x3f800000	1.0
8	0x3f800000	1.0
9	0x3f800000	1.0
10	0x3f800000	1.0
11	0x3f800000	1.0
12	0x3f800000	1.0
13	0x3f800000	1.0
14	0x3f800000	1.0
15	0x3f800000	1.0
16	0x3f800000	1.0
17	0x3f800000	1.0
18	0x3f800000	1.0
19	0x3f800000	1.0
20	0x3f800000	1.0
21	0x3f800000	1.0
22	0x3f800000	1.0
23	0x3f800000	1.0
24	0x3f800000	1.0
25	0x3f800000	1.0
26	0x3f800000	1.0
27	0x3f800000	1.0
28	0x3f800000	1.0
29	0x3f800000	1.0
30	0x3f800000	1.0
31	0x3f800000	1.0
32	0x3f800000	1.0
33	0x3f800000	1.0
34	0x3f800000	1.0
35	0x3f800000	1.0
36	0x3f800000	1.0
37	0x3f800000	1.0
38	0x3f800000	1.0
39	0x3f800000	1.0
40	0x3f800000	1.0
41	0x3f800000	1.0
42	0x3f800000	1.0
43	0x3f800000	1.0
44	0x3f800000	1.0
45	0x3f800000	1.0
46	0x3f800000	1.0
47	0x3f800000	1.0
48	0x3f800000	1.0
49	0x3f800000	1.0
50	0x3f800000	1.0
51	0x3f800000	1.0
52	0x3f800000	1.0
53	0x3f800000	1.0
54	0x3f800000	1.0
55	0x3f800000	1.0
56	0x3f800000	1.0
57	0x3f800000	1.0
58	0x3f800000	1.0
59	0x3f800000	1.0
60	0x3f800000	1.0
61	0x3f800000	1.0
62	0x3f800000	1.0
63	0x3f800000	1.0
64	0x3f800000	1.0
65	0x3f800000	1.0
66	0x3f800000	1.0
67	0x3f800000	1.0
68	0x3f800000	1.0
69	0x3f800000	1.0
70	0x3f800000	1.0
71	0x3f800000	1.0
72	0x3f800000	1.0
73	0x3f800000	1.0
74	0x3f800000	1.0
75	0x3f800000	1.0
76	0x3f800000	1.0
77	0x3f800000	1.0
78	0x3f800000	1.0
79	0x3f800000	1.0
80	0x3f800000	1.0
81	0x3f800000	1.0
82	0x3f800000	1.0
83	0x3f800000	1.0
84	0x3f800000	1.0
85	0x3f800000	1.0
86	0x3f800000	1.0
87	0x3f800000	1.0
88	0x3f800000	1.0
89	0x3f800000	1.0
90	0x3f800000	1.0
91	0x3f800000	1.0
92	0x3f800000	1.0
93	0x3f800000	1.0
94	0x3f800000	1.0
95	0x3f800000	1.0
96	0x3f800000	1.0
97	0x3f800000	1.0
98	0x3f800000	1.0
99	0x3f800000	1.0
100	0x3f800000	1.0
101	0x3f800000	1.0
102	0x3f800000	1.0
103	0x3f800000	1.0
104	0x3f800000	1.0
105	0x3f800000	1.0
106	0x3f800000	1.0
107	0x3f800000	1.0
108	0x3f800000	1.0
109	0x3f800000	1.0
110	0x3f800000	1.0
111	0x3f800000	1.0
112	0x3f800000	1.0
113	0x3f800000	1.0
114	0x3f800000	1.0
115	0x3f800000	1.0
116	0x3f800000	1.0
117	0x3f800000	1.0
118	0x3f800000	1.0
119	0x3f800000	1.0
120	0x3f800000	1.0
121	0x3f800000	1.0
122	0x3f800000	1.0
123	0x3f800000	1.0
124	0x3f800000	1.0
125	0x3f800000	1.0
126	0x3f800000	1.0
127	0x3f800000	1.0
128	0x3f800000	1.0
129	0x3f800000	1.0
130	0x3f800000	1.0
131	0x3f800000	1.0
132	0x3f800000	1.0
133	0x3f800000	1.0
134	0x3f800000	1.0
135	0x3f800000	1.0
136	0x3f800000	1.0
137	0x3f800000	1.0
138	0x3f800000	1.0
139	0x3f800000	1.0
140	0x3f800000	1.0
141	0x3f800000	1.0
142	0x3f800000	1.0
143	0x3f800000	1.0
144	0x3f800000	1.0
145	0x3f800000	1.0
146	0x3f800000	1.0
147	0x3f800000	1.0
148	0x3f800000	1.0
149	0x3f800000	1.0
150	0x3f800000	1.0
151	0x3f800000	1.0
152	0x3f800000	1.0
153	0x3f800000	1.0
154	0x3f800000	1.0
155	0x3f800000	1.0
156	0x3f800000	1.0
157	0x3f800000	1.0
158	0x3f800000	1.0
159	0x3f800000	1.0
160	0x3f800000	1.0
161	0x3f800000	1.0
162	0x3f800000	1.0
163	0x3f800000	1.0
164	0x3f800000	1.0
165	0x3f800000	1.0
166	0x3f800000	1.0
167	0x3f800000	1.0
168	0x3f800000	1.0
169	0x3f800000	1.0
170	0x3f800000	1.0
171	0x3f800000	1.0
172	0x3f800000	1.0
173	0x3f800000	1.0
174	0x3f800000	1.0
175	0x3f800000	1.0
176	0x3f800000	1.0
177	0x3f800000	1.0
178	0x3f800000	1.0
179	0x3f800000	1.0
180	0x3f800000	1.0
181	0x3f800000	1.0
182	0x3f800000	1.0
183	0x3f800000	1.0
184	0x3f800000	1.0
185	0x3f800000	1.0
186	0x3f800000	1.0
187	0x3f800000	1.0
188	0x3f800000	1.0
189	0x3f800000	1.0
190	0x3f800000	1.0
191	0x3f800000	1.0
192	0x3f800000	1.0
193	0x3f800000	1.0
194	0x3f800000	1.0
195	0x3f800000	1.0
196	0x3f800000	1.0
197	0x3f800000	1.0
198	0x3f800000	1.0
199	0x3f800000	1.0
200	0x3f800000	1.0
201	0x3f800000	1.0
202	0x3f800000	1.0
203	0x3f800000	1.0
204	0x3f800000	1.0
205	0x3f800000	1.0
206	0x3f800000	1.0
207	0x3f800000	1.0
208	0x3f800000	1.0
209	0x3f800000	1.0
210	0x3f800000	1.0
211	0x3f800000	1.0
212	0x3f800000	1.0
213	0x3f800000	1.0
214	0x3f800000	1.0
215	0x3f800000	1.0
216	0x3f800000	1.0
217	0x3f800000	1.0
218	0x3f800000	1.0
219	0x3f800000	1.0
220	0x3f800000	1.0
221	0x3f800000	1.0
222	0x3f800000	1.0
223	0x3f800000	1.0
224	0x3f800000	1.0
225	0x3f800000	1.0
226	0x3f800000	1.0
227	0x3f800000	1.0
228	0x3f800000	1.0
229	0x3f800000	1.0
230	0x3f800000	1.0
231	0x3f800000	1.0
232	0x3f800000	1.0
233	0x3f800000	1.0
234	0x3f800000	1.0
235	0x3f800000	1.0
236	0x3f800000	1.0
237	0x3f800000	1.0
238	0x3f800000	1.0
239	0x3f800000	1.0
240	0x3f800000	1.0
241	0x3f800000	1.0
242	0x3f800000	1.0
243	0x3f800000	1.0
244	0x3f800000	1.0
245	0x3f800000	1.0
246	0x3f800000	1.0
247	0x3f800000	1.0
248	0x3f800000	1.0
249	0x3f800000	1.0
250	0x3f800000	1.0
251	0x3f800000	1.0
252	0x3f800000	1.0
253	0x3f800000	1.0
254	0x3f800000	1.0
255	0x3f800000	1.0

_transform._transforms.0.autoregressive_net.blocks.1.context_layer.weight f4 [30, 3]
0	0xbee473d0	-0.44619608
1	0x3ef43d71	0.47703126
2	0xbe1a18e0	-0.15048552
3	0xbeebf17b	-0.46082672
4	0xbeb17c46	-0.34665126
5	0x3d8af322	0.06784655
6	0x3c05b4ab	0.00816075
7	0xbe256769	-0.16152729
8	0xbe612d29	-0.21989883
9	0x3e45f18f	0.19330429
10	0xbddd8276	-0.10815899
11	0x3dc11b5a	0.09429045
12	0xbd7bbeb6	-0.061461173
13	0x3e8bfab9	0.27339724
14	0x3f12209b	0.57081
15	0xbf0925b0	-0.5357313
16	0x3eceff36	0.40429085
17	0xbd634b81	-0.055491928
18	0x3e6f53a3	0.23371749
19	0xbeb203bd	-0.34768477
20	0xbeaf660f	-0.34257552
21	0xbe8053cc	-0.25063932
22	0x3ebcdf9d	0.36889353
23	0xbeaf7bd3	-0.34274158
24	0xbddf5e10	-0.10906613
25	0xbeea7f0f	-0.45800063
26	0xbef390bf	-0.4757137
27	0x3dc0ddf8	0.09417337
28	0x3ec791ae	0.38978332
29	0x3e05582f	0.1302192
30	0xbece2269	-0.40260628
31	0x3e501562	0.20320657
32	0xbf10832a	-0.5645014
33	0x3f01aecf	0.5065736
34	0xbe8d19de	-0.27558798
35	0xbeb19924	-0.3468715
36	0x3eb3519b	0.35023198
37	0xbd544391	-0.05182225
38	0x3ef0caed	0.4702982
39	0xbe6df899	-0.23239364
40	0xbe515fde	-0.20446727
41	0xbd6b381c	-0.057426557
42	0x3d87373a	0.066023305
43	0x3e94fe94	0.29100478
44	0xbe200af3	-0.15629177
45	0x3eecb5a2	0.46232325
46	0x3ebb2d2e	0.36557907
47	0xbeea1bbb	-0.45724282
48	0x3f06690b	0.5250403
49	0x3f04a2e1	0.51811033
50	0x3f0072c4	0.5017512
51	0xbdd2b954	-0.10289255
52	0x3eb579df	0.35444543
53	0xbe981189	-0.29700878
54	0xbddc62ca	-0.1076103
55	0xbd9c36a8	-0.07627612
56	0x3f055ad2	0.52091706
57	0xbe9a9086	-0.30188388
58	0xbecf4b65	-0.4048721
59	0xbf10c938	-0.56557035
60	0x3dcb1bec	0.09917435
61	0xbed151ce	-0.40882725
62	0x3e0cfbbe	0.13767907
63	0xbef4786b	-0.47748122
64	0x3e922018	0.2854011
65	0x3f128716	0.57237375
66	0xbf09969b	-0.5374543
67	0xbd526d05	-0.0513735
68	0xbe63c018	-0.22241247
69	0x3f01b927	0.50673145
70	0x3e04d1d4	0.12970668
71	0x3e7da944	0.24771601
72	0x3ed8068b	0.42192492
73	0x3e879c23	0.2648631
74	0xbee02385	-0.437771
75	0x3eb0cef3	0.3453289
76	0xbee59a58	-0.44844317
77	0xbf103f91	-0.56346995
78	0x3ef2ecb3	0.47446212
79	0x3eae625f	0.34059426
80	0xbec022c5	-0.37526527
81	0xbceb6480	-0.028734446
82	0xbe06a411	-0.13148524
83	0x3f00b07c	0.50269294
84	0x3ea35b85	0.3190576
85	0x3e9ad465	0.3024017
86	0x3edf9850	0.43670893
87	0x3ec53c4d	0.38522568
88	0xbec5b065	-0.3861114
89	0x3eec123b	0.4610766

_transform._transforms.0.autoregressive_net.blocks.1.context_layer.bias f4 [30]
0	0x3ed79890	0.42108583
1	0x3ec6e4b9	0.38846377
2	0xbe885870	-0.26629972
3	0x3e871e12	0.2639013
4	0x3efeb244	0.4974538
5	0xbdfc68d6	-0.12324683
6	0x3ee9446d	0.45560017
7	0xbeb6276b	-0.3557695
8	0xbed49c9a	-0.41525728
9	0xbdeb2c08	-0.11483008
10	0xbe491e46	-0.19640455
11	0x3ee82bc3	0.45345888
12	0x3f111825	0.56677467
13	0x3ee2b9e5	0.4428245
14	0x3e5e28f5	0.21695311
15	0x3f0e2f23	0.55540675
16	0x3f0f03f5	0.5586541
17	0x3e82fcbc	0.25583446
18	0x3eff6b6a	0.49886638
19	0xbec009fb	-0.37507614
20	0x3e15cb5d	0.14628358
21	0xbe5942e3	-0.21216922
22	0x3e8d867a	0.2764166
23	0xbe77b026	-0.24188289
24	0x3f0798f0	0.5296774
25	0xbe48c0f8	-0.19604862
26	0x3e589167	0.21149217
27	0x3cc816da	0.024424959
28	0x3ea2f96f	0.31830928
29	0x3e428369	0.18995441

_transform._transforms.0.autoregressive_net.blocks.1.linear_layers.0.weight f4 [30, 30]
0	0xbb1a76f8	-0.0023569446
1	0xbda64129	-0.08117897
2	0xbd3b4805	-0.04572298
3	0x3df34b59	0.11879606
4	0xbdd019cb	-0.101611696
5	0x3d89286e	0.066971645
6	0x3c8e815b	0.017395666
7	0xbdcc0ca1	-0.09963346
8	0x3defafd3	0.11703458
9	0xbdf9b020	-0.12191796
10	0xbde3623d	-0.11102722
11	0x3ddceb42	0.10787059
12	0x3e04286c	0.12906045
13	0x3d18d6d8	0.037314266
14	0x3dbdeb5e	0.09273408
15	0xbdfb7091	-0.1227733
16	0xbe11e5e9	-0.1424786
17	0xbdbc38cc	-0.09190521
18	0xbd7cfa1e	-0.061761968
19	0xbe3882c5	-0.18018635
20	0xbe1c1998	-0.15244138
21	0xbd756572	-0.0599112
22	0xbdeaf972	-0.11473359
23	0x3da9ddbb	0.08294245
24	0x3d30ea05	0.04319193
25	0x3e3b9a81	0.18320657
26	0xbd9ce3bb	-0.07660624
27	0x3dc8d82b	0.09806856
28	0x3d9d8392	0.07691111
29	0xbe0afbd8	-0.13572633
30	0xbe0ff463	-0.1405807
31	0x3cbfe1ba	0.023423065
32	0xbce8b88d	-0.028408313
33	0x3d377f1a	0.044798948
34	0xbddbc272	-0.10730447
35	0xbd033467	-0.032032397
36	0xbe0f82f7	-0.14014803
37	0xbd118322	-0.03552545
38	0x3e1533af	0.14570497
39	0x3d95d6a7	0.07316332
40	0xbe1b4587	-0.15163241
41	0x3df247c0	0.118300915
42	0x3e2add16	0.166859
43	0xbc858b5a	-0.0163018
44	0xbe3262a4	-0.17420441
45	0x3d108b5e	0.03528916
46	0x3d17f065	0.037094492
47	0xbdebb3af	-0.11508881
48	0x3b45d6f9	0.0030187948
49	0x3c89f205	0.016839037
50	0x3dfcaa9d	0.123372294
51	0x3ba79b27	0.005114931
52	0xbd301a07	-0.04299357
53	0x3cd4efb3	0.025993204
54	0x3de710a4	0.11282471
55	0xbdfdc521	-0.12391115
56	0xbe04b65a	-0.12960187
57	0xbd675f41	-0.056487326
58	0x3cd3742d	0.025812233
59	0x3e012ee2	0.1261554
60	0xbdb6704e	-0.08908139
61	0x3dbcbf86	0.09216218
62	0x3d90fe30	0.070797324
63	0xbd0c7bba	-0.034297682
64	0x3dc0f82b	0.09422334
65	0x3de5f0db	0.1122758
66	0x3cdd038a	0.026979227
67	0xbdec6562	-0.11542775
68	0x3e2212c3	0.1582747
69	0x3db388ed	0.08766351
70	0x3dfbcb1f	0.12294602
71	0xbda4ce07	-0.08047109
72	0xbce3f25a	-0.027825523
73	0xbce09031	-0.027412506
74	0xbd8c5b11	-0.06853307
75	0xbe0abbde	-0.13548228
76	0x3b3aaba2	0.0028483649
77	0xbe0c0b59	-0.13676204
78	0xbd5ec555	-0.05438741
79	0xbc227d94	-0.0099176355
80	0x3d1bbdbc	0.03802274
81	0xbd2dc7d7	-0.04242691
82	0xbdee8c69	-0.11647875
83	0x3e149c4e	0.1451275
84	0xbbe6f7e0	-0.007048592
85	0xbd52869a	-0.051397897
86	0x3cc909c3	0.024540788
87	0xbb0c6513	-0.002142255
88	0x3e234c35	0.1594704
89	0xbd9371a3	-0.07199409
90	0x3dca2a6f	0.09871375
91	0x3cb2bf94	0.021819867
92	0xbdd3a034	-0.10333291
93	0x3da0db9a	0.07854386
94	0xbdfaecdc	-0.122522086
95	0xbde49ab2	-0.11162318
96	0x3d32ab6c	0.043620512
97	0xbb9036b0	-0.0044010505
98	0xbb2b67e6	-0.0026154458
99	0x3e1dbe7c	0.15404695
100	0x3dcbf622	0.099590555
101	0x3e02c068	0.1276871
102	0x3b2f54dc	0.002675346
103	0x3dda964a	0.106731966
104	0xbe05d07a	-0.13067809
105	0xbd9271a6	-0.07150583
106	0x3e2c5f35	0.16833194
107	0x3d3528c8	0.044228345
108	0xbdb16f7a	-0.086638406
109	0xbce85515	-0.028360883
110	0xbd6c3a7d	-0.057672966
111	0xbcf41d08	-0.029799
112	0xbe279081	-0.16363718
113	0xbe15dce7	-0.14635049
114	0xbd0bf4c6	-0.03416898
115	0x3e13bf7d	0.14428516
116	0xbd8820b6	-0.06646864
117	0x3d856272	0.065129176
118	0x3ccef39d	0.025262648
119	0x3d18212a	0.037141003
120	0xbb3761f3	-0.0027981966
121	0xbe0fda4e	-0.1404812
122	0x3ce5de58	0.028060123
123	0x3d7d1d4a	0.06179551
124	0x3e0cd620	0.13753557
125	0xbdc24ba7	-0.09487086
126	0x3d9a1fd2	0.075256005
127	0x3d6a6286	0.057222866
128	0x3e27b4b9	0.16377534
129	0x3dee11b8	0.11624473
130	0x3d1b5490	0.037922442
131	0x3e0b6b2b	0.136151
132	0x3d226cf4	0.039654687
133	0x3cca7fbc	0.024719112
134	0xbd8674bd	-0.06565235
135	0x3cc3de0d	0.023909593
136	0xbdab5713	-0.083662175
137	0x3d8422f0	0.06451976
138	0xbd6cb4e5	-0.057789702
139	0x3e28c01f	0.16479538
140	0xbd8b9344	-0.06815198
141	0xbe0b0c6d	-0.13578959
142	0x3c24b795	0.010053535
143	0xbdffa1b4	-0.12482014
144	0xbdb1a901	-0.08674813
145	0xbdabdc22	-0.083915964
146	0x3e167f6f	0.1469705
147	0x3d242b47	0.040080335
148	0x3c04aede	0.008098332
149	0x3e16b05e	0.14715716
150	0xbd996243	-0.07489445
151	0xbe1e7119	-0.15472831
152	0x3e165234	0.14679796
153	0x3dbdfbdb	0.09276553
154	0xbe18d885	-0.14926346
155	0x3d94e037	0.07269328
156	0xbe1bcede	-0.15215632
157	0x3d793e6b	0.060850542
158	0x3d4e6cea	0.050396837
159	0x3df8d20d	0.12149439
160	0xbdc8edd8	-0.0981099
161	0x3d8f3e9e	0.06994365
162	0x3bdbdbfd	0.0067095743
163	0x3aed642b	0.0018111517
164	0xbe1e7347	-0.15473662
165	0xbd76b3af	-0.060229953
166	0xbe0198fe	-0.12656018
167	0x3c922f04	0.017844684
168	0x3e2a20e2	0.16614106
169	0xbe2ddb0f	-0.16978095
170	0xbe07c487	-0.13258563
171	0xbdaf7c89	-0.08568675
172	0x3e0defa5	0.13860948
173	0xbbc349c6	-0.005959722
174	0x3d26de3a	0.040739276
175	0xbd768164	-0.06018199
176	0xbe057a31	-0.13034894
177	0x3bf904e0	0.007599458
178	0x3decda48	0.11565071
179	0x3dc476de	0.095929846
180	0xbd0bc8d3	-0.034127068
181	0xbd2d2768	-0.04227391
182	0x3e098098	0.13427961
183	0x3cf0e33f	0.029405234
184	0xbd46f851	-0.048576657
185	0xbde922a0	-0.11383557
186	0xbcf230fa	-0.02956437
187	0x3d1d8016	0.03845223
188	0x3d8308b5	0.06398145
189	0x3dba7fa3	0.09106376
190	0xbe2fef98	-0.17181242
191	0x3da125b3	0.07868519
192	0xbe215471	-0.15754868
193	0x3e1b70fe	0.15179822
194	0xbe0775d9	-0.13228549
195	0xbde7a5dc	-0.11310932
196	0x3e13cf1c	0.14434475
197	0x3c7ba495	0.015359064
198	0xbd6b0485	-0.057377357
199	0xbdada73b	-0.08479162
200	0xbd93caf4	-0.072164446
201	0x3b437879	0.0029826446
202	0xbd5f9ca9	-0.054592762
203	0x3e12deae	0.14342758
204	0xbe090395	-0.13380273
205	0x3dc1ea8d	0.09468565
206	0x3da8dfaf	0.08245789
207	0xbd19aee6	-0.03752031
208	0x3e2c617a	0.1683406
209	0x3c2ed038	0.01066976
210	0xbe270b58	-0.16312921
211	0xbd6f29ca	-0.058389463
212	0xbe291971	-0.16513611
213	0xbe02b86d	-0.12765665
214	0xbdea82c7	-0.11450725
215	0xbdb9fe00	-0.0908165
216	0x3d5ffa70	0.054682195
217	0xbe1d25c2	-0.15346435
218	0x3e37cb86	0.17948732
219	0x3dcf2117	0.10113733
220	0x3e22d572	0.15901735
221	0xbd2ea334	-0.04263611
222	0x3d0d288e	0.034462504
223	0x3de191ac	0.11014113
224	0x3c8d6fac	0.017265163
225	0xbd88bd57	-0.06676739
226	0xbd5601c3	-0.052247774
227	0x3d3aca82	0.045603283
228	0xbdfe7353	-0.1242434
229	0x3cc60fd9	0.024177479
230	0xbe3528b7	-0.17691313
231	0x3e320b68	0.17387164
232	0xbd08dbee	-0.033412866
233	0xbdb8ce73	-0.09023752
234	0x3db22332	0.08698119
235	0xbe39c2df	-0.18140744
236	0x3b7b2215	0.0038319875
237	0xbe2a22ba	-0.1661481
238	0x3d50b719	0.050955866
239	0xbe20c4d6	-0.15700087
240	0x3da6e2f6	0.08148758
241	0x3b9c39ff	0.004767656
242	0xbe169e86	-0.1470891
243	0xbdf60f5e	-0.1201465
244	0x3d8f22ff	0.06989097
245	0x3b6be03c	0.0035991808
246	0x3da4e18c	0.08050832
247	0xbd72a38d	-0.059238005
248	0xba50187f	-0.00079382205
249	0x3dc55976	0.09636204
250	0x3d94a0ff	0.0725727
251	0xbde91c77	-0.11382382
252	0xbcc69f2c	-0.024245821
253	0xbdd8d43c	-0.105873555
254	0x3d527173	0.051377725
255	0xbcd0a115	-0.025467435

_transform._transforms.0.autoregressive_net.blocks.1.linear_layers.0.bias f4 [30]
0	0x3d0a1aca	0.033716954
1	0xbbb5b7a4	-0.0055455733
2	0xbd4b0bb3	-0.049571704
3	0xbd8e6411	-0.0695268
4	0x3caf23be	0.021379348
5	0xbd965ea0	-0.07342267
6	0xbe100d3f	-0.14067553
7	0xbe191d05	-0.14952476
8	0x3d4fd7eb	0.050743025
9	0xbe0cac72	-0.13737658
10	0xbe3a2f58	-0.18182123
11	0x3e21071b	0.15725367
12	0x3de889f2	0.11354436
13	0x3e1af0ba	0.15130892
14	0x3dbbe57e	0.091746315
15	0xbc652149	-0.013984987
16	0x3cbc30b2	0.022972438
17	0xbd4a7078	-0.049423665
18	0x3df1f1ff	0.11813735
19	0xbe10b500	-0.14131546
20	0x3dca4d3d	0.09878013
21	0x3bb99753	0.005663791
22	0x3e0e7f7a	0.13915816
23	0x3e17cf6a	0.14825216
24	0xbd84bd51	-0.06481422
25	0x3d33879f	0.04383051
26	0x3d8cd6d3	0.06876912
27	0xbe0981bb	-0.13428394
28	0x3e251966	0.1612297
29	0x3e1c0222	0.15235189

_transform._transforms.0.autoregressive_net.blocks.1.linear_layers.0.mask f4 [30, 30]
0	0x3f800000	1.0
1	0x3f800000	1.0
2	0x3f800000	1.0
3	0x3f800000	1.0
4	0x3f800000	1.0
5	0x3f800000	1.0
6	0x3f800000	1.0
7	0x3f800000	1.0
8	0x3f800000	1.0
9	0x3f800000	1.0
10	0x3f800000	1.0
11	0x3f800000	1.0
12	0x3f800000	1.0
13	0x3f800000	1.0
14	0x3f800000	1.0
15	0x3f800000	1.0
16	0x3f800000	1.0
17	0x3f800000	1.0
18	0x3f800000	1.0
19	0x3f800000	1.0
20	0x3f800000	1.0
21	0x3f800000	1.0
22	0x3f800000	1.0
23	0x3f800000	1.0
24	0x3f800000	1.0
25	0x3f800000	1.0
26	0x3f800000	1.0
27	0x3f800000	1.0
28	0x3f800000	1.0
29	0x3f800000	1.0
30	0x3f800000	1.0
31	0x3f800000	1.0
32	0x3f800000	1.0
33	0x3f800000	1.0
34	0x3f800000	1.0
35	0x3f800000	1.0
36	0x3f800000	1.0
37	0x3f800000	1.0
38	0x3f800000	1.0
39	0x3f800000	1.0
40	0x3f800000	1.0
41	0x3f800000	1.0
42	0x3f800000	1.0
43	0x3f800000	1.0
44	0x3f800000	1.0
45	0x3f800000	1.0
46	0x3f800000	1.0
47	0x3f800000	1.0
48	0x3f800000	1.0
49	0x3f800000	1.0
50	0x3f800000	1.0
51	0x3f800000	1.0
52	0x3f800000	1.0
53	0x3f800000	1.0
54	0x3f800000	1.0
55	0x3f800000	1.0
56	0x3f800000	1.0
57	0x3f800000	1.0
58	0x3f800000	1.0
59	0x3f800000	1.0
60	0x3f800000	1.0
61	0x3f800000	1.0
62	0x3f800000	1.0
63	0x3f800000	1.0
64	0x3f800000	1.0
65	0x3f800000	1.0
66	0x3f800000	1.0
67	0x3f800000	1.0
68	0x3f800000	1.0
69	0x3f800000	1.0
70	0x3f800000	1.0
71	0x3f800000	1.0
72	0x3f800000	1.0
73	0x3f800000	1.0
74	0x3f800000	1.0
75	0x3f800000	1.0
76	0x3f800000	1.0
77	0x3f800000	1.0
78	0x3f800000	1.0
79	0x3f800000	1.0
80	0x3f800000	1.0
81	0x3f800000	1.0
82	0x3f800000	1.0
83	0x3f800000	1.0
84	0x3f800000	1.0
85	0x3f800000	1.0
86	0x3f800000	1.0
87	0x3f800000	1.0
88	0x3f800000	1.0
89	0x3f800000	1.0
90	0x3f800000	1.0
91	0x3f800000	1.0
92	0x3f800000	1.0
93	0x3f800000	1.0
94	0x3f800000	1.0
95	0x3f800000	1.0
96	0x3f800000	1.0
97	0x3f800000	1.0
98	0x3f800000	1.0
99	0x3f800000	1.0
100	0x3f800000	1.0
101	0x3f800000	1.0
102	0x3f800000	1.0
103	0x3f800000	1.0
104	0x3f800000	1.0
105	0x3f800000	1.0
106	0x3f800000	1.0
107	0x3f800000	1.0
108	0x3f800000	1.0
109	0x3f800000	1.0
110	0x3f800000	1.0
111	0x3f800000	1.0
112	0x3f800000	1.0
113	0x3f800000	1.0
114	0x3f800000	1.0
115	0x3f800000	1.0
116	0x3f800000	1.0
117	0x3f800000	1.0
118	0x3f800000	1.0
119	0x3f800000	1.0
120	0x3f800000	1.0
121	0x3f800000	1.0
122	0x3f800000	1.0
123	0x3f800000	1.0
124	0x3f800000	1.0
125	0x3f800000	1.0
126	0x3f800000	1.0
127	0x3f800000	1.0
128	0x3f800000	1.0
129	0x3f800000	1.0
130	0x3f800000	1.0
131	0x3f800000	1.0
132	0x3f800000	1.0
133	0x3f800000	1.0
134	0x3f800000	1.0
135	0x3f800000	1.0
136	0x3f800000	1.0
137	0x3f800000	1.0
138	0x3f800000	1.0
139	0x3f800000	1.0
140	0x3f800000	1.0
141	0x3f800000	1.0
142	0x3f800000	1.0
143	0x3f800000	1.0
144	0x3f800000	1.0
145	0x3f800000	1.0
146	0x3f800000	1.0
147	0x3f800000	1.0
148	0x3f800000	1.0
149	0x3f800000	1.0
150	0x3f800000	1.0
151	0x3f800000	1.0
152	0x3f800000	1.0
153	0x3f800000	1.0
154	0x3f800000	1.0
155	0x3f800000	1.0
156	0x3f800000	1.0
157	0x3f800000	1.0
158	0x3f800000	1.0
159	0x3f800000	1.0
160	0x3f800000	1.0
161	0x3f800000	1.0
162	0x3f800000	1.0
163	0x3f800000	1.0
164	0x3f800000	1.0
165	0x3f800000	1.0
166	0x3f800000	1.0
167	0x3f800000	1.0
168	0x3f800000	1.0
169	0x3f800000	1.0
170	0x3f800000	1.0
171	0x3f800000	1.0
172	0x3f800000	1.0
173	0x3f800000	1.0
174	0x3f800000	1.0
175	0x3f800000	1.0
176	0x3f800000	1.0
177	0x3f800000	1.0
178	0x3f800000	1.0
179	0x3f800000	1.0
180	0x3f800000	1.0
181	0x3f800000	1.0
182	0x3f800000	1.0
183	0x3f800000	1.0
184	0x3f800000	1.0
185	0x3f800000	1.0
186	0x3f800000	1.0
187	0x3f800000	1.0
188	0x3f800000	1.0
189	0x3f800000	1.0
190	0x3f800000	1.0
191	0x3f800000	1.0
192	0x3f800000	1.0
193	0x3f800000	1.0
194	0x3f800000	1.0
195	0x3f800000	1.0
196	0x3f800000	1.0
197	0x3f800000	1.0
198	0x3f800000	1.0
199	0x3f800000	1.0
200	0x3f800000	1.0
201	0x3f800000	1.0
202	0x3f800000	1.0
203	0x3f800000	1.0
204	0x3f800000	1.0
205	0x3f800000	1.0
206	0x3f800000	1.0
207	0x3f800000	1.0
208	0x3f800000	1.0
209	0x3f800000	1.0
210	0x3f800000	1.0
211	0x3f800000	1.0
212	0x3f800000	1.0
213	0x3f800000	1.0
214	0x3f800000	1.0
215	0x3f800000	1.0
216	0x3f800000	1.0
217	0x3f800000	1.0
218	0x3f800000	1.0
219	0x3f800000	1.0
220	0x3f800000	1.0
221	0x3f800000	1.0
222	0x3f800000	1.0
223	0x3f800000	1.0
224	0x3f800000	1.0
225	0x3f800000	1.0
226	0x3f800000	1.0
227	0x3f800000	1.0
228	0x3f800000	1.0
229	0x3f800000	1.0
230	0x3f800000	1.0
231	0x3f800000	1.0
232	0x3f800000	1.0
233	0x3f800000	1.0
234	0x3f800000	1.0
235	0x3f800000	1.0
236	0x3f800000	1.0
237	0x3f800000	1.0
238	0x3f800000	1.0
239	0x3f800000	1.0
240	0x3f800000	1.0
241	0x3f800000	1.0
242	0x3f800000	1.0
243	0x3f800000	1.0
244	0x3f800000	1.0
245	0x3f800000	1.0
246	0x3f800000	1.0
247	0x3f800000	1.0
248	0x3f800000	1.0
249	0x3f800000	1.0
250	0x3f800000	1.0
251	0x3f800000	1.0
252	0x3f800000	1.0
253	0x3f800000	1.0
254	0x3f800000	1.0
255	0x3f800000	1.0
