symmetry-informed-flows/notebooks/DampedHarmonicOscillator/damped-harmonic-oscillator-similarity-embedding-weights.pth (torch, 29563 bytes, 23 tensors)

layers_f.initial_layer.weight f4 [10, 50, 5]
00000000: 9b0c 36bd acc9 0f3d f9a5 aabd 0955 ce3c
00000010: 6ffd a8bd 2619 8fbd 125e 2cbd e4cb 20bd
00000020: 606d 93ba 15e0 75bd 1e9e 443d 0940 d7bc
00000030: 8d3e 123c f912 65bd c837 f23c 7f28 3ebd
00000040: 0c90 0b3d ba26 8d3c 7932 8cbb 1083 6abd
00000050: ae26 27bc 2156 50bd 03e0 94bd d4f3 55bc
00000060: 2873 50bc 4e17 f3bc f6b1 94bc a6b4 d1bd
00000070: 1deb 733c 0c86 a8bc a69c 24bd 204d c8ba
00000080: 43d2 f1bc 7efe a43c 3b2e a1bd d22c 6c3c
00000090: 4b51 c6bd d50f 22bc ed36 62bd 4cf8 63bd
000000a0: ba9c 553d 2005 abbc 0af4 5e3c 1bd2 943c
000000b0: 1826 47bd 9c85 81bd f0ec 60bd 20c1 87bd
000000c0: 0dba 9d3b 1e3f 87bc c12f 33bd 0864 57bd
000000d0: 0da8 4bbc 4537 2d3d 2fda 8abd 0964 833a
000000e0: 1477 d5bc fe30 d6bc c906 2cbd ce1a 8e3b
000000f0: c582 c7bc 5472 323d 83c2 adbc fe96 92bd
00000100: fb60 48bd ed70 05bc b9d6 c2bb 55f8 d53c
00000110: 11f8 d83c e635 f6bb a6a6 0db7 5496 d73c
00000120: c8e1 83b9 bf49 2cbd ae7f 19bd 8509 6cbb
00000130: 2231 78bc 3e7d acbd 1ec3 68bd 16e3 94bc
00000140: d081 853c 7e8e 9fbd 04b1 ebbb 1aa2 1abd
00000150: 2141 09bd 87c2 fabc 2b16 9ebd 916e ddbd
00000160: c281 b7bd ac47 43bb 88c5 87bc 239e 6c3c
00000170: 137c 4dbd 5589 96bd e5b2 b5bb b74a 6b3d
00000180: 9991 26bd 4843 40bd f0cf 5ebd 4ffe 2a3d
00000190: 2400 2bbd 2ce5 0b3d 5040 423c 6100 39bd
000001a0: 9284 95bd c0d4 c9bc 69e7 573d 9b6d 81bc
000001b0: 9b5e e1bc 05eb 9c3b 6841 ce3c 07f4 25bd
000001c0: 3577 84bc f814 8dbd 4212 dfbb beb5 27bd
000001d0: a00e abbd adb4 01bd 6746 a4bd 1746 11bd
000001e0: 4d28 9f3c d956 1c3d 0785 b4bc 962d 30bd
000001f0: d2fa ea3c b87e 08bd a4bb 923c 5682 bdbd
00000200: fa57 8ebc 7044 9bbd 7420 b2bc 55ef 45bc
00000210: 9b4a 58bd 83d4 b6bd 653c 2dbc f1d5 883c
00000220: 8ab0 94bb 2736 01bd f10f 3fbd 4628 a1bc
00000230: b399 2ebd db66 473a dd1e 77bc 33f8 003d
00000240: 96e6 9cbb 5f3c 29bb 0581 fcbc 8f46 12bd
00000250: c8e9 81bd 6ba0 6f3d 6f16 9c3c 3ef2 163c
00000260: 1cf7 5cbd 4e1e c0bc fcc0 21bc f54c 0e3d
00000270: e814 0dbd 0111 4fbd 669b c83b ba18 ccbb
00000280: 087f b6bc 56be ddbd e8c0 7abd 1ac9 16bd
00000290: 21d4 acbc 4ab1 a6bc f57f 87bd 7e54 7dbd
000002a0: e3d6 d23c 73b3 68bd 4b2b 463d 05b4 433d
000002b0: b600 81bd ea3c 9abc ffbe f1bb 9323 e4bc
000002c0: 71a1 e63b 9f6c 5cbd 0cf0 76bd 7971 0cbc
000002d0: 5f77 6f3d b969 2cbd 40ab 66bd 4102 513d
000002e0: f04a d23c f071 30bd 8016 10bd a880 d6bd
000002f0: 564d d9bc 2a6d 8ebc 486d 93bc 9b01 29bd
00000300: d267 0abc 7656 8b3b 9334 c93c 9a89 8e3b
00000310: 2ba6 07bd a82a edbd f67c 0c3d f932 8abd
00000320: 5ab2 f33c dee8 afbd c3e2 d3bd 8dfa 6cbd
00000330: 873f a8bd e5c1 46bd 9b93 5dbd 01d6 23bd
00000340: 0e3b 833c edc5 eabc e567 66bc a8cc 93bd
00000350: 272a b0bc 82b3 a03b 6f18 933c 52c2 1c3d
00000360: 9115 64bd ede0 fbbc 7b74 d93c 75ee f5bc
00000370: 12f2 a6bc 26e9 13bd 68be 85bd 271e a2bd
00000380: b268 aabc c773 0ebc 0b00 06bd f2e9 ccbd
00000390: 4332 e53a 36ad 20bd 98aa 353c bd18 54bc
000003a0: 65c4 9dbb 91f2 85bc c61b 4c3c f434 21bc
000003b0: 630f 1abb d131 a33c 44ac 893c 3673 473c
000003c0: b8d4 36bd 9e8f e73c 85a9 96bd 85c8 893c
000003d0: aec5 a5bc 55f9 1b3d 8acb 5fbd 4cfc 90bc
000003e0: fdcd 743c a287 93bc fa09 8b3d 327a 893d
000003f0: 6875 8a3d 5952 dbba a77d 3cbd e5ee 213d
-0.044445615 0.03510444 -0.08332438 0.025187032 -0.082514636 -0.069872186 -0.0420819 -0.039256945
-0.0011247806 -0.060028154 0.048002355 -0.026275652 0.008926046 -0.055926297 0.029567614 -0.04642534
0.03407292 0.01723038 -0.0042784777 -0.057253897 -0.010202093 -0.05086339 -0.07269289 -0.013058621
-0.012722768 -0.029674198 -0.018151265 -0.10239534 0.014887598 -0.020571731 -0.040188454 -0.0015281774
-0.029519206 0.020140883 -0.07870146 0.014414983 -0.09683474 -0.00989147 -0.055228163 -0.055656716
0.05215142 -0.020876467 0.013607988 0.018166592 -0.048620313 -0.06324312 -0.05491346 -0.066286325
0.0048134387 -0.016509589 -0.043746714 -0.05258563 -0.012430203 0.042289037 -0.067798965 0.001002432
-0.026057757 -0.026146408 -0.04199866 0.0043366915 -0.024354348 0.043566063 -0.021210914 -0.07157706
-0.048920613 -0.008144599 -0.005946007 0.02611939 0.026485475 -0.0075137494 -8.443056e-06 0.0263168
-0.00025154487 -0.042062517 -0.03747528 -0.0036016416 -0.015148433 -0.084223256 -0.056826703 -0.01817469
0.016297251 -0.0779085 -0.0071927328 -0.03775225 -0.033509377 -0.030610336 -0.07719072 -0.108121045
-0.08960296 -0.0029797358 -0.016573682 0.014442 -0.050167155 -0.07350413 -0.0055450075 0.0574443
-0.040666196 -0.046939164 -0.054397523 0.041746434 -0.04174818 0.034154102 0.011856154 -0.045166377
-0.073006764 -0.02463758 0.052710924 -0.015799334 -0.027510932 0.0047887587 0.025177673 -0.040515926
-0.016170124 -0.06888765 -0.0068075964 -0.040944807 -0.08352399 -0.031666446 -0.08021241 -0.035467234
0.019428397 0.038168762 -0.022036089 -0.043012224 0.028684054 -0.033323973 0.01791174 -0.09253375
-0.017375935 -0.07581413 -0.02174399 -0.012080987 -0.052805524 -0.08927252 -0.010573481 0.016703578
-0.0045376467 -0.031545784 -0.046646062 -0.019672524 -0.042627048 0.0007606574 -0.015083042 0.0314867
-0.00478823 -0.0025823337 -0.03082324 -0.03571182 -0.06343418 0.058502596 0.019053666 0.0092130285
-0.0539466 -0.02345195 -0.009872671 0.03474136 -0.034443766 -0.050553326 0.0061220406 -0.0062285336
-0.02227737 -0.10827319 -0.061219126 -0.03681288 -0.021097245 -0.02034821 -0.06616203 -0.061848156
0.025737232 -0.05681176 0.04838113 0.047779102 -0.06298964 -0.018827874 -0.007377505 -0.027848994
0.0070382883 -0.053814527 -0.06028752 -0.008571976 0.05846345 -0.042093012 -0.05631566 0.05102754
0.025670499 -0.04307741 -0.035177708 -0.10473758 -0.026526134 -0.017386038 -0.017996445 -0.041261297
-0.008447604 0.0042522503 0.024561202 0.0043498995 -0.033117454 -0.11580402 0.03429886 -0.067480035
0.02974813 -0.08589338 -0.10345986 -0.05785613 -0.08215242 -0.048524756 -0.054095846 -0.039999012
0.01601937 -0.028658831 -0.014062856 -0.072167695 -0.021504475 0.0049042115 0.017955987 0.038271256
-0.05568463 -0.030746901 0.0265448 -0.030020932 -0.0203791 -0.03611102 -0.06530458 -0.07915907
-0.020801876 -0.008694596 -0.032714885 -0.10005559 0.0017486293 -0.039227687 0.011088036 -0.012945351
-0.004814672 -0.016351016 0.012457794 -0.009839285 -0.0023507706 0.019921215 0.016805775 0.0121734645
-0.04463646 0.028266724 -0.07356552 0.016819248 -0.020235863 0.03807958 -0.05463747 -0.01769843
0.01494169 -0.01800901 0.06789012 0.0671276 0.06760675 -0.0016732916 -0.04601827 0.03953447

layers_f.initial_layer.bias f4 [10]
00000000: 24be 9a3d 607e a2bd 1c41 0a3e 72ba c2bd
00000010: 89d5 0d3d 7d60 ca3d 7079 ba3c a4fe c83c
00000020: bd31 20bc 7b38 83bd
0.07555798 -0.0793426 0.135014 -0.09508218 0.03462747 0.09881685 0.022762984 0.024535485
-0.0097774835 -0.06407257

layers_f.blocks.0.batch_norm_layers.0.weight f4 [10]
00000000: a3f5 843f 4a76 853f 450f 773f 2b39 8c3f
00000010: 1c93 823f 4227 793f 39ac 8c3f 1400 833f
00000020: 92ce 733f 8d74 643f
1.0387462 1.0426724 0.96507674 1.0954946 1.0201144 0.9732553 1.0990058 1.0234399
0.95237076 0.8924034

layers_f.blocks.0.batch_norm_layers.0.bias f4 [10]
00000000: 73b5 ad3d 3520 44bc 3d15 8c3d 0479 25bd
00000010: 738f c2bd 3b52 b83d 55ca 103e a785 ff3d
00000020: 24a6 f13d 04b9 36be
0.08481874 -0.011970569 0.068399884 -0.040398613 -0.09500017 0.09000059 0.14139684 0.12476664
0.11799267 -0.17844015

layers_f.blocks.0.batch_norm_layers.0.running_mean f4 [10]
00000000: f386 56be a22c 213e ac29 33be e895 1b3e
00000010: e014 a3be e763 48be 02e5 9cbe a2a5 8bbe
00000020: f4e8 f93d 5283 88bd
-0.20949917 0.15739682 -0.17496365 0.15193903 -0.31851864 -0.1956936 -0.3064347 -0.27274805
0.122026354 -0.06665672

layers_f.blocks.0.batch_norm_layers.0.running_var f4 [10]
00000000: 8b73 3b40 6504 0340 47c9 5c40 3a4c 0d40
00000010: 882f 8f40 115c 4840 993f 7840 9eea 4c40
00000020: 8463 2c3f 3231 9e3d
2.9289272 2.0471432 3.449785 2.2077775 4.474552 3.1306193 3.8788817 3.20182
0.6733935 0.07724227

layers_f.blocks.0.batch_norm_layers.1.weight f4 [10]
00000000: 0e76 7e3f 0ab1 843f 2ee8 7b3f cab3 773f
00000010: 5560 6f3f 783e 953f 7db0 853f 8d6e 8b3f
00000020: bcb8 793f 4448 6d3f
0.9939889 1.0366528 0.98401153 0.9675871 0.93506366 1.1659689 1.0444485 1.0893112
0.9754751 0.92688394

layers_f.blocks.0.batch_norm_layers.1.bias f4 [10]
00000000: b750 e3bb 520f 883c 7b1f 803c 7b97 843d
00000010: a2d8 8dbd 0957 2bbe def3 9b3c aabb da3c
00000020: 3adf 6b3b 548e b4bd
-0.006937112 0.016608868 0.015640011 0.06474205 -0.06926085 -0.1673242 0.019037183 0.026700813
0.0035991208 -0.088162094

layers_f.blocks.0.batch_norm_layers.1.running_mean f4 [10]
00000000: 39ef 6dbd 14df c8be 2f35 bdbe 80bd 15bf
00000010: ccfc bbbd 15cf 7f3e e6d2 38be 9d11 30bd
00000020: 8da8 17bd 3e1b 3cbf
-0.05808947 -0.39232695 -0.36954638 -0.5849228 -0.091790766 0.2498134 -0.18049201 -0.042985547
-0.037025977 -0.7347907

layers_f.blocks.0.batch_norm_layers.1.running_var f4 [10]
00000000: 914d 973e 0684 b33f f55f 393f 4053 b23e
00000010: 8e55 bc3d a969 b83d bc7e 183f 86bc b73c
00000020: 7ec1 b63e 252d fd3f
0.29551366 1.4024665 0.72412044 0.3482914 0.09196006 0.09004528 0.5956838 0.022428762
0.35694498 1.9779402

layers_f.blocks.0.conv_layers.0.weight f4 [10, 10, 5]
00000000: 8641 a0bb e498 3a3e f47a c83d 2c5e b93a
00000010: b2f0 eebd 3347 34be 9f72 cfbd 1115 84bc
00000020: 130d 18be f56c 043d d15a 283e c606 283e
00000030: ee73 e2bd b5aa 8cbd 0027 09bc 4cde 97bc
00000040: e10f 80bd 6576 113d 7d89 70bd 5e42 2fbd
00000050: c77a 463e ebe6 f13c 53e8 043e 2a12 183d
00000060: de21 1fbe 1c6e 04bd 658c 843d 2e2c 26bd
00000070: c384 4c3d 6655 b2bd 18b4 6fbd 0eac 3ebd
00000080: 9ff1 cfbd 735e bc3d ad0b 14be 4056 bbbc
00000090: 510b 253e 0124 f83d 28fc aa3d 8cb1 9e3c
000000a0: ca45 a8bd 3494 b6bc 07da bf3d 98f7 18bc
000000b0: 9f6f c63d 54f9 2f3d 3b27 0e3d 537c 46bd
000000c0: 555b b73d 6315 3fbd 630c a5bd a4c5 113e
000000d0: fd8a 05bc 5efd 0cbe d4f7 29be 8fbc 853d
000000e0: 847f d63c 6fbb e13d 6268 06ba 085d 9a3d
000000f0: 6272 213d 778b f6bd 3b84 bcbc 06f5 83bd
00000100: ad71 17bd bab6 963a 6070 5fbd 1f9d 3dbd
00000110: 5943 c43d a81c 31bd a2a0 d93d 2e29 513d
00000120: 6964 9a3d e0f1 57be bfda 023d 1397 7f3d
00000130: b069 14be 3bfd 29be ed5f d3bd ed47 4abe
00000140: fc8b f63d 73dc 95bd 8ef3 b4bc ddc4 5cbe
00000150: 2708 0bbe 478a 24bd 6f08 0fbe 8a2f 37be
00000160: a3c0 f5bd 9c38 1fbd 2096 423e febe 9cbd
00000170: d370 0ebd ce28 1f3e e7a0 f13d 5ccb ae3d
00000180: 40f1 d0bd fe05 a63d f4d6 713d 7f7b d13b
00000190: fd5d 3f3d ca3e 86bd 1f5a 80bc f7f5 5fbd
000001a0: 41e0 23be 0820 17be 3f1c 4d3c 14cc 99bd
000001b0: 4868 33bd 5344 2bbe 7d94 1a3e cf2e 66bd
000001c0: 67d5 e83c 4c2d b43d 3643 8cbd 0d70 cfbd
000001d0: 4fda bebc b09f 35be 1469 16be 12ad 0cbe
000001e0: be3a 34bd a803 60bd e883 2dbc 2673 6dbd
000001f0: fa77 b4bd 80c7 af3d 0df0 bf3d 4aba a2bd
00000200: 25f1 de3a dc1a 653d 43bf 193e 526e 333e
00000210: 4024 bebc 9aed cabc ad88 2a3d fa9e 443e
00000220: 6acf 173d 6a7e e0bd 0f39 12be 73d7 f13c
00000230: a7d3 04be 5ba2 29be 7324 c33d 23a8 72bd
00000240: af9b 173e 3886 963d 3d55 8b3c cc8c 97bb
00000250: 6707 843c cff2 adbc 2499 e23b d332 83bb
00000260: 899a 933c ec74 e7bc 7643 203d f932 49bb
00000270: bd06 52bd c490 19be 2465 3b3d 8523 f03d
00000280: 7f28 91bd 9954 4bbd e143 68bd 3e1e dc3d
00000290: 340d 8bbd a043 20bd aebd 4e3d ffef f5bd
000002a0: 744f a0bd 1275 273e e839 ee3d 05e5 273d
000002b0: 5fd9 523c b024 d1bd aab5 843c dbae f7bd
000002c0: 6430 e23d e841 0fbe 401e 9a3d 32b4 1bbe
000002d0: 5c31 c43d c31d edbd 9e7b 9b3d 8f4f 113d
000002e0: f046 83bd 8e1b 29bd 1ccb f1bc 0528 e73c
000002f0: 0080 0cbe f108 8c3d 1070 80bd 27ff 84be
00000300: d7e5 98be 6012 18be 359c b8bd 255c 623d
00000310: ba1d 42be 7b56 7c3d 17c0 cfbd 3778 e83c
00000320: 3c68 3abd 1595 043e a343 f93d e47c 4cbd
00000330: 8151 babd 2be7 313e e63d 163d a521 4c3d
00000340: eb67 e0bd d1b6 243c 41c4 4f3e 4954 90bd
00000350: afd4 bfbd bc7a 63be 7362 5dbe dd84 333d
00000360: dd39 09be 2059 1bbc a3c8 0f3e c841 89bc
00000370: 696f 74bc 1888 3d3e ed1f 0b3e 7329 63bb
00000380: 26f1 26be d777 9c3c 0c76 cdbb ddbd b73c
00000390: e36f 2fbe e87d 92bd d7db 663e 3022 c53d
000003a0: eafb 0a3e 23db 0bbe a33b 2cbe d50b 433d
000003b0: b990 483d d25b 90bd f049 a1bb a607 90bd
000003c0: 694f 31bd 903f 033e a659 a43d 3d1a eebd
000003d0: f7a6 cbbc 31f5 053e 4b25 183e 29b0 98bc
000003e0: f86b b7bd ef41 dfbd d0b6 60be 3c89 be3c
000003f0: e3ef 1e3c e382 3b3d b8ef 283e 35e5 0cbe
-0.0048906235 0.18222386 0.097890764 0.0014142445 -0.11667003 -0.17605285 -0.10129284 -0.016123326
-0.14848737 0.032330472 0.16440894 0.16408834 -0.11057268 -0.06868497 -0.008371115 -0.018538617
-0.06253029 0.0355133 -0.05872487 -0.042787902 0.19382773 0.029529056 0.1297925 0.037126698
-0.15540263 -0.03233157 0.06472091 -0.040569477 0.0499313 -0.08707695 -0.05852136 -0.046550803
-0.101535074 0.09197702 -0.14457579 -0.022868276 0.16117598 0.12116242 0.08348876 0.01937177
-0.08216436 -0.022287466 0.09367757 -0.009336375 0.09689259 0.042962387 0.03470538 -0.04845841
0.08952967 -0.046651255 -0.08059003 0.1423555 -0.008150813 -0.13768527 -0.16598445 0.06530105
0.026183851 0.11022078 -0.00051272486 0.075372756 0.039415725 -0.120383196 -0.023012271 -0.06443219
-0.036973644 0.0011498549 -0.05455053 -0.04629242 0.09583158 -0.04324022 0.106263414 0.051064663
0.07538683 -0.21088362 0.031946894 0.062399935 -0.14493442 -0.16600506 -0.10321031 -0.19754
0.12038419 -0.07317438 -0.022088792 -0.21559472 -0.13577329 -0.040170934 -0.13968061 -0.17889228
-0.11999633 -0.038872346 0.1900258 -0.07653616 -0.034775566 0.1554291 0.11798268 0.085348815
-0.10202265 0.08106612 0.059042886 0.0063928957 0.046720494 -0.06554945 -0.015667973 -0.05467793
-0.16003515 -0.14758313 0.012518941 -0.07509628 -0.043800622 -0.16725282 0.15095706 -0.056196984
0.02842207 0.08797702 -0.06848757 -0.10128794 -0.023297457 -0.17736697 -0.14688522 -0.13737896
-0.044001333 -0.054690987 -0.010590531 -0.057971142 -0.08811946 0.085829735 0.09371958 -0.07945688
0.0017009123 0.05593382 0.15014367 0.17522553 -0.023210645 -0.0247715 0.04163425 0.1920127
0.03706304 -0.109616116 -0.14279579 0.02952168 -0.12971364 -0.1656584 0.095284365 -0.05924238
0.14805482 0.07349819 0.017008418 -0.0046249386 0.016116811 -0.021233944 0.0069152284 -0.0040038615
0.018018024 -0.028253995 0.039126836 -0.0030700548 -0.051275957 -0.1499663 0.045750752 0.11725525
-0.07087802 -0.049641225 -0.05670536 0.10747956 -0.06789628 -0.039126992 0.05047386 -0.12008666
-0.078276545 0.16353253 0.116321385 0.040989894 0.012869208 -0.10212076 0.016199905 -0.12093898
0.11044386 -0.13989985 0.07525301 -0.15205458 0.09579727 -0.11577942 0.075919375 0.035476264
-0.06410015 -0.041286044 -0.029515795 0.028217325 -0.13720703 0.06837643 -0.06271374 -0.25975916
-0.29862854 -0.1485076 -0.09014169 0.055263657 -0.18956652 0.06160591 -0.1014406 0.028377635
-0.045509562 0.12947495 0.12171104 -0.049923792 -0.09097577 0.1737334 0.036680125 0.049836773
-0.10957321 0.010053352 0.20289709 -0.07047326 -0.09366738 -0.22214788 -0.21619587 0.04382788
-0.1340098 -0.009481698 0.1404138 -0.016755 -0.01491914 0.18508947 0.13586397 -0.0034662157
-0.16302928 0.019100113 -0.006270176 0.022429401 -0.17132525 -0.07152921 0.225448 0.096256614
0.1357266 -0.13657813 -0.16819625 0.047618706 0.048966143 -0.07048763 -0.004922144 -0.07032709
-0.043288622 0.12817216 0.080249116 -0.11626098 -0.024859888 0.13081814 0.14857976 -0.018638687
-0.0895614 -0.10901248 -0.21944737 0.023258798 0.009700748 0.04577912 0.16497695 -0.1375931

layers_f.blocks.0.conv_layers.0.bias f4 [10]
00000000: 1610 ddbd ddf8 fe3d 9666 90bd 27b3 68bd
00000010: 0eb1 85bd 8298 edb9 527b b03d fd45 9abd
00000020: 7d99 e23d 8190 a53c
-0.10794084 0.12449811 -0.07050817 -0.056811478 -0.06527911 -0.0004531779 0.086172715 -0.075328805
0.11064432 0.020210506

layers_f.blocks.0.conv_layers.1.weight f4 [10, 10, 5]
00000000: 76c5 053d 6540 b53c 042d 513c 0f5c 3e3b
00000010: b459 18bc 1202 113d 76a1 f43c 4904 db3c
00000020: 78ee 013d 7eca 093d 84da 923c 7c6d 823c
00000030: 299b 623c c2c2 8b3b 9b77 ce3a 37ec 2f3b
00000040: 16b8 b23b 50bd 1f3c f000 0b3c f760 003c
00000050: 1b97 413d 441c 203d 918c 213d 81b7 a23c
00000060: d951 843c 0c21 89bd 0974 a4bd 2e92 c1bd
00000070: f8b4 cebd 6f06 d5bd 8e53 473d 6948 273d
00000080: db5f 1a3d bede 0c3d b1e2 dc3c 2427 a53d
00000090: 1522 923d 6333 4d3d 7e74 5c3d 2053 593d
000000a0: 33f0 9f3c 4827 513c e301 333c e5ce 0abb
000000b0: 5c93 f9bb 89b9 273d d94b 043d 38ff d33c
000000c0: d105 dc3c 4266 ca3c fccf 08bd 5f70 c2bc
000000d0: e17e 4cbc fd61 2fbb 6689 233c ee46 12bd
000000e0: b8ba fdbc 6014 e0bc d98b 04bd 356e 05bd
000000f0: 15a5 94bc cc2b 6ebc fa26 72bc dbb7 8dbb
00000100: 5fa0 fdba 14e0 59bb faf6 bbbb 2437 1abc
00000110: a8a3 1ebc 042c 05bc c8a3 46bd eb40 20bd
00000120: 7029 1dbd 47e6 a6bc cf03 89bc 8cbc 8a3d
00000130: 8be8 a93d 51ef c73d b6fc d13d 9330 da3d
00000140: 99a6 48bd 9071 2bbd f0f2 1dbd 4f06 15bd
00000150: f8f4 cfbc 9d88 a7bd c93c 94bd 6fb5 47bd
00000160: 236e 5bbd 6176 54bd d04c a7bc 90d6 6fbc
00000170: 209e 40bc c641 263a 20f3 0e3c 7cdc 2cbd
00000180: 587c 08bd 54fc dabc b1f9 e2bc 0808 d7bc
00000190: ae1b 033d 54a4 b63c 1d6c 583c 6b46 693b
000001a0: b15c 29bc cd69 0b3d 5ee3 fd3c a70a e03c
000001b0: bc74 053d f35d 073d d2ce 8c3c 63b9 7b3c
000001c0: 1a1b 7a3c 9542 813b d265 f83a 2981 603b
000001d0: 39f4 cb3b 3ee5 0c3c bef3 1f3c 507a 163c
000001e0: 31b1 433d c055 243d a07b 203d 1f85 983c
000001f0: 6d68 6d3c bd08 88bd 8ebd a3bd 7546 c3bd
00000200: fb37 cdbd ead0 d3bd fd73 483d 18b5 273d
00000210: 2182 203d f90b 103d e182 d93c acec a83d
00000220: 2f6c 953d e42f 4e3d fc84 5e3d dbb9 5c3d
00000230: bb07 9e3c 3796 4b3c c85a 353c a8d1 04bb
00000240: d341 02bc 9741 2b3d 4f87 023d 717a cf3c
00000250: 15e4 dd3c b46e d03c 3b43 07bd bf94 bdbc
00000260: 3759 3cbc c561 12bb c752 2f3c f200 0fbd
00000270: 5eb0 f5bc d348 ddbc 004c 03bd 4925 07bd
00000280: a7e3 86bc be54 7fbc 6e7b 7bbc ac83 17bb
00000290: 01d4 6fba 0c3d 61bb 7e08 c5bb 580f 06bc
000002a0: e29b 07bc f8bc 05bc 5ceb 40bd a7ed 27bd
000002b0: 685d 20bd 2a13 9dbc 148f 7cbc b898 893d
000002c0: 5a3b a53d 2fd2 c33d 1d93 cf3d 00e9 d93d
000002d0: 2bc4 4dbd 956d 28bd 429c 1fbd 4754 13bd
000002e0: 50b8 dabc bf1e a7bd 001b 95bd 6ad4 4dbd
000002f0: b212 5cbd 958e 59bd 48bc a3bc 0d9d 59bc
00000300: dbca 2ebc 3d00 983a d423 0f3c cfd8 26bd
00000310: f99c 04bd 4cd2 d0bc 2b6f eebc 4ca7 d3bc
00000320: 69ec 063d 2a9f b33c 59ad 423c 0ba0 393b
00000330: f8ca 26bc 3b45 123d 26b1 fd3c 9d23 e73c
00000340: c558 083d 8be6 063d e398 903c 9995 7a3c
00000350: d242 7c3c cc33 553b 6a3d 393b 5592 313b
00000360: 207d c33b 4fac 0a3c d208 073c 0f3f 073c
00000370: 8c16 453d 9c58 253d 871d 1d3d b8fd aa3c
00000380: 16e2 883c 6639 87bd 0724 a6bd e4c2 c3bd
00000390: 0cdc ccbd 0b9a d9bd 494a 4f3d 5cf3 293d
000003a0: 9233 1e3d a71c 0f3d fbf0 d73c 112b a63d
000003b0: a316 923d 45cc 4c3d 46fa 583d 9d66 5c3d
000003c0: 4f7e a43c 441b 663c 6144 443c 001a 40ba
000003d0: 7253 e1bb 3af4 2d3d 5ed1 063d e336 d03c
000003e0: fbc2 e63c 44fc d63c 7ba6 083d fdb0 bb3c
000003f0: b6a7 403c e1e7 173b 97a6 1ebc 44e3 0b3d
0.032659017 0.022125432 0.01276708 0.002904657 -0.009298731 0.035402365 0.029862147 0.026735442
0.031721562 0.033640377 0.017926462 0.015921347 0.013830938 0.0042651603 0.0015752198 0.0026843676
0.0054540737 0.009749725 0.00848411 0.007835618 0.047263246 0.039089456 0.039440695 0.019862892
0.01615231 -0.06695756 -0.080299444 -0.0945171 -0.10093111 -0.10401618 0.04866367 0.04084054
0.03768907 0.03439211 0.026963564 0.08064106 0.07135407 0.050097834 0.053822033 0.05305779
0.019523716 0.012765713 0.010925743 -0.0021180448 -0.0076164436 0.040948424 0.032298896 0.025878534
0.026858242 0.024706963 -0.033401474 -0.023735223 -0.012481422 -0.0026761286 0.009981489 -0.035712175
-0.030972824 -0.027353466 -0.03235993 -0.032575805 -0.018145123 -0.014536809 -0.014779801 -0.004324896
-0.0019350162 -0.0033245133 -0.005736229 -0.009412561 -0.009682573 -0.00812817 -0.048496038 -0.03912441
-0.038369596 -0.020373477 -0.016725449 0.06774244 0.08296307 0.09762443 0.10253279 0.10653796
-0.048987005 -0.04185635 -0.03856176 -0.03638297 -0.025385365 -0.08180354 -0.07238156 -0.048757013
-0.05357183 -0.051870707 -0.02042237 -0.014638558 -0.01175645 0.00063421985 0.008724958 -0.042202458
-0.03332171 -0.026731648 -0.027706953 -0.026248947 0.03200882 0.022295155 0.01320937 0.003559495
-0.010337041 0.034036446 0.030992206 0.02734883 0.03258203 0.03304858 0.017188463 0.015364024
0.015265251 0.003944705 0.0018951243 0.0034256673 0.006224182 0.0085995775 0.0097627025 0.009184435
0.047776405 0.04012084 0.039180398 0.018618165 0.014490229 -0.06642292 -0.07995139 -0.09534923
-0.10020443 -0.103425816 0.04893874 0.04094419 0.0391866 0.035167668 0.026551666 0.082482666
0.07296025 0.05033864 0.054326043 0.053888183 0.019290796 0.012425951 0.011069007 -0.0020266566
-0.007950264 0.0418106 0.03186732 0.02532694 0.027086297 0.025443412 -0.0330231 -0.023142217
-0.01149588 -0.0022336107 0.010700888 -0.03491301 -0.029991325 -0.027012264 -0.0320549 -0.032994542
-0.016465975 -0.015584169 -0.015349252 -0.0023119254 -0.00091487175 -0.0034368662 -0.0060129752 -0.008182369
-0.008276911 -0.008162729 -0.047099456 -0.040998127 -0.03915158 -0.019174177 -0.015414972 0.06718582
0.08067961 0.09561574 0.101354815 0.10640144 -0.05023591 -0.04112013 -0.03896738 -0.035969045
-0.026699215 -0.08160161 -0.072805405 -0.050251402 -0.053728767 -0.053114492 -0.01998724 -0.013282073
-0.010668482 0.0011596751 0.008736569 -0.04073411 -0.032376263 -0.025490902 -0.029105743 -0.02583661
0.032940302 0.021926481 0.01188215 0.0028324153 -0.010180227 0.035710555 0.03096826 0.028215224
0.033287782 0.032934707 0.017651027 0.015294456 0.015396791 0.0032532094 0.0028265365 0.0027095277
0.005965844 0.008463933 0.008241849 0.00825478 0.048117206 0.040367708 0.038358238 0.020872936
0.016709369 -0.06602745 -0.081123404 -0.09558657 -0.10002908 -0.106250845 0.050607953 0.04149185
0.0386234 0.034939434 0.026360026 0.08113683 0.07133224 0.049999494 0.052973054 0.053808797
0.02007976 0.014044587 0.011979193 -0.0007328093 -0.0068764025 0.04246924 0.03291451 0.025416797
0.028169146 0.026243336 0.033361893 0.022911543 0.011758735 0.0023178982 -0.009683273 0.034152284

layers_f.blocks.0.conv_layers.1.bias f4 [10]
00000000: 722c 963d c0b0 99bd 521b 943d 58b0 98bd
00000010: 762c 963d 3a42 973d 2637 983d 7d7c 943d
00000020: 3976 91bd 9932 90bd
0.07332696 -0.075044155 0.072317734 -0.0745551 0.07332699 0.073856786 0.07432394 0.07250307
-0.07102627 -0.07040901

layers_f.final_layer.weight f4 [1, 10, 1]
00000000: fd82 803e 80a1 4fbe abe5 863e 71fb 8bbe
00000010: 923c 833e 539b 4e3e 39cc 663e c175 a13e
00000020: 68c4 6abe c0e0 43be
0.25099936 -0.20276451 0.26347098 -0.27340272 0.2563215 0.20176439 0.22538842 0.31535152
-0.22926486 -0.19128704

contraction_layer.weight f4 [3, 200]
00000000: 0aca b13e 8926 663e 3176 1e3e fbcb 5f3e
00000010: e341 2d3e ce68 143e 8190 d23d 752a 0f3d
00000020: 6c1a 9b3d 192d 813d b29a 59bb 625d a53d
00000030: c7b4 d03d 88af 823d f16b ab3d b6f7 8c3d
00000040: 53cc d93d bf8b 953c c3ef 5ebc 6af5 d03d
00000050: f857 d23d 1f6e 983b 22f5 1a3d f228 1ebd
00000060: 8427 213d 797d 4c3d 86eb dcbc c407 e1bc
00000070: 09c0 383d c558 503d 668e cb3d 1913 7a3d
00000080: c0be 953c 3f59 103e 15e4 993d 7d6f 8d3d
00000090: 0c39 64bc 8235 b43c cc97 b2bc 946b 72bd
000000a0: 9ed8 3e3d 0239 23bc 5a88 49bd 7957 373d
000000b0: fa2b 4bbd 4c53 1bbd 9d9a 0c3d e3e3 6c3d
000000c0: d017 e5bc 148f 483d 3aaf a13b 449d a03d
000000d0: 0940 9a3d b568 053c 9a96 b03d 33b8 463c
000000e0: ec67 b7bc f40d 9e3d 8b10 be3c 6130 8a3c
000000f0: 7a33 f23b de54 6b3c 0743 35bd 3540 f2bc
00000100: 54c5 483d cda1 9539 9c97 283d c089 963d
00000110: 7f8a 763d cecb 4f3d f23b 2c3d 2635 dc3c
00000120: 4061 393d c050 0abc 33d1 e93c 7c6e 823d
00000130: 843b 923d ede2 283b 463e 883d cdee 7d3d
00000140: f91d 5abd a4fa b73c 426b 993d aabd c83c
00000150: 9374 623c 8d27 13bd f427 babc adee a03c
00000160: 18d0 533d 6be9 abbc 132b 073d cbc9 343d
00000170: f570 ea3b b395 7f3c f2b7 053e 2382 c63c
00000180: 227f 093e 9654 963d b04f ca3d ddbd 393c
00000190: 8b2a a73d dc72 f23c 48f3 5c3d de39 4c3c
000001a0: d502 3c3d d887 f23b 461f 6a3d 4263 cb3d
000001b0: e66d 7fbc 2efe 8a3d af20 4d3d 7009 9b3d
000001c0: d25f 1d3d 938c b23c f606 22bc 3b09 c83d
000001d0: 7df4 693d e3e2 3e3d fecd e6bb 3aef ef3c
000001e0: 8b64 eb3c dbab 563d e18d 243d 226c c9bc
000001f0: 3fa1 2abd e09d d73c a616 3b3c c1d6 edbb
00000200: 1d62 9b3d ed71 f03b 1d7e 22bd b919 39bd
00000210: 359e 6d3d 58cb 973d 3483 3c3d 6c63 acbc
00000220: 6b60 c93c 6d28 783d e0b3 013b fc17 17bd
00000230: f25c f83c 0c86 903d 66b9 133d aac0 883d
00000240: dbb9 803c fd68 1a3c f94e d23c 6821 bcbc
00000250: 1b5d 9d3c 3843 6cbd 6016 80bd d7a7 5bbc
00000260: 4530 8bbd 9b26 0bbc fed0 013d 9676 06bd
00000270: fe83 91bc 31f0 89bd a472 5d3d 0bc1 7fbd
00000280: 941c 443d da97 e8bc 8e34 3d3a ddea df3c
00000290: 3863 3ebd 7f3d 38bd ce5e a9bd 6861 b93c
000002a0: 5f0b b5bb d8fe 7cbd 5b79 f13b b5a3 89bd
000002b0: 9dad 4eba 6ec7 9ebd 34d7 81bd 17fd da3c
000002c0: ae76 17bc fa44 90bc f9c0 bcbc 5f99 9ebd
000002d0: 0e99 53bb fef5 8f3c 2408 143a e54b 9cbd
000002e0: 63bb 2b3d 6f0e 41bd b10e 3fbd 7961 44bc
000002f0: 959c 80bd 8cae 76bc e7fb c5bd 3cbf d13b
00000300: a11c 41bd e85d 41bd 4a1b 9b3b ff1c 26bd
00000310: 88e7 88bd 8704 a1bd 994a 88bd d035 ddbd
00000320: ae84 053e 4b1a 1f3e 588a eb3c 1e06 ec3b
00000330: a730 b23d 1fb6 c7bc ed3c 7d3c f0a0 cfbc
00000340: 1db2 b53d e765 963d 9ab0 8c3d e575 e7bc
00000350: 0359 7fbb 423c 143d 5e1b 0fbd edeb c03c
00000360: e254 933d 6d88 943d efc7 3d3d ebd1 79bd
00000370: 6134 963d 308c 9d3b 0c77 69bd 5edb 4abc
00000380: 592f 10bd 3e43 103d 8e62 67bd 8fdd 19bc
00000390: e180 7b3d c690 833d 2062 04bd ebf8 0bbc
000003a0: be29 893d d56c 9b3d 4b09 a03a 8eb0 f9bc
000003b0: 3865 d73c 0b26 883b c827 27bc 05fc 8f3c
000003c0: e252 68bc 3a59 f63c a581 a5bb d909 6c3c
000003d0: e980 9cba f8ba 5e3d 9420 acbc e45c 1d3d
000003e0: 17c8 2abd 330f 9abc 13c0 733d 997d 973d
000003f0: 88c6 d5bc b79e dc3c d760 253b ab9a 2c3d
0.34724456 0.22475637 0.15474774 0.21855156 0.16919665 0.14493105 0.10281468 0.0349526
0.07573399 0.0630743 -0.0033203778 0.08074452 0.101907305 0.06381136 0.083701976 0.068831846
0.10634675 0.018255113 -0.013606968 0.10203059 0.10270685 0.0046517993 0.037831433 -0.038613267
0.039344326 0.049924348 -0.026967775 -0.027469523 0.045105014 0.050865907 0.0993927 0.06105337
0.018279433 0.14096545 0.07514206 0.0690603 -0.013929617 0.02199817 -0.021800898 -0.059184626
0.0465933 -0.009962322 -0.0492023 0.044761155 -0.049602486 -0.037921235 0.03432714 0.057834517
-0.027965456 0.048964575 0.0049342187 0.07842496 0.07531745 0.00814264 0.08622475 0.012128877
-0.022388421 0.07717505 0.023201248 0.016868772 0.0073913904 0.014363496 -0.044253375 -0.029571632
0.04901631 0.00028540046 0.04116021 0.073504925 0.060190674 0.050731473 0.042049356 0.026880812
0.04525876 -0.008442104 0.028542137 0.063687295 0.07140258 0.0025770024 0.06652503 0.061995316
-0.05325124 0.022458382 0.07491161 0.024504501 0.013821739 -0.03592639 -0.02272413 0.01964506
0.051712126 -0.020985326 0.033000063 0.044137757 0.007154579 0.015599656 0.13058451 0.024231976
0.13427404 0.07340352 0.098784804 0.011336771 0.08162411 0.029595785 0.05394295 0.0124649685
0.04590114 0.0074014477 0.05715873 0.09931041 -0.015590167 0.06786762 0.050079998 0.075701594
0.03842146 0.021795547 -0.009889355 0.097673856 0.057117928 0.046603095 -0.007043599 0.029288877
0.028734466 0.052409988 0.04017437 -0.024587695 -0.041657683 0.026320398 0.011418974 -0.0072582667
0.07587073 0.0073377998 -0.039671052 -0.045190547 0.058012206 0.074118316 0.046023563 -0.021043502
0.024582108 0.060585428 0.0019791052 -0.036888108 0.030317757 0.070568174 0.03606548 0.06677373
0.015713623 0.009424445 0.025672423 -0.022965148 0.019209435 -0.057681292 -0.06254268 -0.013406715
-0.06796316 -0.008493091 0.03169345 -0.032827936 -0.017763134 -0.06735266 0.054064408 -0.06243996
0.047878817 -0.028392721 0.0007217609 0.027333671 -0.04648134 -0.044980522 -0.08270036 0.022629455
-0.005525037 -0.061766475 0.007369203 -0.06720678 -0.0007884147 -0.07752882 -0.06339875 0.02673201
-0.009244604 -0.017611016 -0.023041235 -0.07744097 -0.0032287273 0.017573353 0.0005646965 -0.07631663
0.041926753 -0.047132906 -0.04664487 -0.01198613 -0.06279866 -0.015056264 -0.09667187 0.0064009707
-0.047146443 -0.047208697 0.0047334777 -0.040554997 -0.06684786 -0.07862192 -0.066548534 -0.108012795
0.13038895 0.15537374 0.02875249 0.0072028777 0.08700686 -0.024378834 0.01545642 -0.025345296
0.08871863 0.07343655 0.068696216 -0.028254459 -0.0038962967 0.03619028 -0.03493821 0.023549998
0.071939245 0.07252584 0.04633325 -0.06099121 0.07334209 0.0048079714 -0.056998298 -0.012381403
-0.035201404 0.035220377 -0.056490473 -0.009391203 0.061402205 0.06424098 -0.03232014 -0.008543233
0.06697415 0.075891174 0.0012209801 -0.030479696 0.026293382 0.0041549257 -0.010202356 0.017576227
-0.014179917 0.030071843 -0.005050855 0.014406645 -0.0011940274 0.054377526 -0.021011628 0.038418666
-0.041694727 -0.018806076 0.059509348 0.07397003 -0.026095644 0.02693115 0.0025234723 0.04213969

contraction_layer.bias f4 [3]
00000000: df9a 743c 742b ee3d c774 b3bd
0.014929502 0.11629382 -0.08762508

expander_layer.weight f4 [20, 3]
00000000: da15 24be 1f08 5abe 036b 2c3e 7e49 ca3d
00000010: 9225 e43e 505a 0f3f c7c7 5a3d 3d68 32be
00000020: f041 0c3f 6d37 b13e 1cbf 2ebe f727 bd3e
00000030: 884e d4bd 0213 173f 7111 a83e e257 d2be
00000040: d0ae bb3d 2a0b 5cbe 1c63 8f3e 6c65 0f3f
00000050: dc91 82be 41e1 083f e915 123e 7bdc 6cbd
00000060: dcac 1c3f 9b94 96be 074a fb3e fb7c f7be
00000070: 0597 a9be 7410 a7be 7da8 d03e ff99 143f
00000080: a58d f5bd c816 d83e a4da 91bd 1e3f 623e
00000090: 034f e9be c5d1 8c3e 7394 00bf 74d4 2e3e
000000a0: a0c6 01bf 0c8b fbbe ed42 1abe a454 563e
000000b0: e29c 19bf 220c 023f 7e88 223e 4b12 ec3e
000000c0: 96b0 cf3e 67bd 9dbe 8ffb c3be 8e04 253e
000000d0: f51f eaba b003 b73c 0593 6fbe 10e5 cb3e
000000e0: 6294 2abf dc85 6ebe 2446 bebd 95fd 10bf
-0.1602396 -0.2129216 0.16837697 0.09877299 0.44559914 0.5599718 0.05341318 -0.17422576
0.5478811 0.346126 -0.1706509 0.36944553 -0.10366541 0.5901338 0.32825807 -0.41082674
0.09164202 -0.21488634 0.28005302 0.5601413 -0.25501907 0.5346871 0.1426617 -0.057827454
0.6120126 -0.29410252 0.49079916 -0.4833754 -0.3312303 -0.3262974 0.40753546 0.5804748
-0.11989907 0.4220488 -0.071217805 0.2209439 -0.45568094 0.2750379 -0.50226516 0.17073232
-0.506937 -0.49129522 -0.15064593 0.20930725 -0.6000501 0.50799763 0.1587238 0.46107706
0.40564412 -0.30808565 -0.3827786 0.16115019 -0.0017862307 0.022340626 -0.23395927 0.39823198
-0.66632664 -0.23293251 -0.09290722 -0.56636935

expander_layer.bias f4 [20]
00000000: 6a1b de3e 0ace 08bf d9c7 693e 6da0 92be
00000010: 7fa0 3c3e 1b35 dd3e 08c1 4ebe f7c4 8a3e
00000020: 9dcc ba3e 258b 37bc 6753 44bd 540c 643e
00000030: 1fb4 a03e 5084 4abe 943b 3cbe 7dab 573e
00000040: 1be9 91be 5760 753d 5580 e0be 147b cc3c
0.4338029 -0.5343939 0.22830142 -0.2863802 0.184206 0.4320458 -0.20190823 0.27103397
0.36484233 -0.011202608 -0.0479311 0.22270328 0.3138742 -0.19777036 -0.18382102 0.21061511
-0.28498158 0.05990633 -0.4384791 0.024961032

layers_h.0.weight f4 [20, 20]
00000000: a955 3c3e 0c82 763e 8536 83bd 24d0 1a3e
00000010: e007 b5bd 8929 25be ac69 103d db2f a73e
00000020: 2f9d 8a3e 105d 13be d577 a53e e4b9 193e
00000030: e368 05be f4c5 493d 3524 37be bdb1 da3c
00000040: 809f 08be 2550 943d 31f7 9bbc 368f 77bd
00000050: 6b54 a5be 3c77 5abe e0dd 833d 186a e7bd
00000060: 2282 c9bc 1619 4b3e 9107 61be 963f 3ebe
00000070: c9cd 13be 2a17 223e 5f25 a43c 4bfe a5bd
00000080: 5e98 193e e01b 853d f98c 253e bb1a 70bd
00000090: 44a4 803e 0639 4fbd 7b81 1d3e b08e 71bd
000000a0: c716 073e be5a 03be ede3 15be 8b8e eabd
000000b0: e091 8ebe 9a14 2ebd 9454 5fbd b3a0 4fbe
000000c0: 9d88 8ebe 26a4 a43d 5230 1bbe 957d 98bd
000000d0: 7f9e 163e f696 0abe cb0b 9b3e 1a67 55be
000000e0: 9237 823d 50e8 16be 3925 00be db20 133e
000000f0: 1e87 203d 9844 33be 3e34 f43d 20e6 4fbe
00000100: 6621 c4bc 284a b8bd fb36 b7bd 541b d73d
00000110: 9079 77bd bc35 06be 14e1 313e 54a8 fd3d
00000120: bc0a 07be fab8 50bd fdca 8abd de40 393e
00000130: ac6c 2dbe 666d 2fbd ed77 3c3e 5414 09be
00000140: fb04 1ebe 8318 e4bd d753 8a3d 52c6 803d
00000150: 9d5b 2fbd 6044 ff3b 37ca 273e df71 723e
00000160: cc1e 0d3d 75d7 febd 3645 253e ee6d 363e
00000170: ed21 1cbe dc84 81bd 9b99 05bc e4a6 393e
00000180: 41b7 4fbe 5e9a 863e 671a f7bd eef6 23be
00000190: 8dce a0bd dab1 7b3c c45e 24be b197 3f3e
000001a0: b291 173e bf9e 8cbe 788a 3b3c 9f10 cbbd
000001b0: f143 8e3e 27f5 57be 5c1c 533e b85f 3fbc
000001c0: 5b1b adbd df1f e2bd fa83 743d 8ccb 463e
000001d0: 7379 cd3c d079 553e 4423 9cbc 5265 5ebe
000001e0: c8d7 663d 5cc3 1f3e 4fa9 f23d 73ae 693e
000001f0: e62a 643e c4e3 3bbe d01c 873e 3e4e 0f3e
00000200: 2b8e e5bd 33c1 b5bd b658 7d3e 1256 fd3d
00000210: 5d59 dbbd 985c 5abe ba31 9d3d e977 fc3d
00000220: cf98 8e3c 41c6 6f3e 3670 433d 60bc 483d
00000230: bff4 493e a4c4 c83d c1f8 9f3b 3dcd b53c
00000240: 1848 943d 7216 aabc 706a 013e 44c3 a53d
00000250: a5e9 5c3d 3334 74be 3007 af3d 843f 3a3e
00000260: b21c 8abe e19b 39be 05dd aabd 4743 8ebd
00000270: 69fc 1fbe 79b5 fc3d 1727 85be d156 bdbd
00000280: 611c 7e3e ca6a efbd 18b9 0bbe d7a4 afbd
00000290: 9e06 81bc 241e 0a3a 9158 0abe 583d 92bd
000002a0: fe26 6d3d b21f 943d b728 e0bd f438 983c
000002b0: 5484 2e3e 4327 913d 63dd 103e c175 3fbe
000002c0: 896a 993e 6509 c43b 997e 8a3b 0226 4ebd
000002d0: 72df a0bc 7c54 c13d d195 4c3d e673 303c
000002e0: a5ac 0fbd 4a31 3abe 7d72 f3bd 2cab 6a3e
000002f0: 24e8 273e 9b42 14be dea3 843e 7e44 653e
00000300: 62e1 2f3c 57b9 07be bfc8 d2bd d18e 703e
00000310: bd97 1bbe 7039 3b3e 4e3a 82be 0743 2bbe
00000320: 0421 403d 66b8 a6b9 61b4 92bd e394 79bd
00000330: 1785 f9bd 3bad 493e 169a 88be e77a 65be
00000340: 4c12 a33d 1591 1fbd d3a2 8abe adbe 49be
00000350: f47a 36bd 459c 8b3d d42b 033d 54e6 f3bd
00000360: 5142 3b3e 540b 5dbe 90f6 083e 960a 963d
00000370: de12 37bd 563c b6bd 2ede 1bbe a23a babd
00000380: 7309 45be f2c6 813d d14a 69be da0b b9bd
00000390: bec7 24be 5e81 fabd c3c4 ad3d eb2c 97be
000003a0: 5be0 043d 1d17 5b3e 009d eebc 259c 2ebe
000003b0: a48a b3bd bbe3 03bd fefe fe3d b0ed 703d
000003c0: f318 32bd ad15 07be e6d4 4abe 7959 28bd
000003d0: b860 01bd fb79 703e cb2a ce3d 2c7d 23be
000003e0: e64e d3bd f571 c1bc cf80 78be e448 39be
000003f0: b431 933e 01eb dbbb 5104 a83c b40b 86bd
0.18392052 0.24073046 -0.06406883 0.15118462 -0.08839393 -0.16129126 0.035257027 0.32653698
0.27073047 -0.1439097 0.32317987 0.15012318 -0.13028292 0.04926105 -0.17884906 0.02669608
-0.13342094 0.07241849 -0.019038768 -0.06043931 -0.32290968 -0.21334547 0.06438804 -0.11299533
-0.024598185 0.19833788 -0.21975543 -0.18578944 -0.1443397 0.15829149 0.020037351 -0.08105143
0.1499953 0.06499457 0.16167058 -0.058619242 0.25125325 -0.05059149 0.15381424 -0.058973968
0.13192283 -0.12827584 -0.14637728 -0.11452969 -0.2784567 -0.042500116 -0.05452402 -0.20276146
-0.27838603 0.08039121 -0.15155151 -0.07445828 0.14708899 -0.1353415 0.30282435 -0.20840111
0.063582554 -0.14737058 -0.125142 0.14368002 0.039191358 -0.17506635 0.11924027 -0.2030263
-0.023941707 -0.08998519 -0.089460336 0.10503259 -0.060418665 -0.13106436 0.17371017 0.12385622
-0.13187689 -0.050957657 -0.06776998 0.18091151 -0.16935986 -0.04282894 0.18405123 -0.13386661
-0.15431587 -0.11137488 0.067542724 0.062878266 -0.04281198 0.0077901334 0.16385733 0.23676251
0.0344532 -0.12443439 0.16139683 0.17815372 -0.15247317 -0.06324169 -0.008154298 0.1813007
-0.2028475 0.26289648 -0.12065583 -0.16012165 -0.078518964 0.015362227 -0.16051775 0.1871021
0.14801672 -0.27464864 0.011446588 -0.099152796 0.2778621 -0.21089612 0.20616287 -0.011680536
-0.08452483 -0.11041235 0.059696175 0.19413584 0.025082326 0.20847249 -0.019059785 -0.21718338
0.05635813 0.15601867 0.11848699 0.22820453 0.2228199 -0.18348604 0.2638917 0.13994691
-0.11208757 -0.088747405 0.24740872 0.12369932 -0.10710404 -0.21324384 0.076755 0.123275585
0.01740685 0.23415472 0.047714435 0.049007773 0.1972227 0.09803131 0.0048819487 0.022192592
0.07240313 -0.020762656 0.12638259 0.080938846 0.05393376 -0.23848037 0.08546293 0.18188292
-0.26975018 -0.1812587 -0.083429374 -0.06946426 -0.1562363 0.12339301 -0.26006386 -0.092450745
0.24815513 -0.1169029 -0.13644826 -0.085763626 -0.015750226 0.00052687735 -0.13510348 -0.07140607
0.057898514 0.07232608 -0.10945266 0.018581845 0.17042667 0.07087567 0.14146952 -0.18697263
0.29964092 0.005982565 0.0042265174 -0.050329216 -0.019637797 0.09439942 0.049947564 0.01076982
-0.035076756 -0.18182865 -0.11887071 0.2291686 0.16397148 -0.14478533 0.2590627 0.22389409
0.010734888 -0.13254295 -0.102921955 0.2349198 -0.15194602 0.1828363 -0.25435108 -0.16724788
0.046906486 -0.00031799375 -0.07163311 -0.060933005 -0.12183588 0.19694988 -0.26680058 -0.22410165
0.07962474 -0.03895672 -0.2707735 -0.19701643 -0.04455085 0.068169154 0.03202422 -0.11909166
0.18287016 -0.21586353 0.13375306 0.07326238 -0.044695728 -0.08898227 -0.15221474 -0.090932146
-0.19241886 0.06336774 -0.22782446 -0.09035464 -0.1609182 -0.12231706 0.08484795 -0.29526457
0.032440525 0.21395536 -0.029127598 -0.17051752 -0.08766678 -0.032199603 0.1245098 0.058820426
-0.043480825 -0.13191862 -0.19807777 -0.041100953 -0.03158638 0.23484032 0.10066756 -0.15965718
-0.10317783 -0.02361391 -0.24267887 -0.18094212 0.28748858 -0.0067113643 0.02050987 -0.06545201

layers_h.0.bias f4 [20]
00000000: 7c42 a6bd 3915 823e ba35 26be acd1 7e3d
00000010: 603b 6a3d 220a 363e 6294 c43d 74d1 45be
00000020: 0740 4fbe 7597 d0bd cd49 203c 8e31 bfbd
00000030: fd3d de3a 1401 d13d 1434 9f3d 44c4 4cbe
00000040: 5cdf f5bd d0d4 86bd b5d9 3bbe 9960 d03d
-0.0811815 0.25406817 -0.16231433 0.062211677 0.05718553 0.17777303 0.09598614 -0.19318181
-0.20239268 -0.10185138 0.0097832205 -0.09335624 0.001695573 0.10205284 0.07773605 -0.19996744
-0.12005493 -0.065835595 -0.18344767 0.101746745

final_layer.weight f4 [12, 20]
00000000: 8177 f23d b656 c2bd 4e22 d3bc 9fda 123c
00000010: 571f 083d 597c 4abe 0a1c f4bd bfc7 57be
00000020: 1df5 263e 6193 08be f5f6 5b3e 161e 9fbd
00000030: f8ca 783d 85f5 e13d 11d8 523e 5875 b43c
00000040: e79b e4bb f82b 333e 879f 75be 7de6 96bd
00000050: 5531 b2bd 8513 883e cdfe c53d ff03 efbd
00000060: 46c6 30be f1cd 06be d15c 51be e99e 23be
00000070: e37f 37bc 788d 073e 08d5 793e 5a93 463d
00000080: 4e86 90bc 6de6 dcbd 5c55 f5bd 6b78 6dbe
00000090: 422a dc3d 0db4 053e 512c 17be 9e22 bdbd
000000a0: c64d 4bbe 18a3 7b3e 9465 163e 3baf 073d
000000b0: 9351 223c ea9a bebc c3a5 ca3d e933 43be
000000c0: a073 583e 8d37 30be 576f 1cbd 6957 553e
000000d0: dc35 d0bd 0c1f c0bd 7078 ddbd 32a7 b1bd
000000e0: 490e 97bb 099b 683d 3a51 75be 0464 5b3d
000000f0: 0f34 713e 14c7 8b3d 911c 88bd 6c24 a1bd
00000100: 41c4 723e 9a35 823d 6d62 023e b4ea 1abe
00000110: e699 1cbe 4a06 223e ec2d 86be 31f9 19bd
00000120: cfb7 793b fdc5 063d 6b13 42be 26de 4a3d
00000130: 6d3a 5a3e 7313 ef3d 104d 493c be4c aabc
00000140: 986d 19be cc7f 26be da23 30be dadb 943d
00000150: 5f17 17be c3de 413e 7237 893e dabb b9bd
00000160: c369 02be e7f6 dcbd b94b edbc 9eaa c9bd
00000170: 9b4d 5dbe abc5 39be 80a1 35be ab56 abbd
00000180: 1c27 64bd a4cd 4bbe 05bf 753e 706e 943d
00000190: 5afa b43c 9139 b0bd 534c 31be 7ca0 643b
000001a0: aef3 643e 6cd2 1b3c 4e30 ed3c c763 5c3e
000001b0: 20e1 173d 1ab7 1c3e ce64 e83c 9069 dd3d
000001c0: 5623 d0bd 7f9d d73c 532d 1cbe 430a 1a3e
000001d0: 96f7 483c 17df f53d d702 aa3d 410a 6ebe
000001e0: 2734 4fbe 09c6 9abc fc1b ad3d fa94 bc3d
000001f0: e0eb 31bd b7cf 663d 4335 1cbc 73b3 3c3d
00000200: a80b 213e 3d6e 46bd 6579 bfbc ed0e d5bc
00000210: 76dd 773d f132 7d3e e113 fb3d d801 633d
00000220: f640 b03c 7cdf 923e 748a 90be b31a e83d
00000230: 69ec 2cbd 9459 dbbd 7b0e 0bbe 30a8 fabd
00000240: e7b7 e13d dd32 9cbd cb35 673d 8f9c 093e
00000250: 9de7 88bd f644 013e bbf6 76be 53dc 14be
00000260: 9a8d 143e 93ae f2bd 70bb be3d 7976 633e
00000270: 043a 233e b669 02be 93e4 0fbe 4bcb 6ebe
00000280: 62c9 333e 6933 823e d1b1 1d3e 98db f43d
00000290: 4b55 cbbd 9105 0f3e ac8b 79be 4e32 92bd
000002a0: 28a8 753d e20f 5abe 9dae b43d 6e1f 7dbc
000002b0: a91b e33c 9139 e63d f049 823e 4984 1dbe
000002c0: c0e3 133e b2bb 41bd c818 2f3c 97a5 7a3e
000002d0: f153 bb3c 076e febd bb44 5d3e 16cd 363d
000002e0: 99fb 6d3d 64a4 ce3c e52b 22be a257 2d3d
000002f0: c85c 913d 8959 86be c419 483e c7d6 0ebd
00000300: b56a 703e 1be4 e5bd 662a 5e3d f208 59bd
00000310: 101a 67be 1d82 76bb 43f5 36be 287b 363e
00000320: c400 763e 398f 32be 9eb0 1e3d 3b3a aebc
00000330: 3800 0d3e b29d 2a3d 01d6 f7bd 944d 523e
00000340: 8645 febd 96c5 ff3d c1a3 65be 1915 f9bd
00000350: 677d 2eba 4793 c53d e511 12bd 62f4 533e
00000360: 61c7 ecbc d324 bebd e64a d1bd 00f3 16bd
00000370: 0c6a 75be 1d8a 7ebd 3400 303e 4bc6 3cbc
00000380: f4d8 233d e2b2 293e 4b40 45bd 06db 45be
00000390: 1c87 023e 4605 1ebe 8fd7 6c3e 4253 573e
000003a0: 6773 40be 9351 203e 7900 333d 8e38 90bd
000003b0: de55 70be 7092 fcbc e39b a83d b3a5 a53d
0.118392 -0.09489195 -0.025773194 0.008963256 0.033233013 -0.19773997 -0.119194105 -0.21072291
0.16304441 -0.1333747 0.21480925 -0.0776941 0.06074044 0.11033157 0.20590235 0.02202861
-0.006976593 0.17497241 -0.23986636 -0.07368181 -0.087008156 0.26577392 0.0966774 -0.11670684
-0.17263135 -0.13164498 -0.20445563 -0.15978588 -0.011199924 0.1323756 0.24397671 0.04848037
-0.017642166 -0.10786138 -0.11979172 -0.23190467 0.107502475 0.13056965 -0.14762999 -0.09235118
-0.19853887 0.24573934 0.14687186 0.033126097 0.009907144 -0.023267228 0.09894898 -0.19062771
0.21137857 -0.17208691 -0.03819212 0.20834126 -0.10166523 -0.09380922 -0.10813987 -0.08674468
-0.004609857 0.056788478 -0.23956767 0.05356218 0.23555015 0.068250805 -0.066460736 -0.07868275
0.23707677 0.0635788 0.12732859 -0.15128595 -0.15293083 0.15822712 -0.2620691 -0.037591163
0.0038103943 0.03290366 -0.1895272 0.049528264 0.2131135 0.116736315 0.01228644 -0.020788547
-0.14983213 -0.16259688 -0.17201176 0.07268496 -0.14755009 0.18932633 0.26800114 -0.09069033
-0.12735657 -0.107892804 -0.028966771 -0.09846996 -0.21611635 -0.1814181 -0.17737389 -0.0836614
-0.05570136 -0.19902664 0.2399865 0.07247627 0.022092033 -0.0860473 -0.17314272 0.0034885695
0.22358581 0.009510618 0.028953698 0.21522437 0.03707993 0.15304223 0.02836838 0.1081115
-0.1016299 0.026320217 -0.15251665 0.15042977 0.01226606 0.12005442 0.08301323 -0.23246099
-0.20234738 -0.018893259 0.08452603 0.092081025 -0.04343784 0.056350436 -0.009534183 0.046069574
0.15727103 -0.048444975 -0.023373315 -0.026008094 0.060513936 0.24726464 0.12259651 0.05542168
0.02151535 0.2868613 -0.2823063 0.113332175 -0.042217646 -0.10710445 -0.13579743 -0.122391105
0.11021405 -0.07626889 0.056447785 0.13438629 -0.06684802 0.12623963 -0.24117558 -0.14537172
0.14507142 -0.11849704 0.093130946 0.22213162 0.159401 -0.12735638 -0.14052038 -0.23319738
0.1755729 0.25429848 0.15399863 0.11955947 -0.09928378 0.13966967 -0.24369687 -0.07138501
0.05997482 -0.21295121 0.08822367 -0.015449388 0.02772315 0.11241449 0.25447035 -0.15382494
0.14442348 -0.04729814 0.010687061 0.2447723 0.022867175 -0.1242333 0.2160825 0.04462918
0.05810127 0.025224872 -0.15837057 0.0423199 0.07097775 -0.26240185 0.19541079 -0.034872796
0.23478206 -0.11225148 0.054239653 -0.052987047 -0.22568536 -0.0037614175 -0.17866997 0.17820418
0.2402373 -0.17437448 0.038742654 -0.021268 0.13769615 0.041654296 -0.12101365 0.20537406
-0.12415604 0.124888584 -0.22425748 -0.12162227 -0.00066562596 0.096472315 -0.035661597 0.20698693
-0.028903665 -0.092843674 -0.10219364 -0.036852837 -0.23966235 -0.062143434 0.17187577 -0.011521886
0.040001824 0.16572145 -0.048157018 -0.19321832 0.12746853 -0.15431699 0.23129104 0.21027854
-0.18794023 0.15656118 0.043701623 -0.07042037 -0.23470256 -0.030831546 0.08232858 0.08088245

final_layer.bias f4 [12]
00000000: fbb0 1f3e b826 54be 7d8a f6bc 91a0 b43d
00000010: 61a2 72be b850 efbd f675 5bbe 1a23 2b3d
00000020: 3707 443e 6e6f f53d 115c 66bd 1438 dd3c
0.15594856 -0.20717895 -0.030095333 0.08819688 -0.23694755 -0.11685318 -0.21431717 0.041781522
0.19143377 0.11984144 -0.056240145 0.02700428
