symmetry-informed-flows/notebooks/SineGaussian/sg-with-similarity-embedding-flow-weights.neurips.pth (torch, 555819 bytes, 267 tensors)

_transform._transforms.0.autoregressive_net.initial_layer.weight f4 [20, 2]
000000 04 23 b0 3b c7 05 1f bf 79 3f 8d bd a0 3d 98 be
       0.005375268 -0.6211819 -0.06896872 -0.29734516
000010 69 10 27 3f 51 6f 2a bc a5 b4 57 3e e4 7a e6 3e
       0.65259415 -0.010402516 0.21065004 0.45015633
000020 a6 83 d4 3e 00 7e bd 3e e3 09 33 3f a8 a3 77 bd
       0.4150669 0.37010193 0.6993696 -0.06045881
000030 cc 57 76 bd 93 9d 20 3e 0d 3c 70 3e 5b 77 6e bd
       -0.060142323 0.1568511 0.23460408 -0.058219295
000040 5f c6 ad 3d 34 d7 33 3f 61 3e 98 be b8 32 0a 3f
       0.08485102 0.7025025 -0.2973509 0.5398364
000050 10 fb ea be 78 1c 55 3c 33 2f 17 bf ec 5a 07 bf
       -0.4589467 0.013007276 -0.59056395 -0.5287311
000060 d3 29 0b 3f 0a 0c ba 3e 59 ea 20 3f 57 44 a1 be
       0.54360694 0.3633731 0.62857586 -0.31497452
000070 88 90 c5 3e 9a c2 06 3f ad b1 c9 bd 6c 9a 2f 3f
       0.3858683 0.5264069 -0.09848342 0.68595004
000080 2f 4a 9f be 1e ed a5 be 5b 99 d6 38 3e 97 f2 3c
       -0.31111285 -0.3240747 0.0001023288 0.029613134
000090 79 d0 fb be 72 16 3e 3e ed 2c ec be 9e 37 ce 3e
       -0.4918249 0.1856325 -0.46128026 0.40276808

_transform._transforms.0.autoregressive_net.initial_layer.bias f4 [20]
000000 27 87 27 3f 95 f6 f2 bd a1 80 be bc fc 67 5d 3c
       0.654406 -0.11863438 -0.023254694 0.013513561
000010 2a 37 20 bf 6e 66 72 bd 86 b2 d3 bd b0 65 19 3f
       -0.62584174 -0.059179716 -0.10336785 0.5992079
000020 26 2f 0c 3d 33 9d 9c be b8 54 5f be 92 e8 ec 3e
       0.03422465 -0.30588683 -0.21809661 0.46271187
000030 8a 74 62 3e ce 6b 8b be 36 a5 2d bf 22 76 61 3e
       0.22114769 -0.27230686 -0.67830217 0.2201772
000040 b6 89 cc be f7 ae b6 b9 f2 ac ec 3d 6d 38 4a be
       -0.39948815 -0.00034844104 0.11556424 -0.19748087

_transform._transforms.0.autoregressive_net.initial_layer.mask f4 [20, 2]
000000 00 00 80 3f 00 00 00 00 00 00 80 3f 00 00 00 00
       1.0 0.0 1.0 0.0
000010 00 00 80 3f 00 00 00 00 00 00 80 3f 00 00 00 00
       1.0 0.0 1.0 0.0
000020 00 00 80 3f 00 00 00 00 00 00 80 3f 00 00 00 00
       1.0 0.0 1.0 0.0
000030 00 00 80 3f 00 00 00 00 00 00 80 3f 00 00 00 00
       1.0 0.0 1.0 0.0
000040 00 00 80 3f 00 00 00 00 00 00 80 3f 00 00 00 00
       1.0 0.0 1.0 0.0
000050 00 00 80 3f 00 00 00 00 00 00 80 3f 00 00 00 00
       1.0 0.0 1.0 0.0
000060 00 00 80 3f 00 00 00 00 00 00 80 3f 00 00 00 00
       1.0 0.0 1.0 0.0
000070 00 00 80 3f 00 00 00 00 00 00 80 3f 00 00 00 00
       1.0 0.0 1.0 0.0
000080 00 00 80 3f 00 00 00 00 00 00 80 3f 00 00 00 00
       1.0 0.0 1.0 0.0
000090 00 00 80 3f 00 00 00 00 00 00 80 3f 00 00 00 00
       1.0 0.0 1.0 0.0

_transform._transforms.0.autoregressive_net.context_layer.weight f4 [20, 3]
000000 5c 63 63 3e 50 98 35 be fa 44 91 3e 67 60 42 3e
       0.22205871 -0.17733884 0.28372937 0.18982087
000010 45 26 02 3f 2f 6a bc 3e 94 f7 c1 3e 97 e3 aa be
       0.50839645 0.36799762 0.378842 -0.33376762
000020 bc a8 04 3f 37 99 83 3e c3 5d 00 3f e5 af 69 bd
       0.5181997 0.2570283 0.5014307 -0.05705251
000030 08 2c 50 3e ab 19 d0 be 40 ab ca be 95 33 c1 3c
       0.20329297 -0.40644583 -0.39583778 0.023584167
000040 5a be 80 3e 91 8f d7 be d4 7c d9 3e 49 37 9f be
       0.25145227 -0.4210172 0.4247805 -0.31096867
000050 54 ad 0a bf a7 b4 9d 3e 46 7d ca be 6e 58 bd 3e
       -0.5417073 0.3080189 -0.395487 0.3698153
000060 20 5e c3 bd 8a 89 bf be 0e ef 0f bf 0b b5 4a 3e
       -0.09539437 -0.3740962 -0.56224144 0.19795625
000070 e4 d8 4b be 33 4f f2 3e 9b 24 02 bf 2b f5 f1 3e
       -0.19906956 0.4732605 -0.50837106 0.4725736
000080 98 d7 e6 be 5d fa 02 3f cd 83 d6 3e d9 22 b2 be
       -0.4508636 0.51163274 0.4189743 -0.34792212
000090 d4 db a0 be 3f 19 ef be 6b 0d e8 3e dc 95 78 be
       -0.31417716 -0.4669895 0.45322737 -0.24275917
0000a0 f8 75 f6 bd 6d 83 5b be d2 18 83 3e 39 8b a3 bb
       -0.120342195 -0.21436854 0.25604874 -0.004990962
0000b0 c9 f4 02 3f bd 68 a4 be b1 d4 00 bf 02 d0 ee bc
       0.5115476 -0.3211116 -0.5032454 -0.02915192
0000c0 fa cf 6c 3e e1 96 00 3e be 47 20 3f 0e e6 76 3d
       0.23126212 0.12557556 0.6260947 0.06027799
0000d0 c2 8f 09 3f 1f 5a aa be f5 15 ff 3e f2 0b e8 be
       0.5373498 -0.33271882 0.4982144 -0.45321614
0000e0 a7 6a a2 be 54 77 d7 be f5 c4 bc 3e 62 12 02 3f
       -0.31721994 -0.42083228 0.36869016 0.508093

_transform._transforms.0.autoregressive_net.context_layer.bias f4 [20]
000000 cb f4 d5 be 99 ed f6 3d 70 bf a7 bd af f9 cb 3e
       -0.41788325 0.12057037 -0.08190811 0.3983893
000010 77 52 bf bc b4 79 e0 3d 2d 2b 52 bd 40 5c 15 3e
       -0.023354752 0.10960713 -0.051310707 0.14585972
000020 cb 15 08 3f 12 0a 0a be 70 9b e4 3e 4f 07 0f bf
       0.53158253 -0.13480404 0.4464984 -0.5587053
000030 a6 f8 7e 3e 81 74 df be bc 2d aa 3e 23 ca 1b 3e
       0.2489954 -0.43643573 0.33238018 0.15213828
000040 f2 3c cb 3e 7e 15 32 be b4 db 89 bd 38 00 19 3d
       0.39694935 -0.17391011 -0.06731358 0.037353724

_transform._transforms.0.autoregressive_net.blocks.0.context_layer.weight f4 [20, 3]
000000 85 98 02 3f bb 9b 83 3e 18 3e 99 be 4d 94 01 3f
       0.51013976 0.2570475 -0.29930186 0.50616914
000010 56 45 07 3e d1 c3 82 3e 58 85 4d be 6a 12 51 be
       0.13210043 0.2554002 -0.20070398 -0.2041718
000020 a8 05 7a be a9 16 d3 3e c2 21 0f 3f 60 79 63 3e
       -0.2441622 0.41228226 0.55910885 0.2221427
000030 4a 2c 70 3c 0d f7 ff be c1 d1 bd 3e c7 5f 8f 3e
       0.014658997 -0.49993172 0.37074092 0.2800276
000040 08 f1 86 be ce f6 99 be 8c d6 86 3e 62 b1 7b 3e
       -0.26355767 -0.3007111 0.2633556 0.24579385
000050 04 8b b5 be d0 27 95 be c9 b6 08 bf d4 e8 f6 b9
       -0.35457623 -0.29131937 -0.5340391 -0.00047094247
000060 c8 50 fe be 73 0d c4 be 46 03 47 3e 9f 61 03 3f
       -0.49671006 -0.3829151 0.19434842 0.5132083
000070 32 fc d9 be b7 6d 09 bf a2 19 cd 3e f4 76 97 bc
       -0.42575222 -0.53683037 0.4005862 -0.018489338
000080 90 62 20 bf 1a 9e 8a 3e 20 91 85 3d 76 a8 2f 3e
       -0.62650394 0.27073747 0.06521821 0.17154106
000090 28 01 97 3e 29 a6 9b 3e 14 99 72 3d 99 9a 14 3e
       0.2949307 0.30400208 0.059228018 0.145121
0000a0 d0 e5 04 3f 87 0b e4 be e8 96 9b be 5d 7c 09 bf
       0.51913166 -0.44540045 -0.3038857 -0.5370539
0000b0 cd 6e 0e be c2 df 1c bf fa 8d f4 be d4 4d 2a 3e
       -0.13909455 -0.6127893 -0.4776457 0.16631252
0000c0 21 74 50 be a1 d7 c0 3e 91 0d 0a bf 20 36 1d 3d
       -0.203568 0.37664512 -0.5392695 0.038381696
0000d0 63 19 ec 3d 0c 70 e5 3e 92 87 fa be fa 9a d0 be
       0.1152828 0.44812047 -0.48931557 -0.40743238
0000e0 66 94 ea be b5 cc 08 be c5 5c 03 3e 02 80 cd 3e
       -0.45816344 -0.1335934 0.12828358 0.40136725

_transform._transforms.0.autoregressive_net.blocks.0.context_layer.bias f4 [20]
000000 54 ea 00 3f 7d 63 d3 bd 0b 67 19 3e 52 04 01 be
       0.50357556 -0.1032171 0.14980714 -0.12599304
000010 4e bd c7 be 90 e8 cb 3e 8c 5d 0e bd 7d 09 09 be
       -0.39011616 0.3982587 -0.034757182 -0.13382526
000020 80 bf d0 3e 5c f6 d6 bb c3 bb 3f be af 23 e9 be
       0.40771103 -0.00656013 -0.18723969 -0.45535037
000030 9d 33 0d 3e 96 4b 39 3d 87 af 50 be c5 29 cd be
       0.1378922 0.0452381 -0.20379458 -0.4007093
000040 ea c3 c9 be 77 6e ae 3e 6e 1d d2 be fc eb b7 3e
       -0.39407283 0.34068653 -0.41038078 0.3592223

_transform._transforms.0.autoregressive_net.blocks.0.linear_layers.0.weight f4 [20, 20]
000000 fd 07 dd bd bb b1 88 be 96 c7 38 be 3c 7f 20 be
       -0.10792539 -0.26698098 -0.18044886 -0.15673536
000010 de 9d d1 bd b1 29 c0 3c 14 b6 3a 3e 67 11 52 be
       -0.10235189 0.02345738 0.1823352 -0.20514451
000020 b5 01 b4 3c 0a 6b 90 be a6 f4 9d 3d 78 0b 77 be
       0.02197347 -0.28206664 0.077126786 -0.24125469
000030 9e ab 1d be f6 a3 5b 3e ce 03 18 be 34 8a 8a bd
       -0.15397498 0.21449265 -0.14845201 -0.067646414
000040 b2 96 47 be 62 40 0c 3e 96 05 40 bc b8 4a 4a be
       -0.1949108 0.13696435 -0.011720082 -0.19755065
000050 c8 ab 3c 3e 94 a8 da bc 94 88 29 bd dd 78 fd bd
       0.18424904 -0.026691712 -0.041390017 -0.123765685
000060 8c 2d fe bd 2a 98 e8 3b 0a 8f 5d be 79 f1 e7 3c
       -0.12411031 0.0070982175 -0.21636596 0.028313385
000070 bc 24 52 be 9a b8 fc 3c bb 00 05 3e 62 50 b9 3d
       -0.20521826 0.030849744 0.1298856 0.09048535
000080 67 bb 63 be df 23 f1 bd 66 37 7d 3c 10 d7 e4 bb
       -0.22239457 -0.1177442 0.015455103 -0.0069836453
000090 ea 37 14 be c2 25 cd bd 4d 47 30 bd 62 5e 4e 3e
       -0.14474455 -0.10016967 -0.043036748 0.20153192
0000a0 8d b2 b2 3d f8 ea 57 be 57 20 2b 3e d6 83 16 3e
       0.08725462 -0.21085727 0.16711555 0.14698729
0000b0 19 15 e1 3d 58 60 a2 3e 55 7b 63 3e aa 85 6e 3b
       0.10990352 0.3171413 0.22215016 0.0036395588
0000c0 e2 2f 7e 3d ed 48 83 3c 6a f1 47 be e3 22 05 bd
       0.062057383 0.016025985 -0.19525686 -0.032503974
0000d0 a5 fe 92 bc c5 e1 41 3e 3f 67 8d bc b4 ad f7 bd
       -0.01794369 0.1893378 -0.017261146 -0.12093678
0000e0 57 7d 91 3d 00 a3 a1 3d 9c d2 ce bd bb 1c 2c bd
       0.07103985 0.07892418 -0.10098764 -0.042019587
0000f0 3f 9d 61 bd 95 e6 86 3d bd 58 c4 3d ab 71 44 3e
       -0.055081602 0.06586949 0.09587238 0.19183986
000100 fb f5 f0 3d 2c 90 88 bd f6 ce d9 bc 0f e2 54 3e
       0.11765667 -0.066681236 -0.026587944 0.2078936
000110 15 b9 09 be fb fa 08 3d 45 bd d3 3d 33 48 07 bd
       -0.1344951 0.03344248 0.10338835 -0.03302784
000120 3c f3 08 3d dd f6 48 3d 25 fd 38 bd 04 01 d2 3d
       0.03343509 0.049063552 -0.045163292 0.102541
000130 13 d9 44 bd 78 33 35 3e a9 bf df bd 6a cc ff 3d
       -0.04805858 0.17695415 -0.10925228 0.12490161
000140 9d ec 17 3e dd 34 62 be 64 98 30 be f0 be c2 bb
       0.14836355 -0.22090478 -0.17245632 -0.0059431717
000150 ed 7c 90 39 5a a1 95 3d db 9c a4 3c c6 1d 69 3d
       0.00027558897 0.07306166 0.020094326 0.05691316
000160 1d 4d 7a 3d 47 5c 6d 3c 3f 06 41 3e 7a 52 1e 3e
       0.061108697 0.014487333 0.18850039 0.1546115
000170 14 c5 05 be 59 41 15 be d8 95 1a 3e e3 8c 4e 3d
       -0.1306346 -0.1457571 0.15096223 0.05042733
000180 db 0a 97 bd d4 3b 22 be fa cf 32 bd c4 17 2a bd
       -0.073751174 -0.15843135 -0.043655373 -0.04152657
000190 66 d9 48 be 12 5c d0 bd b6 87 04 be 66 6d 2a be
       -0.19614181 -0.10173811 -0.12942395 -0.16643295
0001a0 23 5e 26 3e 24 fe 3a 3d ec de 58 3d a4 ac 29 3e
       0.16246848 0.045652524 0.05294697 0.16569763
0001b0 d0 c6 1f 3e 6f 64 65 be 9f c8 d1 3b 6c bb 9e bd
       0.15603185 -0.22401594 0.0064020897 -0.07750592
0001c0 28 de 5b bd 21 c0 ad bd 60 40 fd 3c 05 98 02 be
       -0.05367866 -0.08483911 0.030914485 -0.12753303
0001d0 4c ee 5b bc 83 8d 23 3e a2 ee d8 bd 7e 67 1a 3e
       -0.013423514 0.15971951 -0.105923906 0.15078542
0001e0 5c 27 1a 3e d7 d3 c0 3d a0 05 39 be d5 be a6 bc
       0.15054077 0.09415405 -0.18068552 -0.020354668
0001f0 66 3a 6c bc e4 07 e4 bd c2 6a 82 be 3d c0 04 be
       -0.01441822 -0.111343175 -0.25472075 -0.12963958
000200 0e 1e aa bc 30 7c 44 3e bb fb 63 be 76 93 d3 bb
       -0.020766284 0.19187999 -0.22263996 -0.0064567877
000210 ee c5 00 3e be 59 0a bc a3 8d 10 3d ed f6 db bc
       0.12575504 -0.008444248 0.035291325 -0.026851142
000220 fd 7a a2 bc f9 fb 22 be b8 39 3e be d0 b0 35 3e
       -0.019834036 -0.15916432 -0.18576705 0.1774323
000230 f6 9f cb 3d a2 39 58 be c4 05 9f bd 0d 01 30 be
       0.099426195 -0.21115735 -0.077647716 -0.17187901
000240 ff 0e 17 3e be 98 83 bd fe c2 38 bd 32 70 2c be
       0.14751814 -0.06425618 -0.045107834 -0.16839674
000250 4b ce 03 be 22 68 8c be f7 a8 1d bd a4 97 26 be
       -0.12871663 -0.27423197 -0.038491216 -0.16268784
000260 44 0e 4e bd b6 9e 26 bd ca e7 00 3e 7c f7 52 3e
       -0.050306574 -0.040678702 0.1258842 0.2060222
000270 09 86 7c be f4 7a 11 be f1 38 7f bd fd 7c 05 3e
       -0.24660505 -0.14207059 -0.062310163 0.1303596
000280 49 a8 09 bc 2e 2e ec bd 4e a8 ae bd b7 ad bb bd
       -0.008401939 -0.115322456 -0.08528195 -0.09163993
000290 65 58 25 3e 57 3a 1f bd 19 04 49 bc b5 db 49 3e
       0.16147001 -0.038873997 -0.012269043 0.19712718
0002a0 79 7e 61 3e ab 97 75 be f8 15 eb bc c7 b9 13 be
       0.22020902 -0.23983638 -0.028696999 -0.14426337
0002b0 71 77 10 be 13 2d 25 3d ec f6 4b be 08 db 7b bd
       -0.14108063 0.04032619 -0.19918412 -0.06148818
0002c0 c4 5c d2 3d b3 7d 2e be cd be a1 3c ed f0 63 be
       0.102716 -0.17040138 0.019744301 -0.22259875
0002d0 ef 6f 55 bd ec 49 09 be 3e d9 94 bc f7 e2 1f bc
       -0.0521087 -0.13407105 -0.018169995 -0.0097587025
0002e0 ed 80 de bd 5f ab ab bd e6 84 6e be 97 57 c0 3c
       -0.108644344 -0.08382296 -0.23292884 0.023479266
0002f0 5c 32 1f 3d 06 47 39 be 13 90 1f 3e 6f be 05 3e
       0.038866386 -0.180935 0.15582304 0.13060926
000300 dc 00 8b 3d 09 bf b8 bc da 52 bb bd e8 5a 1d 3d
       0.06787273 -0.02255203 -0.09146662 0.038416773
000310 79 22 3e 3e 81 a7 2c 3e c0 5a 2c 3e 8a ad c3 bd
       0.18567838 0.16860773 0.16831493 -0.09554584
000320 29 19 d2 be 11 d9 29 3e 88 bb cb be 53 e3 60 3e
       -0.4103482 0.1658671 -0.39791512 0.21961717
000330 89 3a ef 3d 6d 7e 58 3f 7e 61 73 3d 21 4e f0 bd
       0.116810866 0.8456791 0.059419148 -0.11733652
000340 3f 3b 59 be 24 73 6a be cf 1c 89 3d 68 38 43 3d
       -0.21214007 -0.22895485 0.06694948 0.047661215
000350 0f 2b a5 3d 08 4f 09 be 76 23 44 3e f1 90 da bd
       0.080648534 -0.13409054 0.19154152 -0.10672177
000360 a0 aa 4a 3e dd 3d 88 3e f8 9e 5e be b6 e1 c9 bc
       0.19791651 0.26609698 -0.2174033 -0.02464376
000370 c6 ca 17 be 77 0e 82 bd f5 10 4a 3c 64 14 f6 bd
       -0.14823446 -0.06350415 0.012333144 -0.12015608
000380 7a 94 a2 3d e4 21 c9 bd 3b 4d 70 bd da 2b 16 be
       0.07938476 -0.09820917 -0.058667403 -0.14665166
000390 b7 07 92 be 86 39 6c 3e 6c 30 54 bd 5d d2 70 3e
       -0.2852151 0.23068818 -0.05180399 0.23517747
0003a0 ac db 11 be a1 3b e4 3d 67 5c 3c bd 96 f4 cc 3d
       -0.14243954 0.11144186 -0.04598656 0.100075886
0003b0 a2 32 fd bd 5a d5 43 3e 48 81 0e 3e bf 5d fb bc
       -0.12363173 0.19124356 0.13916504 -0.03068435
0003c0 da 76 44 bd 30 33 3b 3d 60 f1 2c 3e e9 fe 5e 3e
       -0.04796491 0.045703113 0.16888952 0.21776928
0003d0 7d 54 14 3e b5 94 e4 bd 29 ed 51 be 6f 2c 3d be
       0.14485355 -0.11161176 -0.20500626 -0.18473981
0003e0 e2 8c a1 bb 0d 35 51 3d 94 15 0d be 12 23 d3 3b
       -0.0049301246 0.051075984 -0.13777763 0.0064433897
0003f0 5f 2a 0e bb 9d b4 c2 bd 8c a1 50 3e 41 06 7d 3c
       -0.0021692736 -0.095071055 0.20374125 0.015443386

_transform._transforms.0.autoregressive_net.blocks.0.linear_layers.0.bias f4 [20]
000000 ba 4a 86 bd 4a 70 27 be cd cf ed bd e3 22 31 be
       -0.06557222 -0.16351429 -0.116119005 -0.17298464
000010 de 2d a3 3d 6f 91 d9 bd bb a3 62 be 78 9d 27 bd
       0.07967733 -0.106234424 -0.2213277 -0.04092166
000020 fe 23 7e 3e 90 aa 11 3d cb fd 2e be 68 9e eb 3d
       0.24818417 0.03556305 -0.17089002 0.11504823
000030 98 8e 20 bd af 1f d4 bd a5 7c 46 be 8f a1 53 bd
       -0.039198488 -0.10357606 -0.19383486 -0.051667746
000040 eb 03 57 3d 74 42 a0 3d 6e 5c 64 3e b0 ee 00 3d
       0.05249397 0.07825175 0.22300884 0.03147763

_transform._transforms.0.autoregressive_net.blocks.0.linear_layers.0.mask f4 [20, 20]
000000 00 00 80 3f 00 00 80 3f 00 00 80 3f 00 00 80 3f
       1.0 1.0 1.0 1.0
000010 00 00 80 3f 00 00 80 3f 00 00 80 3f 00 00 80 3f
       1.0 1.0 1.0 1.0
000020 00 00 80 3f 00 00 80 3f 00 00 80 3f 00 00 80 3f
       1.0 1.0 1.0 1.0
000030 00 00 80 3f 00 00 80 3f 00 00 80 3f 00 00 80 3f
       1.0 1.0 1.0 1.0
000040 00 00 80 3f 00 00 80 3f 00 00 80 3f 00 00 80 3f
       1.0 1.0 1.0 1.0
000050 00 00 80 3f 00 00 80 3f 00 00 80 3f 00 00 80 3f
       1.0 1.0 1.0 1.0
000060 00 00 80 3f 00 00 80 3f 00 00 80 3f 00 00 80 3f
       1.0 1.0 1.0 1.0
000070 00 00 80 3f 00 00 80 3f 00 00 80 3f 00 00 80 3f
       1.0 1.0 1.0 1.0
000080 00 00 80 3f 00 00 80 3f 00 00 80 3f 00 00 80 3f
       1.0 1.0 1.0 1.0
000090 00 00 80 3f 00 00 80 3f 00 00 80 3f 00 00 80 3f
       1.0 1.0 1.0 1.0
0000a0 00 00 80 3f 00 00 80 3f 00 00 80 3f 00 00 80 3f
       1.0 1.0 1.0 1.0
0000b0 00 00 80 3f 00 00 80 3f 00 00 80 3f 00 00 80 3f
       1.0 1.0 1.0 1.0
0000c0 00 00 80 3f 00 00 80 3f 00 00 80 3f 00 00 80 3f
       1.0 1.0 1.0 1.0
0000d0 00 00 80 3f 00 00 80 3f 00 00 80 3f 00 00 80 3f
       1.0 1.0 1.0 1.0
0000e0 00 00 80 3f 00 00 80 3f 00 00 80 3f 00 00 80 3f
       1.0 1.0 1.0 1.0
0000f0 00 00 80 3f 00 00 80 3f 00 00 80 3f 00 00 80 3f
       1.0 1.0 1.0 1.0
000100 00 00 80 3f 00 00 80 3f 00 00 80 3f 00 00 80 3f
       1.0 1.0 1.0 1.0
000110 00 00 80 3f 00 00 80 3f 00 00 80 3f 00 00 80 3f
       1.0 1.0 1.0 1.0
000120 00 00 80 3f 00 00 80 3f 00 00 80 3f 00 00 80 3f
       1.0 1.0 1.0 1.0
000130 00 00 80 3f 00 00 80 3f 00 00 80 3f 00 00 80 3f
       1.0 1.0 1.0 1.0
000140 00 00 80 3f 00 00 80 3f 00 00 80 3f 00 00 80 3f
       1.0 1.0 1.0 1.0
000150 00 00 80 3f 00 00 80 3f 00 00 80 3f 00 00 80 3f
       1.0 1.0 1.0 1.0
000160 00 00 80 3f 00 00 80 3f 00 00 80 3f 00 00 80 3f
       1.0 1.0 1.0 1.0
000170 00 00 80 3f 00 00 80 3f 00 00 80 3f 00 00 80 3f
       1.0 1.0 1.0 1.0
000180 00 00 80 3f 00 00 80 3f 00 00 80 3f 00 00 80 3f
       1.0 1.0 1.0 1.0
000190 00 00 80 3f 00 00 80 3f 00 00 80 3f 00 00 80 3f
       1.0 1.0 1.0 1.0
0001a0 00 00 80 3f 00 00 80 3f 00 00 80 3f 00 00 80 3f
       1.0 1.0 1.0 1.0
0001b0 00 00 80 3f 00 00 80 3f 00 00 80 3f 00 00 80 3f
       1.0 1.0 1.0 1.0
0001c0 00 00 80 3f 00 00 80 3f 00 00 80 3f 00 00 80 3f
       1.0 1.0 1.0 1.0
0001d0 00 00 80 3f 00 00 80 3f 00 00 80 3f 00 00 80 3f
       1.0 1.0 1.0 1.0
0001e0 00 00 80 3f 00 00 80 3f 00 00 80 3f 00 00 80 3f
       1.0 1.0 1.0 1.0
0001f0 00 00 80 3f 00 00 80 3f 00 00 80 3f 00 00 80 3f
       1.0 1.0 1.0 1.0
000200 00 00 80 3f 00 00 80 3f 00 00 80 3f 00 00 80 3f
       1.0 1.0 1.0 1.0
000210 00 00 80 3f 00 00 80 3f 00 00 80 3f 00 00 80 3f
       1.0 1.0 1.0 1.0
000220 00 00 80 3f 00 00 80 3f 00 00 80 3f 00 00 80 3f
       1.0 1.0 1.0 1.0
000230 00 00 80 3f 00 00 80 3f 00 00 80 3f 00 00 80 3f
       1.0 1.0 1.0 1.0
000240 00 00 80 3f 00 00 80 3f 00 00 80 3f 00 00 80 3f
       1.0 1.0 1.0 1.0
000250 00 00 80 3f 00 00 80 3f 00 00 80 3f 00 00 80 3f
       1.0 1.0 1.0 1.0
000260 00 00 80 3f 00 00 80 3f 00 00 80 3f 00 00 80 3f
       1.0 1.0 1.0 1.0
000270 00 00 80 3f 00 00 80 3f 00 00 80 3f 00 00 80 3f
       1.0 1.0 1.0 1.0
000280 00 00 80 3f 00 00 80 3f 00 00 80 3f 00 00 80 3f
       1.0 1.0 1.0 1.0
000290 00 00 80 3f 00 00 80 3f 00 00 80 3f 00 00 80 3f
       1.0 1.0 1.0 1.0
0002a0 00 00 80 3f 00 00 80 3f 00 00 80 3f 00 00 80 3f
       1.0 1.0 1.0 1.0
0002b0 00 00 80 3f 00 00 80 3f 00 00 80 3f 00 00 80 3f
       1.0 1.0 1.0 1.0
0002c0 00 00 80 3f 00 00 80 3f 00 00 80 3f 00 00 80 3f
       1.0 1.0 1.0 1.0
0002d0 00 00 80 3f 00 00 80 3f 00 00 80 3f 00 00 80 3f
       1.0 1.0 1.0 1.0
0002e0 00 00 80 3f 00 00 80 3f 00 00 80 3f 00 00 80 3f
       1.0 1.0 1.0 1.0
0002f0 00 00 80 3f 00 00 80 3f 00 00 80 3f 00 00 80 3f
       1.0 1.0 1.0 1.0
000300 00 00 80 3f 00 00 80 3f 00 00 80 3f 00 00 80 3f
       1.0 1.0 1.0 1.0
000310 00 00 80 3f 00 00 80 3f 00 00 80 3f 00 00 80 3f
       1.0 1.0 1.0 1.0
000320 00 00 80 3f 00 00 80 3f 00 00 80 3f 00 00 80 3f
       1.0 1.0 1.0 1.0
000330 00 00 80 3f 00 00 80 3f 00 00 80 3f 00 00 80 3f
       1.0 1.0 1.0 1.0
000340 00 00 80 3f 00 00 80 3f 00 00 80 3f 00 00 80 3f
       1.0 1.0 1.0 1.0
000350 00 00 80 3f 00 00 80 3f 00 00 80 3f 00 00 80 3f
       1.0 1.0 1.0 1.0
000360 00 00 80 3f 00 00 80 3f 00 00 80 3f 00 00 80 3f
       1.0 1.0 1.0 1.0
000370 00 00 80 3f 00 00 80 3f 00 00 80 3f 00 00 80 3f
       1.0 1.0 1.0 1.0
000380 00 00 80 3f 00 00 80 3f 00 00 80 3f 00 00 80 3f
       1.0 1.0 1.0 1.0
000390 00 00 80 3f 00 00 80 3f 00 00 80 3f 00 00 80 3f
       1.0 1.0 1.0 1.0
0003a0 00 00 80 3f 00 00 80 3f 00 00 80 3f 00 00 80 3f
       1.0 1.0 1.0 1.0
0003b0 00 00 80 3f 00 00 80 3f 00 00 80 3f 00 00 80 3f
       1.0 1.0 1.0 1.0
0003c0 00 00 80 3f 00 00 80 3f 00 00 80 3f 00 00 80 3f
       1.0 1.0 1.0 1.0
0003d0 00 00 80 3f 00 00 80 3f 00 00 80 3f 00 00 80 3f
       1.0 1.0 1.0 1.0
0003e0 00 00 80 3f 00 00 80 3f 00 00 80 3f 00 00 80 3f
       1.0 1.0 1.0 1.0
0003f0 00 00 80 3f 00 00 80 3f 00 00 80 3f 00 00 80 3f
       1.0 1.0 1.0 1.0

_transform._transforms.0.autoregressive_net.blocks.0.linear_layers.1.weight f4 [20, 20]
000000 6a c0 04 3e 1f fa 96 bb f8 bf 2e 3c 39 85 aa bb
       0.12964025 -0.0046074535 0.010665886 -0.0052038697
000010 95 8f 8c 3c 6c 0c d3 3b 2e 1d 42 bd dd 49 ee 3b
       0.017158309 0.00644069 -0.04739111 0.007271989
000020 6e 5c 8e 3b fc 16 90 3b 0d 21 97 3c a7 1e 8a bb
       0.0043445146 0.004397271 0.018448377 -0.00421508
000030 ad 93 e0 bb 85 9e b1 bc 8d 31 00 3c 8a a5 c6 3b
       -0.006853542 -0.021682033 0.007824314 0.0060622143
000040 66 99 60 3b e0 8f 22 bc 3a b8 e2 3b e8 e4 38 bc
       0.003427112 -0.009921998 0.006918934 -0.011285044
000050 51 2d 3b 3d f1 37 5d bc 89 25 83 3c 49 b3 47 bc
       0.045697514 -0.013502107 0.01600911 -0.012188741
000060 77 58 40 3c e9 f2 42 3c f3 c5 b3 3c d9 2a 64 3c
       0.011739842 0.011898735 0.021944975 0.013926231
000070 ff b2 4c 3c 3e 9d 25 3c 97 45 16 3c 69 74 36 bc
       0.012493848 0.01010829 0.009171865 -0.011136153
000080 e2 df 66 bc 78 eb 14 bb c1 8a 5b 3c f8 5d 54 3c
       -0.014091464 -0.0022723358 0.013399781 0.012961857
000090 0c 00 bc bb 85 7f 34 bc 09 f1 51 3c 89 82 35 bc
       -0.0057373103 -0.011016731 0.012813815 -0.011078485
0000a0 14 a2 8a 3d 19 4c c6 3a fd 07 9d b8 fc ce 8d 3a
       0.06769195 0.001512888 -7.487831e-05 0.0010819132
0000b0 2c 00 40 3c fc 3e a8 3a 6b ad 49 3c 46 2a 63 ba
       0.011718791 0.0012836154 0.0123094125 -0.0008665662
0000c0 c0 84 78 ba 22 2b 18 3a 9b 6d 17 3c 75 c6 e6 3a
       -0.00094802305 0.0005804767 0.009242441 0.0017606752
0000d0 2a 95 94 39 17 8e 77 bb a0 37 e1 39 fd c9 b4 b9
       0.00028339896 -0.00377739 0.00042956788 -0.00034482768
0000e0 ef 59 cb bc 5e 36 b6 3a cc 6c 96 ba 58 e8 e6 b9
       -0.024823157 0.0013901701 -0.0011476516 -0.00044042128
0000f0 21 17 0d be fc e5 e5 3b 45 36 2d bc 42 21 c1 3b
       -0.13778354 0.0070159417 -0.010572021 0.005893857
000100 cc 42 70 bc 8c 88 02 bc 8f 90 76 3d f3 83 1b bc
       -0.014664363 -0.007967126 0.060196456 -0.009491908
000110 c4 03 c7 bb b7 ae f1 bb e0 e6 ba bc 56 ca a6 3b
       -0.006073447 -0.007375564 -0.022815168 0.0050900383
000120 bc 74 10 3c 03 81 cc 3c db 9e 0f bc c2 34 1d bc
       0.008816894 0.024963861 -0.008765901 -0.009595098
000130 56 6b ac bb 44 ae 5f 3c df e1 11 bc 91 58 56 3c
       -0.005261819 0.013652388 -0.0089039495 0.013082639
000140 dc 2e 96 3d 79 e5 15 bc 34 dc 5b 3c f2 8a 0c bc
       0.073331565 -0.009148949 0.0134192 -0.008578049
000150 75 38 60 3c d0 86 15 3c 70 60 5b bc e1 ae 37 3c
       0.013685335 0.00912638 -0.013389692 0.011211128
000160 ad 07 0d 3c b7 1b ed 3b 12 e9 63 3c 9b 0c 1b bc
       0.008607787 0.00723597 0.013910549 -0.009463455
000170 8c d9 3a bc 83 0c 0b bc b6 d2 22 3c 4e c7 34 3c
       -0.011404406 -0.00848687 0.009937933 0.011033846
000180 6a 7f c2 bb df 3d 24 bc 9d bb 34 3c 12 14 40 bc
       -0.005935599 -0.010024517 0.011031059 -0.011723535
000190 b7 91 9d 3d 83 80 13 bc 54 21 70 3c 3b 13 26 bc
       0.076938085 -0.009002808 0.014656384 -0.010136421
0001a0 fb 7e 86 3c fa 9c 0c 3c e8 cd 64 bc ef be 29 3c
       0.01641797 0.008582348 -0.0139651075 0.0103604635
0001b0 e0 da 19 3c 58 fd 19 3c 71 cd 81 3c d2 7a 25 bc
       0.009390563 0.009398781 0.015845032 -0.010100083
0001c0 d7 ba 3e bc db 8a 56 bc a9 3a 2a 3c 02 4d 3a 3c
       -0.011641226 -0.013094629 0.010389962 0.011370899
0001d0 91 3c d2 bb 9d 58 33 bc a9 77 38 3c 93 bd 46 bc
       -0.0064159115 -0.01094642 0.011258998 -0.012130159
0001e0 08 aa d4 3c c7 c8 45 bc 6c da 60 3c cb 50 49 bc
       0.025959983 -0.012071795 0.013723951 -0.012287329
0001f0 ff 1d 42 3c ba 1e 23 3c c3 0c 1e 3c ea 2a 4a 3c
       0.011847972 0.009956056 0.009646597 0.012339333
000200 50 77 30 3c e0 e0 2b 3c 5f 97 0e 3c 67 18 30 bc
       0.010770634 0.010490626 0.008703082 -0.0107480055
000210 3a 40 5d bc f5 b4 02 bb 1f 49 55 3c 72 80 5c 3c
       -0.013504082 -0.0019944285 0.013017922 0.013458358
000220 dc f6 4d bc 25 b9 29 bc 81 c5 48 3c b8 03 2a bc
       -0.012571063 -0.010359083 0.01225412 -0.010376863
000230 aa 13 e9 3d 5b d1 14 bc ca b8 69 3c 00 0c 10 bc
       0.11380704 -0.009083117 0.014265249 -0.0087919235
000240 bf d7 58 3c ef 9a 12 3c 85 28 2c bd 17 27 27 3c
       0.013235032 0.008948072 -0.04203083 0.010202191
000250 37 14 11 3c 14 e2 0b 3c e2 f4 8d 3c 79 ff 26 bc
       0.008854917 0.008537788 0.017328683 -0.010192745
000260 fc 6e 40 bc 12 93 6c bc 99 7d 22 3c 95 49 40 3c
       -0.011745211 -0.014439361 0.00991764 0.011736293
000270 9a e7 6b 3b 09 2f 49 bc e6 1a 1b 3c 0a cd 5d bc
       0.00359962 -0.01227928 0.009466862 -0.013537655
000280 ad 2c dd 3d fe db fd bb 6b 23 4c 3c 4e ff d4 bb
       0.10799537 -0.0077471724 0.012459616 -0.0065001613
000290 d9 a3 8b 3c c2 76 06 3c cc 80 16 bd 87 0f 08 3c
       0.017045902 0.008207025 -0.036743924 0.008304483
0002a0 10 de d6 3b 3c ba ca 3b 65 73 8b 3c 4f bd db bb
       0.0065572336 0.0061867516 0.017022798 -0.006705917
0002b0 f2 55 05 bc a5 e5 8b bc e0 c8 0c 3c a1 01 15 3c
       -0.008138167 -0.017077276 0.008592814 0.009094627
0002c0 49 55 44 b9 4a 74 1f bc c4 7d e7 3b cb 19 46 bc
       -0.00018723788 -0.009732315 0.007064553 -0.01209111
0002d0 24 f1 17 3e 53 2d b8 3a ab 20 09 bb 58 e0 24 3b
       0.14838082 0.0014051594 -0.0020924013 0.0025158133
0002e0 98 4c 75 ba 2d eb 5b bb 21 6c 7b bd 7a c8 41 ba
       -0.00093574217 -0.0033556924 -0.061382417 -0.0007392239
0002f0 d4 e5 0b bb 29 ff 3c ba d3 92 73 3c 1c 58 dd 3b
       -0.0021346705 -0.00072096527 0.014866549 0.006754888
000300 c0 dd 7c b8 fb 85 ce bc e8 2d 33 b8 a4 64 5e b9
       -6.0288003e-05 -0.025210371 -4.271968e-05 -0.00021209061
000310 ff a4 8e 3c 73 90 8d bb aa 67 ae 39 a0 fb 77 bb
       0.01741266 -0.004320198 0.00033265102 -0.003783919
000320 88 bf b6 3d b9 c6 21 bc 9b 6a 63 3c 4f 32 19 bc
       0.089232504 -0.009874039 0.013880397 -0.009350373
000330 fc 6b 72 3c 35 d6 0f 3c 0e 72 b6 bc 8e 4a 25 3c
       0.014796253 0.008779098 -0.022271182 0.010088576
000340 93 c3 07 3c 58 63 02 3c 5f da 7c 3c e8 28 28 bc
       0.008286375 0.007958256 0.015432923 -0.010263659
000350 f2 8e 3e bc da 89 32 bc 9d 0f 2c 3c 59 7a 1e 3c
       -0.0116307605 -0.010897124 0.010501769 0.009672725
000360 82 07 8b bb 16 f5 30 bc 08 ab 2b 3c 76 78 46 bc
       -0.0042428384 -0.010800621 0.010477789 -0.012113681
000370 15 43 be bd 4c 5f d8 3b e1 4b 54 bc 84 ee de 3b
       -0.09290139 0.006603157 -0.012957544 0.0068033356
000380 27 3d 8d bc 31 33 02 bc 1a 4d df 3c 68 61 0c bc
       -0.017241074 -0.007946775 0.027258445 -0.008568145
000390 75 68 ce bb ea 2e e8 bb 0d 54 6d bc 86 33 12 3c
       -0.0062990733 -0.0070856707 -0.014485371 0.008923417
0003a0 82 3b 0a 3c 36 28 79 3c 0f 37 03 bc 45 3e fc bb
       0.008437039 0.015207341 -0.008008732 -0.007697853
0003b0 6b 6d 7c 3b ca da 28 3c 8d cf 0a bc f2 f4 33 3c
       0.0038517367 0.01030607 -0.0084723355 0.0109836925
0003c0 e7 ee 03 3e 47 57 f5 bb 65 a5 2c 3c 7c cd c9 bb
       0.12884103 -0.007487211 0.01053748 -0.006158529
0003d0 3f d4 22 3c 14 5d f6 3b aa b5 79 bd 41 bd 18 3c
       0.009938299 0.00751842 -0.060964264 0.009322465
0003e0 39 59 b6 3b 11 d5 ec 3b 32 a4 a7 3c 42 29 95 bb
       0.0055648354 0.007227548 0.020464037 -0.0045520375
0003f0 34 c0 10 bc 8d 5d b0 bc c5 37 00 3c 19 71 07 3c
       -0.008834887 -0.021528983 0.0078257965 0.008266711

_transform._transforms.0.autoregressive_net.blocks.0.linear_layers.1.bias f4 [20]
000000 bd 51 05 3c 2e f9 6b 3c 1f 1d a9 3b b1 0f 22 bc
       0.008137164 0.014402671 0.005160942 -0.009891436
000010 59 54 58 3c 14 65 66 3c 5e 04 81 3c 66 0b 5e 3c
       0.013203704 0.014062185 0.015749153 0.013552522
000020 4d 9b 1f 3c 83 32 21 3b 26 c4 52 3c bc db 33 bc
       0.009741616 0.0024596758 0.012864148 -0.010977682
000030 2a db 21 3c af e1 36 3c 1b a2 13 3c cf 9f 4c 3c
       0.009878913 0.011162206 0.009010817 0.012489273
000040 d0 ee a2 b9 ea 94 67 bc ba 42 76 3c 17 06 5a 3c
       -0.00031076977 -0.014134625 0.015030557 0.013307116

_transform._transforms.0.autoregressive_net.blocks.0.linear_layers.1.mask f4 [20, 20]
000000 00 00 80 3f 00 00 80 3f 00 00 80 3f 00 00 80 3f
       1.0 1.0 1.0 1.0
000010 00 00 80 3f 00 00 80 3f 00 00 80 3f 00 00 80 3f
       1.0 1.0 1.0 1.0
000020 00 00 80 3f 00 00 80 3f 00 00 80 3f 00 00 80 3f
       1.0 1.0 1.0 1.0
000030 00 00 80 3f 00 00 80 3f 00 00 80 3f 00 00 80 3f
       1.0 1.0 1.0 1.0
000040 00 00 80 3f 00 00 80 3f 00 00 80 3f 00 00 80 3f
       1.0 1.0 1.0 1.0
000050 00 00 80 3f 00 00 80 3f 00 00 80 3f 00 00 80 3f
       1.0 1.0 1.0 1.0
000060 00 00 80 3f 00 00 80 3f 00 00 80 3f 00 00 80 3f
       1.0 1.0 1.0 1.0
000070 00 00 80 3f 00 00 80 3f 00 00 80 3f 00 00 80 3f
       1.0 1.0 1.0 1.0
000080 00 00 80 3f 00 00 80 3f 00 00 80 3f 00 00 80 3f
       1.0 1.0 1.0 1.0
000090 00 00 80 3f 00 00 80 3f 00 00 80 3f 00 00 80 3f
       1.0 1.0 1.0 1.0
0000a0 00 00 80 3f 00 00 80 3f 00 00 80 3f 00 00 80 3f
       1.0 1.0 1.0 1.0
0000b0 00 00 80 3f 00 00 80 3f 00 00 80 3f 00 00 80 3f
       1.0 1.0 1.0 1.0
0000c0 00 00 80 3f 00 00 80 3f 00 00 80 3f 00 00 80 3f
       1.0 1.0 1.0 1.0
0000d0 00 00 80 3f 00 00 80 3f 00 00 80 3f 00 00 80 3f
       1.0 1.0 1.0 1.0
0000e0 00 00 80 3f 00 00 80 3f 00 00 80 3f 00 00 80 3f
       1.0 1.0 1.0 1.0
0000f0 00 00 80 3f 00 00 80 3f 00 00 80 3f 00 00 80 3f
       1.0 1.0 1.0 1.0
000100 00 00 80 3f 00 00 80 3f 00 00 80 3f 00 00 80 3f
       1.0 1.0 1.0 1.0
000110 00 00 80 3f 00 00 80 3f 00 00 80 3f 00 00 80 3f
       1.0 1.0 1.0 1.0
000120 00 00 80 3f 00 00 80 3f 00 00 80 3f 00 00 80 3f
       1.0 1.0 1.0 1.0
000130 00 00 80 3f 00 00 80 3f 00 00 80 3f 00 00 80 3f
       1.0 1.0 1.0 1.0
000140 00 00 80 3f 00 00 80 3f 00 00 80 3f 00 00 80 3f
       1.0 1.0 1.0 1.0
000150 00 00 80 3f 00 00 80 3f 00 00 80 3f 00 00 80 3f
       1.0 1.0 1.0 1.0
000160 00 00 80 3f 00 00 80 3f 00 00 80 3f 00 00 80 3f
       1.0 1.0 1.0 1.0
000170 00 00 80 3f 00 00 80 3f 00 00 80 3f 00 00 80 3f
       1.0 1.0 1.0 1.0
000180 00 00 80 3f 00 00 80 3f 00 00 80 3f 00 00 80 3f
       1.0 1.0 1.0 1.0
000190 00 00 80 3f 00 00 80 3f 00 00 80 3f 00 00 80 3f
       1.0 1.0 1.0 1.0
0001a0 00 00 80 3f 00 00 80 3f 00 00 80 3f 00 00 80 3f
       1.0 1.0 1.0 1.0
0001b0 00 00 80 3f 00 00 80 3f 00 00 80 3f 00 00 80 3f
       1.0 1.0 1.0 1.0
0001c0 00 00 80 3f 00 00 80 3f 00 00 80 3f 00 00 80 3f
       1.0 1.0 1.0 1.0
0001d0 00 00 80 3f 00 00 80 3f 00 00 80 3f 00 00 80 3f
       1.0 1.0 1.0 1.0
0001e0 00 00 80 3f 00 00 80 3f 00 00 80 3f 00 00 80 3f
       1.0 1.0 1.0 1.0
0001f0 00 00 80 3f 00 00 80 3f 00 00 80 3f 00 00 80 3f
       1.0 1.0 1.0 1.0
000200 00 00 80 3f 00 00 80 3f 00 00 80 3f 00 00 80 3f
       1.0 1.0 1.0 1.0
000210 00 00 80 3f 00 00 80 3f 00 00 80 3f 00 00 80 3f
       1.0 1.0 1.0 1.0
000220 00 00 80 3f 00 00 80 3f 00 00 80 3f 00 00 80 3f
       1.0 1.0 1.0 1.0
000230 00 00 80 3f 00 00 80 3f 00 00 80 3f 00 00 80 3f
       1.0 1.0 1.0 1.0
000240 00 00 80 3f 00 00 80 3f 00 00 80 3f 00 00 80 3f
       1.0 1.0 1.0 1.0
000250 00 00 80 3f 00 00 80 3f 00 00 80 3f 00 00 80 3f
       1.0 1.0 1.0 1.0
000260 00 00 80 3f 00 00 80 3f 00 00 80 3f 00 00 80 3f
       1.0 1.0 1.0 1.0
000270 00 00 80 3f 00 00 80 3f 00 00 80 3f 00 00 80 3f
       1.0 1.0 1.0 1.0
000280 00 00 80 3f 00 00 80 3f 00 00 80 3f 00 00 80 3f
       1.0 1.0 1.0 1.0
000290 00 00 80 3f 00 00 80 3f 00 00 80 3f 00 00 80 3f
       1.0 1.0 1.0 1.0
0002a0 00 00 80 3f 00 00 80 3f 00 00 80 3f 00 00 80 3f
       1.0 1.0 1.0 1.0
0002b0 00 00 80 3f 00 00 80 3f 00 00 80 3f 00 00 80 3f
       1.0 1.0 1.0 1.0
0002c0 00 00 80 3f 00 00 80 3f 00 00 80 3f 00 00 80 3f
       1.0 1.0 1.0 1.0
0002d0 00 00 80 3f 00 00 80 3f 00 00 80 3f 00 00 80 3f
       1.0 1.0 1.0 1.0
0002e0 00 00 80 3f 00 00 80 3f 00 00 80 3f 00 00 80 3f
       1.0 1.0 1.0 1.0
0002f0 00 00 80 3f 00 00 80 3f 00 00 80 3f 00 00 80 3f
       1.0 1.0 1.0 1.0
000300 00 00 80 3f 00 00 80 3f 00 00 80 3f 00 00 80 3f
       1.0 1.0 1.0 1.0
000310 00 00 80 3f 00 00 80 3f 00 00 80 3f 00 00 80 3f
       1.0 1.0 1.0 1.0
000320 00 00 80 3f 00 00 80 3f 00 00 80 3f 00 00 80 3f
       1.0 1.0 1.0 1.0
000330 00 00 80 3f 00 00 80 3f 00 00 80 3f 00 00 80 3f
       1.0 1.0 1.0 1.0
000340 00 00 80 3f 00 00 80 3f 00 00 80 3f 00 00 80 3f
       1.0 1.0 1.0 1.0
000350 00 00 80 3f 00 00 80 3f 00 00 80 3f 00 00 80 3f
       1.0 1.0 1.0 1.0
000360 00 00 80 3f 00 00 80 3f 00 00 80 3f 00 00 80 3f
       1.0 1.0 1.0 1.0
000370 00 00 80 3f 00 00 80 3f 00 00 80 3f 00 00 80 3f
       1.0 1.0 1.0 1.0
000380 00 00 80 3f 00 00 80 3f 00 00 80 3f 00 00 80 3f
       1.0 1.0 1.0 1.0
000390 00 00 80 3f 00 00 80 3f 00 00 80 3f 00 00 80 3f
       1.0 1.0 1.0 1.0
0003a0 00 00 80 3f 00 00 80 3f 00 00 80 3f 00 00 80 3f
       1.0 1.0 1.0 1.0
0003b0 00 00 80 3f 00 00 80 3f 00 00 80 3f 00 00 80 3f
       1.0 1.0 1.0 1.0
0003c0 00 00 80 3f 00 00 80 3f 00 00 80 3f 00 00 80 3f
       1.0 1.0 1.0 1.0
0003d0 00 00 80 3f 00 00 80 3f 00 00 80 3f 00 00 80 3f
       1.0 1.0 1.0 1.0
0003e0 00 00 80 3f 00 00 80 3f 00 00 80 3f 00 00 80 3f
       1.0 1.0 1.0 1.0
0003f0 00 00 80 3f 00 00 80 3f 00 00 80 3f 00 00 80 3f
       1.0 1.0 1.0 1.0

_transform._transforms.0.autoregressive_net.blocks.1.context_layer.weight f4 [20, 3]
000000 32 b9 bb 3e 51 16 27 3e a9 dc dc be f6 7b 5d bd
       0.3666473 0.16317107 -0.431371 -0.054073296
000010 20 49 eb be 1b 44 be 3e cc 65 03 bf 19 d2 bd bd
       -0.45954227 0.37161335 -0.51327205 -0.092685886
000020 0b f2 f7 3d 56 b5 e7 bd 77 62 3d 3e 58 d3 43 be
       0.12106713 -0.11313884 0.18494593 -0.1912359
000030 07 73 b4 3e 28 a6 5b be 4a 5b af 3d eb 49 ac 3e
       0.3524401 -0.21450102 0.08562334 0.33650145
000040 df e0 f8 bd 60 01 03 3f 36 71 06 be 43 5d 8a 3e
       -0.12152266 0.51173973 -0.13129124 0.27024278
000050 b8 65 5e be 50 c9 fe be 2d 38 85 be fa 6b 02 bf
       -0.2171849 -0.49762964 -0.2601942 -0.5094601
000060 02 3a c9 be e0 ed d5 3e be b5 39 be 25 75 f8 3e
       -0.3930207 0.41783047 -0.18135735 0.48526874
000070 2c d9 ce 3d 96 8d fe 3e 74 1e b3 be 72 e2 fd 3e
       0.10100016 0.49717396 -0.3498417 0.49586827
000080 43 de f4 be ab 7c be 3e 1a a1 e0 3b 6a 7a c5 3e
       -0.47825822 0.3720449 0.0068551423 0.38569957
000090 e2 ae a3 be 45 1f 05 3f 2d d2 d7 be 15 5a 01 3e
       -0.31969362 0.5200084 -0.4215254 0.1263202
0000a0 69 bf 12 3f ad ca 02 3e c6 5e c0 bd 0c 5f 11 be
       0.5732332 0.12772627 -0.093930766 -0.14196414
0000b0 e1 95 cc bd 54 c8 4c bd 74 03 65 3e ce 87 c7 3e
       -0.09989525 -0.049995735 0.22364599 0.38970798
0000c0 e7 ca d1 be 8d 75 df 3d 83 71 19 3f bd 7c 2c be
       -0.40975115 0.10911093 0.5993883 -0.16844459
0000d0 4e 4f d8 3e 1d 8e 1a 3e 8b 6b 01 bf 56 51 14 bf
       0.42248005 0.15093274 -0.5055472 -0.5793661
0000e0 29 11 11 3d 00 f0 09 3e e8 26 83 3e 4e b0 87 be
       0.035416756 0.13470459 0.2561562 -0.26501697

_transform._transforms.0.autoregressive_net.blocks.1.context_layer.bias f4 [20]
000000 68 be 1d bd ab 29 98 3e 6a 5b 1e bf e5 59 1a be
       -0.038511664 0.2971929 -0.61858237 -0.15073355
000010 2d a2 e9 bc b2 c9 eb 3e 2c 25 bf 3c 8a 90 89 be
       -0.028519714 0.4605232 0.023333155 -0.26868087
000020 42 04 83 be b4 26 90 3e 08 27 92 3e 07 6d de be
       -0.25589186 0.28154528 0.28545403 -0.43442556
000030 2c 6a a2 be 09 5b ab 3e a7 a3 1f 3f 3e 8f 06 3f
       -0.31721628 0.33467892 0.6235909 0.5256232
000040 48 f1 0b 3f 7e 1c 57 be be 97 3c be e6 d7 35 be
       0.5466504 -0.21006963 -0.1841726 -0.1775814

_transform._transforms.0.autoregressive_net.blocks.1.linear_layers.0.weight f4 [20, 20]
000000 bd 09 9f bb f8 94 60 be 90 a8 ec bd 87 01 41 be
       -0.004853456 -0.21931827 -0.11555588 -0.18848239
000010 2f 3d ce 3c a0 46 5f 3e a8 96 22 3e 4c a9 46 be
       0.025175659 0.21804285 0.15877783 -0.19400519
000020 ab 35 89 bd 24 de 0c be b7 79 5c bd 97 b4 0e 3e
       -0.066996895 -0.13756615 -0.053827014 0.13936077
000030 b3 d6 3c be 7c 82 29 3d 5c 11 7e be 0d 17 49 3d
       -0.18441276 0.041384205 -0.2481131 0.04909425
000040 63 6f 33 be fe bc 52 be 4a 8f ad bd ed 42 6d be
       -0.1752296 -0.20579907 -0.08474596 -0.23170061
000050 ff 35 15 be e2 88 90 bd fb b6 ad bd 6f 49 87 bd
       -0.14571379 -0.07057358 -0.084821664 -0.06605803
000060 54 85 a9 bd bf 1a 55 be 9e df b8 bb eb c7 48 3e
       -0.082773834 -0.20810984 -0.0056418916 0.19607513
000070 37 24 c6 bd 49 95 95 bc c1 a8 bf bd b5 59 0e be
       -0.09674876 -0.018259661 -0.09358359 -0.13901408
000080 54 23 f2 3b b0 1a cc 3c 08 73 dd 3c 2b d5 63 3e
       0.0073894653 0.02491507 0.02703239 0.22249286
000090 51 cf 96 3d f6 99 06 3e 35 fc 8e bd e6 5f f2 3d
       0.07363761 0.13144669 -0.069816984 0.118346974
0000a0 dd 47 82 3d 7b 9d 09 be c7 62 da bb e0 49 42 3e
       0.06361363 -0.1343898 -0.006664607 0.18973494
0000b0 8d c1 6f bd b9 32 4b be 19 ab 9e bd 0a 19 ef 3d
       -0.058534194 -0.19843568 -0.07747478 0.11674698
0000c0 1d 62 fe bd 6a eb 90 3c 9f a5 90 be bb 07 55 bd
       -0.124210574 0.01769038 -0.2825136 -0.052009325
0000d0 91 45 7b be 38 f3 5f be b5 b7 b2 bd a8 24 0c 3e
       -0.24538256 -0.21870124 -0.087264456 0.13685858
0000e0 bb b8 bd 3d bc 0b 23 be d6 32 1c 3e 86 49 2e 3e
       0.0926375 -0.15922445 0.15253767 0.17020234
0000f0 9c 3e 28 bd e7 96 4a 3e 48 2c e2 bc 0c cb ea 3d
       -0.041075334 0.19784127 -0.027609006 0.11464509
000100 f8 9d 45 be 94 ab 36 3d 6e b8 94 bd e8 06 1a 3e
       -0.19298542 0.044597223 -0.0726174 0.15041697
000110 9c 22 5b bd ab a8 17 3e 96 04 b8 bd 9e d6 b5 bd
       -0.053499803 0.14810435 -0.0898525 -0.088788256
000120 38 e0 07 3e c5 38 a6 3b bb 2b be bd af 25 6d 3d
       0.13269126 0.0050726854 -0.09285685 0.057897266
000130 b5 d9 30 3e f3 ec 39 be 27 d7 6b be 16 fe 3c 3c
       0.17270549 -0.18156795 -0.23031293 0.011535188
000140 af 04 59 3c 89 73 08 3e a9 3e 82 be ab a4 05 3e
       0.013245746 0.13325323 -0.2543843 0.13051097
000150 90 73 a0 3d 6d 7d 05 be 9f b2 c2 3d dc 90 a4 bd
       0.07834542 -0.13036127 0.095067255 -0.08035442
000160 47 e5 8e be fc 87 30 be b0 7b c4 bd 3f 94 b3 3d
       -0.279093 -0.17239374 -0.09593904 0.0876851
000170 4e 7a 55 be 9f c3 39 bd 15 14 93 bc f3 e6 20 be
       -0.20847437 -0.045352574 -0.017953912 -0.157131
000180 3b fc 5e 3e ca 97 8f 3d 40 11 e6 bd 25 86 7e bd
       0.21775906 0.07011373 -0.11233759 -0.06213965
000190 6d 82 2e 3e e7 e7 e9 bd 23 72 f0 3a 3a 65 55 3d
       0.17041941 -0.11421185 0.0018344562 0.05209849
0001a0 9a 25 ad bd 33 a7 cb bd ac fe ef 3d 52 47 63 be
       -0.084544376 -0.09944 0.11718497 -0.22195175
0001b0 c0 a8 90 bd f2 78 53 3e b8 d1 86 bd 57 ab 36 3e
       -0.070634365 0.20651606 -0.065829694 0.17838798
0001c0 1a d1 1e bd 82 d6 d1 bd e1 17 87 3e 24 49 0d 3e
       -0.038773634 -0.10245992 0.26385406 0.13797432
0001d0 a8 49 16 3e b9 0e 53 3c e9 92 00 3d 56 20 f9 3d
       0.14676535 0.012881928 0.031390104 0.12164371
0001e0 b6 cc 43 3e 21 19 63 be 0e 61 3e 3e c1 10 3e be
       0.1912106 -0.22177555 0.18591711 -0.18561079
0001f0 0a 53 94 3c 45 4f f7 3d 2d 56 a0 bd 03 44 06 bd
       0.018106002 0.12075666 -0.07828937 -0.032779705
000200 f2 2f 18 3e ee f8 38 be e1 17 02 be a4 20 e8 bd
       0.1486204 -0.18063709 -0.12704422 -0.11334351
000210 58 a7 82 3e 68 5a 1c be a6 c4 3d be cb 67 78 3e
       0.25518298 -0.15268862 -0.18532047 0.24258344
000220 db 66 36 be d6 b5 8c 3d 4a d7 b2 bb 7b ac b1 3d
       -0.17812674 0.0687062 -0.0054577934 0.08675476
000230 08 9d 5d 3e db 35 28 bd d1 b3 e7 b9 c1 54 5e bd
       0.21641934 -0.041066986 -0.00044193727 -0.054280046
000240 61 db 24 3e c6 82 70 bd 84 15 35 bd f3 8f b2 bd
       0.16099311 -0.058718465 -0.044209972 -0.087188624
000250 37 58 a8 3d 07 06 3d be d9 7f 9c bc e1 81 05 3d
       0.08219951 -0.1845933 -0.019103931 0.032594565
000260 b9 85 e3 bd d7 03 7f 3c 6e e1 5f bc 89 55 ed 3d
       -0.1110949 0.01556488 -0.0136645865 0.1158858
000270 c4 1c b2 bd c1 e9 47 be 6f 5e 24 bb 42 4c 3b 3e
       -0.08696893 -0.19522764 -0.00250807 0.18290809
000280 43 f2 06 3e de 65 1f be b4 78 ca 3d cc 26 59 3e
       0.13178353 -0.15566203 0.098863035 0.21206206
000290 8e e2 43 bd 61 8f 0c be a6 10 dc 3d 18 ab 1b 3e
       -0.04782348 -0.1372657 0.10745363 0.15201986
0002a0 cd c3 37 bc b4 d2 f5 3d 74 c0 08 3e 3c 5b 29 3e
       -0.011216116 0.12003079 0.13354665 0.1653871
0002b0 e3 34 2e bd 17 8a 12 3d 3b af f2 3d 48 31 f9 3d
       -0.042530905 0.035776224 0.11849829 0.12167603
0002c0 79 f0 a8 3d eb dd af 3d ea 26 b3 3c 8f 2a 3d be
       0.082489915 0.08587249 0.021869142 -0.18473266
0002d0 e3 a0 37 3d a1 5b 0f be c8 16 59 be dd dc 0d 3e
       0.044831168 -0.13999797 -0.21200097 0.13853784
0002e0 1f bf d1 3d 8f 86 0d 3c 8b 1e 8c bc 86 3e e7 3d
       0.102415316 0.008638038 -0.017104408 0.11291222
0002f0 97 a2 c8 3d af 16 29 3e b7 92 0d bd a0 31 1d 3e
       0.097966366 0.1651256 -0.034563746 0.15350962
000300 69 6b 8f 3a a9 86 a4 3d d8 89 8f 3d 22 5a 21 3c
       0.0010942045 0.08033497 0.070087135 0.0098481495
000310 bc a7 f5 3d ef 6e 0e 3e ac c0 0a 3e 5d 36 e9 bd
       0.119948834 0.13909505 0.13550061 -0.11387322
000320 5e cc f0 bc 46 05 bb 3d 03 b9 fc bd 57 8c 7e be
       -0.029394325 0.09131865 -0.12339976 -0.24858223
000330 07 b7 24 3e 20 1c 88 3e 3c 3c 99 bd c2 a1 40 3e
       0.16085444 0.26583958 -0.07482192 0.18811706
000340 a1 fe 23 be 0f 3d 07 be c8 ab 4f be eb 25 80 be
       -0.16015102 -0.13206886 -0.20280373 -0.2502893
000350 b4 59 14 be cc c2 05 3e 7e 7f ab 3a 22 d0 13 3d
       -0.14487344 0.1306259 0.001308426 0.036087163
000360 44 e2 41 be b2 e6 90 3d 24 b1 36 3e 94 43 61 be
       -0.1893397 0.07075252 0.17841011 -0.21998435
000370 a5 3b 30 3d 48 b3 33 3c f3 d0 3b be dc 07 9c bc
       0.04302563 0.010968037 -0.18341427 -0.019046716
000380 28 15 e7 bd b7 59 98 3d 77 58 c0 3d 21 d0 fd bc
       -0.11283332 0.07438987 0.09391873 -0.030983033
000390 68 a7 37 3d 8c 58 fa 3c 2b 17 82 3e 00 eb 5b 3d
       0.044837385 0.0305598 0.254083 0.05369091
0003a0 dc 39 29 3e 84 c0 2f be 80 7e be 3d 0e 81 d7 bc
       0.16525978 -0.17163283 0.09301472 -0.026306655
0003b0 94 85 0e 3e 3b eb 3d bd 4a 4e 17 be 92 fc 8c bd
       0.13918144 -0.04636691 -0.14775959 -0.068841115
0003c0 44 d7 47 3e 26 92 1c be 09 60 6c bd a9 7f 30 be
       0.19515711 -0.15290126 -0.057708774 -0.17236198
0003d0 00 ac 9a 3d 36 fd 4b bd 77 46 36 3e dc 81 01 3e
       0.07552338 -0.049802028 0.17800318 0.12647194
0003e0 a2 95 43 bd d9 16 21 be 29 22 27 be 7a 6c 34 3e
       -0.047750123 -0.15731372 -0.16321625 0.17619506
0003f0 3e e4 56 be 5b 62 75 bd 67 6d 34 be 3d ee e7 bc
       -0.20985505 -0.059908252 -0.17619859 -0.028311843

_transform._transforms.0.autoregressive_net.blocks.1.linear_layers.0.bias f4 [20]
000000 d6 fc 11 3e d0 f2 ff 3d 14 f4 52 be 13 b1 0b be
       0.14256606 0.12497485 -0.20600921 -0.13641767
000010 c8 71 a0 bd 29 77 e0 bc 2a ca f9 3d 4e 9a 15 3e
       -0.07834202 -0.02740057 0.12196763 0.14609644
000020 4c 3e 2d 3e db 5f 2d be c3 a8 e0 bd 64 57 1d 3e
       0.16918296 -0.16931097 -0.10969689 0.15365368
000030 47 3e 0a be 9d 2c 34 3d a4 44 7c 3d 74 a9 f2 3d
       -0.1350032 0.04398786 0.0615889 0.11848727
000040 d8 75 32 3c a3 c1 0c be da fb 57 3e 17 27 1d 3e
       0.010892354 -0.13745742 0.21092167 0.15346943

_transform._transforms.0.autoregressive_net.blocks.1.linear_layers.0.mask f4 [20, 20]
000000 00 00 80 3f 00 00 80 3f 00 00 80 3f 00 00 80 3f
       1.0 1.0 1.0 1.0
000010 00 00 80 3f 00 00 80 3f 00 00 80 3f 00 00 80 3f
       1.0 1.0 1.0 1.0
000020 00 00 80 3f 00 00 80 3f 00 00 80 3f 00 00 80 3f
       1.0 1.0 1.0 1.0
000030 00 00 80 3f 00 00 80 3f 00 00 80 3f 00 00 80 3f
       1.0 1.0 1.0 1.0
000040 00 00 80 3f 00 00 80 3f 00 00 80 3f 00 00 80 3f
       1.0 1.0 1.0 1.0
000050 00 00 80 3f 00 00 80 3f 00 00 80 3f 00 00 80 3f
       1.0 1.0 1.0 1.0
000060 00 00 80 3f 00 00 80 3f 00 00 80 3f 00 00 80 3f
       1.0 1.0 1.0 1.0
000070 00 00 80 3f 00 00 80 3f 00 00 80 3f 00 00 80 3f
       1.0 1.0 1.0 1.0
000080 00 00 80 3f 00 00 80 3f 00 00 80 3f 00 00 80 3f
       1.0 1.0 1.0 1.0
000090 00 00 80 3f 00 00 80 3f 00 00 80 3f 00 00 80 3f
       1.0 1.0 1.0 1.0
0000a0 00 00 80 3f 00 00 80 3f 00 00 80 3f 00 00 80 3f
       1.0 1.0 1.0 1.0
0000b0 00 00 80 3f 00 00 80 3f 00 00 80 3f 00 00 80 3f
       1.0 1.0 1.0 1.0
0000c0 00 00 80 3f 00 00 80 3f 00 00 80 3f 00 00 80 3f
       1.0 1.0 1.0 1.0
0000d0 00 00 80 3f 00 00 80 3f 00 00 80 3f 00 00 80 3f
       1.0 1.0 1.0 1.0
0000e0 00 00 80 3f 00 00 80 3f 00 00 80 3f 00 00 80 3f
       1.0 1.0 1.0 1.0
0000f0 00 00 80 3f 00 00 80 3f 00 00 80 3f 00 00 80 3f
       1.0 1.0 1.0 1.0
000100 00 00 80 3f 00 00 80 3f 00 00 80 3f 00 00 80 3f
       1.0 1.0 1.0 1.0
000110 00 00 80 3f 00 00 80 3f 00 00 80 3f 00 00 80 3f
       1.0 1.0 1.0 1.0
000120 00 00 80 3f 00 00 80 3f 00 00 80 3f 00 00 80 3f
       1.0 1.0 1.0 1.0
000130 00 00 80 3f 00 00 80 3f 00 00 80 3f 00 00 80 3f
       1.0 1.0 1.0 1.0
000140 00 00 80 3f 00 00 80 3f 00 00 80 3f 00 00 80 3f
       1.0 1.0 1.0 1.0
000150 00 00 80 3f 00 00 80 3f 00 00 80 3f 00 00 80 3f
       1.0 1.0 1.0 1.0
000160 00 00 80 3f 00 00 80 3f 00 00 80 3f 00 00 80 3f
       1.0 1.0 1.0 1.0
000170 00 00 80 3f 00 00 80 3f 00 00 80 3f 00 00 80 3f
       1.0 1.0 1.0 1.0
000180 00 00 80 3f 00 00 80 3f 00 00 80 3f 00 00 80 3f
       1.0 1.0 1.0 1.0
000190 00 00 80 3f 00 00 80 3f 00 00 80 3f 00 00 80 3f
       1.0 1.0 1.0 1.0
0001a0 00 00 80 3f 00 00 80 3f 00 00 80 3f 00 00 80 3f
       1.0 1.0 1.0 1.0
0001b0 00 00 80 3f 00 00 80 3f 00 00 80 3f 00 00 80 3f
       1.0 1.0 1.0 1.0
0001c0 00 00 80 3f 00 00 80 3f 00 00 80 3f 00 00 80 3f
       1.0 1.0 1.0 1.0
0001d0 00 00 80 3f 00 00 80 3f 00 00 80 3f 00 00 80 3f
       1.0 1.0 1.0 1.0
0001e0 00 00 80 3f 00 00 80 3f 00 00 80 3f 00 00 80 3f
       1.0 1.0 1.0 1.0
0001f0 00 00 80 3f 00 00 80 3f 00 00 80 3f 00 00 80 3f
       1.0 1.0 1.0 1.0
000200 00 00 80 3f 00 00 80 3f 00 00 80 3f 00 00 80 3f
       1.0 1.0 1.0 1.0
000210 00 00 80 3f 00 00 80 3f 00 00 80 3f 00 00 80 3f
       1.0 1.0 1.0 1.0
000220 00 00 80 3f 00 00 80 3f 00 00 80 3f 00 00 80 3f
       1.0 1.0 1.0 1.0
000230 00 00 80 3f 00 00 80 3f 00 00 80 3f 00 00 80 3f
       1.0 1.0 1.0 1.0
000240 00 00 80 3f 00 00 80 3f 00 00 80 3f 00 00 80 3f
       1.0 1.0 1.0 1.0
000250 00 00 80 3f 00 00 80 3f 00 00 80 3f 00 00 80 3f
       1.0 1.0 1.0 1.0
000260 00 00 80 3f 00 00 80 3f 00 00 80 3f 00 00 80 3f
       1.0 1.0 1.0 1.0
000270 00 00 80 3f 00 00 80 3f 00 00 80 3f 00 00 80 3f
       1.0 1.0 1.0 1.0
000280 00 00 80 3f 00 00 80 3f 00 00 80 3f 00 00 80 3f
       1.0 1.0 1.0 1.0
000290 00 00 80 3f 00 00 80 3f 00 00 80 3f 00 00 80 3f
       1.0 1.0 1.0 1.0
0002a0 00 00 80 3f 00 00 80 3f 00 00 80 3f 00 00 80 3f
       1.0 1.0 1.0 1.0
0002b0 00 00 80 3f 00 00 80 3f 00 00 80 3f 00 00 80 3f
       1.0 1.0 1.0 1.0
0002c0 00 00 80 3f 00 00 80 3f 00 00 80 3f 00 00 80 3f
       1.0 1.0 1.0 1.0
0002d0 00 00 80 3f 00 00 80 3f 00 00 80 3f 00 00 80 3f
       1.0 1.0 1.0 1.0
0002e0 00 00 80 3f 00 00 80 3f 00 00 80 3f 00 00 80 3f
       1.0 1.0 1.0 1.0
0002f0 00 00 80 3f 00 00 80 3f 00 00 80 3f 00 00 80 3f
       1.0 1.0 1.0 1.0
000300 00 00 80 3f 00 00 80 3f 00 00 80 3f 00 00 80 3f
       1.0 1.0 1.0 1.0
000310 00 00 80 3f 00 00 80 3f 00 00 80 3f 00 00 80 3f
       1.0 1.0 1.0 1.0
000320 00 00 80 3f 00 00 80 3f 00 00 80 3f 00 00 80 3f
       1.0 1.0 1.0 1.0
000330 00 00 80 3f 00 00 80 3f 00 00 80 3f 00 00 80 3f
       1.0 1.0 1.0 1.0
000340 00 00 80 3f 00 00 80 3f 00 00 80 3f 00 00 80 3f
       1.0 1.0 1.0 1.0
000350 00 00 80 3f 00 00 80 3f 00 00 80 3f 00 00 80 3f
       1.0 1.0 1.0 1.0
000360 00 00 80 3f 00 00 80 3f 00 00 80 3f 00 00 80 3f
       1.0 1.0 1.0 1.0
000370 00 00 80 3f 00 00 80 3f 00 00 80 3f 00 00 80 3f
       1.0 1.0 1.0 1.0
000380 00 00 80 3f 00 00 80 3f 00 00 80 3f 00 00 80 3f
       1.0 1.0 1.0 1.0
000390 00 00 80 3f 00 00 80 3f 00 00 80 3f 00 00 80 3f
       1.0 1.0 1.0 1.0
0003a0 00 00 80 3f 00 00 80 3f 00 00 80 3f 00 00 80 3f
       1.0 1.0 1.0 1.0
0003b0 00 00 80 3f 00 00 80 3f 00 00 80 3f 00 00 80 3f
       1.0 1.0 1.0 1.0
0003c0 00 00 80 3f 00 00 80 3f 00 00 80 3f 00 00 80 3f
       1.0 1.0 1.0 1.0
0003d0 00 00 80 3f 00 00 80 3f 00 00 80 3f 00 00 80 3f
       1.0 1.0 1.0 1.0
0003e0 00 00 80 3f 00 00 80 3f 00 00 80 3f 00 00 80 3f
       1.0 1.0 1.0 1.0
0003f0 00 00 80 3f 00 00 80 3f 00 00 80 3f 00 00 80 3f
       1.0 1.0 1.0 1.0
