symmetry-informed-flows/notebooks/SineGaussian/sine-gaussian-similarity-embedding-weights.pth (torch, 33559 bytes, 23 tensors)

layers_f.initial_layer.weight f4 [10, 50, 5]
00000000: 8f84 e7bc 0eda 62bd 1f77 00bd e881 ed3c
00000010: 1dd4 343b 6c25 673b 38f1 113b bc37 7bbd
00000020: 2490 13bd db43 be3c 7625 f0bc df7c 783d
00000030: 181a 18bd 4585 4f3d fd3e 38bd 3adb c6bc
00000040: 400b 0cbd 998b 96bd 6e26 b0bc ea1b 9ebd
00000050: 3c82 22bc aa33 8ebd 2764 8bbd 0f4d 9dbc
00000060: c1d3 69bb eb9d 733b d142 fbbc b943 eabc
00000070: 9e9a 84bc 83ab 29bd 137f 73bd 2714 6f3c
00000080: 6c45 8ebd bc24 9cbd 6c93 b8b9 f9d1 0c3c
00000090: 9b56 35bd b5f1 c6bc a762 a7bc 8445 b3bd
000000a0: 1f41 93bd 8071 37bd e310 b53b 9d50 693c
000000b0: 7480 f83b 357f 8b3a 2992 cf3c 54dc c9bd
000000c0: 66c9 a7bd 2d0a 05bd c4af a2bc 22b6 d93c
000000d0: 89fa 1abd 21e2 af3b edf6 84bd 9dcf 45bd
000000e0: fd95 a5bd b1d8 d9ba 09db c03b 73d0 423d
000000f0: 1dea dabc c23d 8dbd 647b 1fbd 230d 2b3b
00000100: 2249 32bc 3885 90bd fd2b d13c bb34 30bd
00000110: 1c5e 72bc 9768 a0bd 3961 5fbd 1783 cd3a
00000120: e9d2 213d bba2 9bbd fb41 363b 4868 94bd
00000130: 0777 a6bd 6eea 58bc 6a20 9f3b ecc0 cb3c
00000140: 5dd5 31bd 7a8c 5d3c abc7 a6bd 4641 ba3b
00000150: c0ca 69bd e0aa 22bd 6466 69bd 107e 38bb
00000160: a957 c43c 888e 07bc 6e22 f7bc edc7 f8bc
00000170: f369 40bd 8fc9 753c bbb2 50bd 3659 12bc
00000180: 7489 723c a1d8 9ebd 463b 9ebd 7c36 ca3c
00000190: 4a9c 35bd 01d9 6cbd 02a2 013d f362 eebb
000001a0: dfa3 ebbc b207 3fbd e590 56bd c8d7 3b3b
000001b0: b2e4 2d3a bf94 73bc 1dc1 ebbc fc97 75bd
000001c0: 2f85 cc3c 2104 3fbd 69d1 18bd 5ebc 793b
000001d0: fa4c c4bc 445f a9bc 7c06 21bc 9f7e cbbd
000001e0: becd 08bd d519 463d 5b85 88bc d677 dd3b
000001f0: a07a 1ebd 7442 1bbd c28a 2d3d 28b7 56bd
00000200: 2a10 253d b01e 22bd df4a bb3b 48aa 76bd
00000210: 4e11 44bd d9bb 1fbd 4737 5abd 0723 383c
00000220: efd6 963b a77b a6bd c826 873c f19f 55bb
00000230: a24c a8bd 4805 ac3b c2f3 aebc 6c27 e33c
00000240: 2437 8fbd 3049 473b b434 1c3c 3d79 88bd
00000250: e00e 16bc 6cbc 2bbd 9c9c 81bd 8490 47bc
00000260: fd64 9bbc 2cfe 88bd e83e 7d3c 4ae2 97bd
00000270: 4749 d13c 3d90 1e3d 238c 573c 8f08 b1bc
00000280: 59d0 8ebd 8647 623c 2d1d 303c 6bc7 0a3d
00000290: 4ae1 89bd bec8 673b fb79 f0bc 7cca 7dbb
000002a0: 8942 01bd c485 52bd fcb5 83bd f058 d9bc
000002b0: 8ea6 8d3b b42b fbbc 9a3f 5d3c e73a b53c
000002c0: 3f39 2dbd 9aae b5bd 37f6 d1bc cb39 84bd
000002d0: 1be4 023d 585e 083a 16ba 20bd 8191 3f3c
000002e0: a3c6 34bd a9df 9ebb 4cef 18bd 3707 6bbd
000002f0: 1e36 58bc 0f2a ddbc c8a6 ddbd 9e35 07bd
00000300: f809 3abd 3c9e 19bd 4efe b1bc e526 6cbd
00000310: c416 80bd 2c91 5cbd fdc7 86bd 8139 0b3d
00000320: c34a 04bc d531 70bd f5f1 e9bc 59ee d23c
00000330: c138 20bd 1467 7a3c c4a5 92bd 3489 9bbd
00000340: 2107 debc b88d b33c 7513 2fbd 137c 70bd
00000350: 81ad 4fbd 48dd 1d3d 545e a1bd f2a8 faba
00000360: 6dc8 1dbd 16ce 11bd ccd8 6bbc 3d18 c3ba
00000370: 56dc a839 8914 97bc e7e4 533c 2347 0cbd
00000380: ae85 3ebc 2a28 01bd ccd0 12bd 1272 8ebd
00000390: f696 9fbd bb40 b2bd 1f0d 943c bc7b 87bd
000003a0: 583b 75bd bf0e 1ebd 380b 08bc b590 993c
000003b0: e8fb 2b3c 8713 e4ba e195 18bd 4828 89bd
000003c0: 3331 143d d660 92bd f40f 873c 475e b0bd
000003d0: 6cc2 8abd e7cc 8ebc 4ef3 e0bc 65d6 8ebd
000003e0: 69ae 2ebd 1491 f9bc 18c0 663d eeed c2bc
000003f0: 9053 213c 6279 27bd 619e bd3c 46fa 0b3d
-0.028261451 -0.055383734 -0.031363603 0.028992608 0.002759225 0.0035270108 0.0022269022 -0.06133245
-0.036026135 0.023225715 -0.029314738 0.06066596 -0.03713426 0.050664205 -0.044981945 -0.024274457
-0.034190416 -0.07350845 -0.0215027 -0.07720168 -0.009918746 -0.06943448 -0.06806212 -0.019201783
-0.0035679194 0.0037172984 -0.030671509 -0.028596746 -0.016187008 -0.041423332 -0.05944736 0.014592207
-0.06946835 -0.07624194 -0.00035205053 0.008594983 -0.044272047 -0.024285177 -0.020432783 -0.087534934
-0.07190155 -0.044785976 0.0055256947 0.014240411 0.007583672 0.0010642769 0.02533825 -0.098564774
-0.081927106 -0.032480408 -0.019859202 0.026576106 -0.037836585 0.005367533 -0.0649241 -0.0482937
-0.080852486 -0.0016620365 0.005885486 0.047562074 -0.026722962 -0.06896545 -0.038936034 0.002610036
-0.010881694 -0.070566595 0.02553367 -0.043019038 -0.014792945 -0.07832449 -0.054536078 0.0015679327
0.03950778 -0.07599398 0.0027810324 -0.072464526 -0.081281714 -0.013239486 0.004856159 0.024872266
-0.04341637 0.013522262 -0.081435524 0.0056840507 -0.057078123 -0.03971374 -0.056982413 -0.002815131
0.02396758 -0.008273728 -0.030167785 -0.03036877 -0.04697604 0.015001669 -0.0509517 -0.008932402
0.014803279 -0.077561624 -0.07726149 0.024684183 -0.044338502 -0.05782414 0.031648643 -0.0072749793
-0.028764663 -0.0466382 -0.052384276 0.0028662551 0.00066335045 -0.014867007 -0.028778607 -0.059959397
0.02496585 -0.046634797 -0.037309084 0.003810666 -0.023962487 -0.020675309 -0.009828206 -0.099362604
-0.033399336 0.04836448 -0.016665151 0.0067586703 -0.038691163 -0.03790517 0.042368658 -0.052420765
0.04029862 -0.039580047 0.0057157124 -0.060220987 -0.047868066 -0.038997505 -0.053275373 0.01123882
0.004603259 -0.081290536 0.016497985 -0.0032596553 -0.082177415 0.005249653 -0.021356467 0.027728759
-0.06992939 0.0030408613 0.00953405 -0.06663749 -0.00915882 -0.04192774 -0.06328699 -0.012180451
-0.018969053 -0.066891044 0.015456893 -0.07416208 0.025547637 0.038711775 0.01315597 -0.021610526
-0.06973333 0.013810998 0.010749144 0.033881586 -0.067324236 0.0035367454 -0.02935504 -0.0038725426
-0.031557593 -0.0513971 -0.06431195 -0.026531667 0.0043228334 -0.030660488 0.013503933 0.022122813
-0.042290922 -0.08871193 -0.0256301 -0.06456336 0.03195582 0.00052020466 -0.039239965 0.011692406
-0.044134747 -0.0048484397 -0.037337586 -0.057379927 -0.013196496 -0.026997594 -0.108228266 -0.033010118
-0.045419663 -0.03750442 -0.021727707 -0.05765428 -0.06254342 -0.053849384 -0.065811135 0.033990387
-0.008074465 -0.058641274 -0.028557757 0.025748419 -0.039116625 0.015283365 -0.071605235 -0.07594529
-0.027103009 0.021918163 -0.042743165 -0.058712076 -0.050702576 0.03854111 -0.0787932 -0.0019123836
-0.03852122 -0.03559693 -0.01439495 -0.0014884543 0.0003220762 -0.01844241 0.012932993 -0.03424753
-0.011628551 -0.031532444 -0.035843655 -0.06955351 -0.077924654 -0.087037526 0.018072663 -0.06615397
-0.059871048 -0.03858828 -0.008303456 0.01874576 0.010497071 -0.0017400839 -0.03725231 -0.06697136
0.036179733 -0.07147376 0.0164871 -0.08611732 -0.06775364 -0.01743169 -0.027459767 -0.06974486
-0.0426468 -0.030464686 0.05633554 -0.023795094 0.009846583 -0.040887244 0.02314681 0.034174226

layers_f.initial_layer.bias f4 [10]
00000000: 87b2 cebd 0c9b 053e c7e9 1d3e ccb9 4fbd
00000010: f727 803d d1b9 f83d aee3 003e 18c7 d23d
00000020: bb74 b1bd 926c 063e
-0.10092645 0.13047427 0.1542121 -0.0507143 0.06257623 0.12144817 0.12586853 0.1029188
-0.08664843 0.13127354

layers_f.blocks.0.batch_norm_layers.0.weight f4 [10]
00000000: f6e8 8b3f c8bc 6f3f 029b 6f3f 7297 863f
00000010: fd33 803f 8962 6e3f 0e78 7b3f 0619 6a3f
00000020: dad4 863f aafc 763f
1.0930469 0.9364743 0.935959 1.0514967 1.0015866 0.931191 0.98230064 0.9144443
1.0533707 0.96479285

layers_f.blocks.0.batch_norm_layers.0.bias f4 [10]
00000000: 1ba5 513d 9da1 093e eadf c7bd 835f 88bd
00000010: 8903 103e 73e5 8cbd 0385 043e 14ee 73bd
00000020: 579f 2b3e 8297 013e
0.051182847 0.13440557 -0.09759505 -0.066588424 0.14063849 -0.068797015 0.12941365 -0.05955322
0.16760002 0.12655452

layers_f.blocks.0.batch_norm_layers.0.running_mean f4 [10]
00000000: 4e74 fbbd be51 143e a87a 1f3e ef0c 98bd
00000010: 9eb1 ab3d 0afd 123e b43d 153e e296 f33d
00000020: b7bd e4bd bdab 193e
-0.12278043 0.14484307 0.15574133 -0.07424342 0.08383487 0.14354339 0.14574319 0.11894013
-0.11168998 0.15006919

layers_f.blocks.0.batch_norm_layers.0.running_var f4 [10]
00000000: 3c89 1040 c1d4 7e3f 0bb7 033d e861 2c40
00000010: 9fb4 0b40 cc21 1740 b3c4 ee3f 67a2 9e3f
00000020: 9f59 3f40 6c70 d83f
2.2583761 0.99543387 0.032156985 2.6934757 2.1828992 2.3614378 1.8653778 1.2393311
2.989845 1.6909308

layers_f.blocks.0.batch_norm_layers.1.weight f4 [10]
00000000: 5e21 803f a2be 883f e953 823f 990a 7e3f
00000010: 878f 873f 3ecd 7f3f be46 823f 9c3a 833f
00000020: 539b 853f 34ea 823f
1.0010183 1.0683177 1.0181857 0.9923492 1.0590676 0.9992255 1.0177839 1.0252261
1.0438026 1.0227723

layers_f.blocks.0.batch_norm_layers.1.bias f4 [10]
00000000: 7820 173e 25c7 e3bd b342 903c 0fe0 083e
00000010: a47e a0bd 41ba 053e eb42 ce3c 21d4 503d
00000020: 000a e6bd 5d80 f43c
0.1475848 -0.11121968 0.01760993 0.13366722 -0.07836655 0.13059331 0.025178393 0.050983552
-0.11232376 0.029846365

layers_f.blocks.0.batch_norm_layers.1.running_mean f4 [10]
00000000: d49e d8be 376e 553e 1f6a 693e 5cb0 ccbe
00000010: a1e7 e73d 71d0 edbe 9ea3 653e f766 283e
00000020: 4123 6e3b 1245 813e
-0.42308676 0.20842825 0.22794388 -0.39978302 0.113234766 -0.4644809 0.22425696 0.16445528
0.003633693 0.2524801

layers_f.blocks.0.batch_norm_layers.1.running_var f4 [10]
00000000: ca6f 6e3f 4c79 7b3f d43a cd3f f856 463f
00000010: 1e9b 423f fcee 1d3f 6c50 ae3f 65bb a33f
00000020: 3323 3e3f 727a d73f
0.93139327 0.9823196 1.6033578 0.77476454 0.7601794 0.61692786 1.3618293 1.2791563
0.7427246 1.6834242

layers_f.blocks.0.conv_layers.0.weight f4 [10, 10, 5]
00000000: 03b1 efbd 3b42 67bd 231b a6bd 9a33 02bd
00000010: 2ed2 18be f844 983d 0891 4e3b 88b7 1bbe
00000020: f1da d1bc 7a65 7b3d 78e9 b9bc 5215 bdbd
00000030: 34b1 013e 5c19 2a3c 8bac 92bd ec31 dbbd
00000040: bfc8 59be 4faf 43be 0f06 14bd a01d c5bc
00000050: 2b7e a7bd ba1e d3bc efc1 843d 5519 013e
00000060: c964 c3bc ef59 f23d e140 873c df9d f63d
00000070: a88d 06be 55a0 073e eb03 6b3d 5d2d 85bd
00000080: 2f94 ba3d 74e4 a0bd 4906 ddbd 0b7f 27bc
00000090: a395 b13c f231 273d d025 153e 1e38 94bd
000000a0: e86a 41be f43c fbbd 97f0 16be e113 a1bd
000000b0: 479e 463d 0c05 1a3d 1f50 f8ba f045 f73c
000000c0: 2d71 5d3d 4e87 f4bd 35b4 c13d a646 28bd
000000d0: e766 54bd ea82 1e3e 2e6b 293e 3602 38bb
000000e0: bbf9 f23d cb02 bdbd 6788 fdbd c40c e33d
000000f0: 40b2 37bb 8de3 adbd e861 b33d cce5 873d
00000100: 9119 b03d ed28 01bd 1ef9 353e 87df fb3c
00000110: c918 da3d 9e1d 0a3e 727a 9fbd 83be 9abd
00000120: 2ca3 d6bd 909d ffbd 3cd7 c53d 7a95 d0bd
00000130: 9421 913c 8c98 99bd d0f2 2d3c fd81 4dbd
00000140: 1311 9c3d cd5b 863c e370 7dbd 4538 02be
00000150: 6e47 8dbd e874 cc3b 9d3c 31bb dba5 0bbe
00000160: cea3 eabd 3927 af3b 2ded 10bc 1ed2 f33d
00000170: 2aad e93d a1d7 9d3d f860 483e 4365 9c3d
00000180: 2a19 ab3c c43b c53d 05e6 923c 07f9 fabd
00000190: 1399 41be 24ee 833d 6ace 9ebd 931c 413b
000001a0: 5e29 04be aa09 46bc e54c 99bc ac76 aa3d
000001b0: 17ac 9f3d d85a a73d a73d 30bd 4ddd cfbb
000001c0: 21b9 2f3e f09e da3d 6584 b5bd 0c08 debd
000001d0: 5153 a33d 119b ad3c 44ef 85bd 2770 c2bd
000001e0: eee4 0a3e e56d 0d3d c69d 253e d785 023e
000001f0: f457 273e b48c 1fbd e850 65bc 7b78 afbd
00000200: 6a9b 3c3e 8237 7bbd 033f a43d c28e 363e
00000210: 433d 2d3e b32a 243e 4923 78bd c687 debc
00000220: 9115 91bd 5d66 90bc 13d9 24bc dca8 5f3d
00000230: a14b 2abc 7a85 97bd 9495 873c a9d8 08be
00000240: d7e0 36bd af8b 253d e410 a1bd 50c6 b4bc
00000250: 800f 153e 0132 ce3d 27ee bfbd 988c bbbd
00000260: a5b7 9fbd 8f0e 58be e436 aa3c ac9e 5d3c
00000270: 3761 b03d 6a20 a0bd 8fae b4bd a67f d03d
00000280: f504 2ebd 69a1 b5bd 2368 fe3d 3f62 713d
00000290: 0e05 a5bd c5ad 53be 3336 3ebd 220b a6bd
000002a0: 5591 293d ee3a 41be 6b3a 93bc 8ef7 db3d
000002b0: f745 e3bd 7029 db3d a659 cfbd 1fcc 1f3e
000002c0: 7ad2 92bd 4d86 d33c bd73 b33d d616 a9bb
000002d0: 931a 403d b861 713d 462e 083d 4299 f33d
000002e0: b7b5 33bd 8aae bb3d 4a64 dabd ed97 493d
000002f0: 6478 b6bd 0376 a6bd 285e cdbd d711 74bd
00000300: 7054 dabd dc78 f2bc 0340 cabd d33a 013e
00000310: 2637 ddbd 3948 2f3d 2408 f9bc c4a1 17bd
00000320: 2bd4 cbbb 54d9 093e b22f a8bb a01b fc3c
00000330: 25df dd3d 8a79 a7bc 3b3e b23d f993 2cbe
00000340: db67 0d3d 7cd6 de3d 72c0 0c3e 9515 68bd
00000350: 0266 a33c e93b 9abd fb96 8dbc 42f1 1b3e
00000360: f24f d23d 7f7b 983d 9b1d a2bc 09bb b53d
00000370: dda1 fcbd a658 db3d aab5 46bd 7d79 913c
00000380: 814b f3bb addc 8ebd 2bce 673d 8164 9b3d
00000390: 5fc6 f2bd bf96 a63d 928a 2a3c 1fc0 b5bd
000003a0: 31a5 12bd b741 12be f96d ccbd f910 8d3d
000003b0: b53f ccbd bbd1 bd3d ed4c 16be da97 10be
000003c0: 82c1 b0bd 5150 d13d 9b81 643d 5830 623e
000003d0: e772 603e c439 f0bd 2ce3 0d3c 385f 783d
000003e0: fc06 ff3c 0885 8f3d c0bc 52be c338 2bbc
000003f0: a400 27be 7ecd 943d d804 8dbd b7e2 6bbc
-0.11703684 -0.056459647 -0.08110645 -0.031787492 -0.14923927 0.0743503 0.003151955 -0.1520673
-0.025617095 0.061376072 -0.022694334 -0.09232582 0.12665254 0.010382023 -0.07161816 -0.10702881
-0.21267985 -0.19109844 -0.03613859 -0.024061978 -0.081783615 -0.025771488 0.064823024 0.1260732
-0.023851769 0.1183356 0.016510429 0.1204183 -0.13139975 0.13244756 0.057376783 -0.06502793
0.09110295 -0.07856074 -0.107922144 -0.0102231605 0.021677798 0.040819116 0.14565206 -0.07237266
-0.18888438 -0.12267485 -0.14740215 -0.0786512 0.04849079 0.03760247 -0.0018944776 0.030184716
0.05406301 -0.1193987 0.094582 -0.041083 -0.051855948 0.15479627 0.16544792 -0.002807749
0.118640386 -0.09229048 -0.12379532 0.11086419 -0.002802983 -0.084906675 0.087589085 0.06635627
0.085986264 -0.03153317 0.17770812 0.030746235 0.10649259 0.1348786 -0.077870265 -0.075558685
-0.10480341 -0.124812245 0.09660193 -0.101847604 0.017716207 -0.07499799 0.010616973 -0.050172795
0.07620444 0.016401196 -0.061875235 -0.12716778 -0.0689839 0.0062395222 -0.0027044185 -0.13637488
-0.114570245 0.005345252 -0.00884561 0.11905311 0.114099815 0.077071436 0.1956824 0.07636502
0.020886023 0.0963054 0.017931947 -0.122545294 -0.1890605 0.06441906 -0.07754214 0.0029466494
-0.12906405 -0.012087265 -0.018713424 0.08323416 0.077964954 0.08171624 -0.043027546 -0.00634352
0.17160465 0.10674846 -0.08863143 -0.108413786 0.07974876 0.021192105 -0.06539777 -0.094940476
0.13563892 0.03452863 0.16173467 0.12746368 0.16342145 -0.038952544 -0.01399634 -0.08567902
0.18418661 -0.061332233 0.08019831 0.17827895 0.169179 0.16031913 -0.060580526 -0.027164351
-0.070841916 -0.017626936 -0.01006152 0.054604396 -0.010394008 -0.073985055 0.016550817 -0.133639
-0.044648018 0.040416416 -0.0786455 -0.022067219 0.14556694 0.10068131 -0.09371596 -0.091576755
-0.07798699 -0.21099304 0.020778127 0.0135266 0.08612292 -0.078186825 -0.08822357 0.10180597
-0.042485196 -0.08868677 0.12422206 0.058931585 -0.08057605 -0.20671757 -0.046438407 -0.08107592
0.041398365 -0.18870136 -0.017972192 0.10740577 -0.11097329 0.10701263 -0.10124521 0.1560521
-0.071690515 0.025820876 0.0876231 -0.005160193 0.046900343 0.058931082 0.033247255 0.11894466
-0.04387447 0.0916415 -0.1066366 0.049217153 -0.089096814 -0.08127978 -0.100277245 -0.059587326
-0.106606364 -0.029598646 -0.098754905 0.12620096 -0.10801534 0.042793486 -0.03039939 -0.037019506
-0.0062203608 0.1346181 -0.005132639 0.030774891 0.10833577 -0.020443697 0.08703276 -0.16853322
0.034522872 0.108807534 0.13745287 -0.056661207 0.019946102 -0.07530958 -0.017283907 0.15228751
0.102691546 0.0744543 -0.019789508 0.08873565 -0.123355605 0.10710268 -0.048513092 0.017758125
-0.0074247723 -0.06975684 0.0565931 0.07587529 -0.118542425 0.08134221 0.010409014 -0.08874535
-0.03580207 -0.1428288 -0.09981913 0.06888003 -0.09973089 0.092685185 -0.14677782 -0.14120427
-0.08630659 0.10220397 0.055787664 0.22088754 0.21918832 -0.11729768 0.008660119 0.060637683
0.03113126 0.070077956 -0.20579815 -0.010450545 -0.16308838 0.07265757 -0.068856895 -0.014397315

layers_f.blocks.0.conv_layers.0.bias f4 [10]
00000000: 66a6 c13c 1448 9abc fe27 88bd 5e31 2fbd
00000010: a2c9 0abe 77a5 98bd 9a42 2dbd f1c3 91bd
00000020: 51f2 0fbe e8d9 7cbd
0.023638915 -0.018833198 -0.06648253 -0.04277169 -0.1355348 -0.07453435 -0.042299844 -0.07117451
-0.1405728 -0.06173125

layers_f.blocks.0.conv_layers.1.weight f4 [10, 10, 5]
00000000: d5f8 c7bc 9659 a7bc ca58 46bc 45f0 e6bb
00000010: 7728 06ba e9c2 bc3c 7131 e53c a6eb cc3c
00000020: a661 003d 52c1 0a3d 0243 abbc 07ce 93bc
00000030: 7503 82bc cb43 73bc c698 73bc c134 a0bc
00000040: 05ef 55bc a3a2 10bc 9b74 9cbb e6a1 053b
00000050: 1770 aa3c 433c a43c 566c c53c 2686 e53c
00000060: 8711 0b3d 8786 b5bc aa11 82bc 9c44 5abc
00000070: 2d85 dfbb ad35 9dba 0f1c b3bc 09c4 9bbc
00000080: f687 7dbc c586 7bbc 7711 52bc ff7d b8bc
00000090: 2f34 b0bc 78f3 92bc d536 87bc 2c79 7fbc
000000a0: 858c b83c 790b d83c bd39 f83c 4a1a 143d
000000b0: 9eb5 203d 7e47 a6bc 2f93 92bc 92d8 8bbc
000000c0: 2d63 64bc 778b 79bc c6cf cd3c 4712 9d3c
000000d0: 491e 4e3c 0f01 e53b 6256 c0ba bafd b9bc
000000e0: 48f5 e6bc e247 d1bc 0db2 04bd 8bd6 16bd
000000f0: 66b0 a83c 8c5e 903c 50ee 853c 3a8b 813c
00000100: 32ae 623c ab3d a43c 2933 4b3c 774b bf3b
00000110: c60d 893b 26c8 84bb d467 b5bc 0121 a9bc
00000120: 9440 c5bc 56c2 ecbc 1a45 0ebd 2898 b83c
00000130: 935e 803c 266b 483c 1aae c03b 0823 b43a
00000140: 7947 b43c d9b9 993c fffe 753c 2e6c 693c
00000150: 74ad 543c e16e bc3c 656c ab3c 5fe2 8e3c
00000160: 63ea 8c3c 2b56 823c 1afc bbbc c366 e1bc
00000170: 3c48 03bd 9068 12bd 1ccf 24bd e0af a63c
00000180: a207 943c b7df 8c3c f9ea 5a3c 12f7 783c
00000190: d0d0 cb3c 2dc0 923c c2c4 3d3c 9d19 a63b
000001a0: 55c0 48bb 75a9 c2bc bfdc f0bc 967a e2bc
000001b0: a793 0bbd 4eca 1ebd 45f6 a33c 27f3 8c3c
000001c0: 1db1 8d3c b0b3 7b3c eba5 673c 5981 9a3c
000001d0: 5efb 503c 923c be3b 3fbc e03a 3955 a5bb
000001e0: aaca b7bc 24f4 b4bc 5827 cdbc 4709 f5bc
000001f0: dabe 10bd 829a b83c e19e 843c eaeb 473c
00000200: 826b c53b 98d1 eb39 0fad bb3c 34eb a13c
00000210: 5891 8a3c 505c 6b3c 8537 5f3c 3389 c03c
00000220: 46e1 ad3c c8be 983c 7adf 8c3c c584 843c
00000230: 83a4 c8bc 5c24 e8bc 6a5f 03bd bd37 17bd
00000240: 6474 29bd b284 a03c 623a a13c 4325 8e3c
00000250: 89fa 563c 3c88 843c 12c8 d1bc 9099 9dbc
00000260: bec7 58bc 54c6 e0bb bb4b 26b9 5433 bd3c
00000270: ca71 e73c e0b3 c33c 2013 fb3c f744 0b3d
00000280: 6dac a6bc 1ce6 90bc 1a24 83bc 16b1 74bc
00000290: c15f 60bc c8d9 98bc 96ab 52bc d4fb 04bc
000002a0: 1a44 6fbb e50a 573b 8509 b63c 6e4e af3c
000002b0: 75ff bf3c 1294 e23c a511 073d 7dbd b4bc
000002c0: 5488 88bc eccf 3ebc 7b66 f5bb 60b4 9fba
000002d0: 3255 afbc 9618 95bc d6fe 6bbc 10da 70bc
000002e0: 593c 65bc cccf b1bc 2b52 a4bc 64d7 95bc
000002f0: 644b 84bc 7d11 7cbc 57d5 c03c 324a dd3c
00000300: 75fe f53c 52ea 153d e995 1d3d 9933 a0bc
00000310: 1bbd 8ebc 8c81 8ebc c091 5dbc 2d9e 68bc
00000320: a78a d13c 3c61 a43c 7185 4c3c 0284 e63b
00000330: c685 83ba f28e b8bc 00f3 dfbc 1cd6 cfbc
00000340: 011e 02bd 38f8 0bbd 748b b03c 4605 973c
00000350: f1e3 8d3c 1830 7c3c 090c 613c 7bf0 a13c
00000360: 7e37 623c 71a3 0d3c f97a aa3b 1432 16bb
00000370: 3a12 a5bc 3147 a8bc 2235 c3bc e420 e5bc
00000380: 95c3 0abd 3282 b63c 1d9b 893c 890f 563c
00000390: c3b0 063c 06c2 a13a 9bdf ac3c 8a7d 943c
000003a0: 6d7f 883c 1dd1 693c 16e7 693c 0f08 b93c
000003b0: 86f0 b53c 30cf 8e3c ee16 8c3c 5bec 863c
000003c0: 0c6a b8bc 20ec d5bc 66e6 f7bc 0fcc 0fbd
000003d0: dd1f 1fbd f182 a53c 71c7 963c c3a5 8f3c
000003e0: df0a 5d3c fae2 7e3c 62d4 d93c c8dd 933c
000003f0: d693 193c 12db 353b fb88 aebb 9059 e2bc
-0.024410645 -0.02042846 -0.01210613 -0.0070476853 -0.0005117724 0.02304216 0.027977677 0.02501471
0.031343125 0.03387577 -0.020905975 -0.018042577 -0.015870789 -0.014847706 -0.014867967 -0.019556405
-0.013057475 -0.008827838 -0.0047746426 0.0020390688 0.020805402 0.020048266 0.02409951 0.028018069
0.033952262 -0.022158874 -0.015877564 -0.013322022 -0.0068212957 -0.0011994146 -0.021863965 -0.019014375
-0.01547431 -0.015351956 -0.012821547 -0.022521017 -0.021509258 -0.01793836 -0.016505638 -0.0155928545
0.022527942 0.026372658 0.03030097 0.036157884 0.039235704 -0.020297762 -0.017892448 -0.017071042
-0.013939661 -0.015231005 0.025123488 0.019173754 0.012580463 0.0069886516 -0.0014674182 -0.022703994
-0.028193131 -0.025546972 -0.032396365 -0.036825698 0.020591926 0.017623208 0.016348988 0.015813459
0.013835477 0.020048937 0.012402334 0.0058378535 0.00418255 -0.00405218 -0.022144236 -0.02064562
-0.024078645 -0.02890126 -0.03473387 0.022533491 0.015670097 0.012232577 0.0058801295 0.001374335
0.022006737 0.018765377 0.015014409 0.014246983 0.012980808 0.02300209 0.02092571 0.017441927
0.017201608 0.015910229 -0.02294736 -0.02751482 -0.03205131 -0.03574425 -0.040236577 0.020347536
0.018070046 0.01719652 0.013361686 0.015195625 0.024879843 0.017913902 0.011582555 0.0050689713
-0.0030632217 -0.023762444 -0.029402135 -0.027646344 -0.03407636 -0.03876715 0.020014891 0.017205788
0.017296368 0.015362665 0.014138679 0.018860506 0.012755243 0.0058055604 0.0017145945 -0.0050455597
-0.022435505 -0.022089072 -0.025043175 -0.02991165 -0.03533826 0.022534613 0.01618904 0.012202242
0.006024779 0.00044978852 0.02290967 0.019765474 0.016915008 0.014365271 0.013624077 0.023502922
0.021225583 0.01864566 0.017196406 0.01617659 -0.024492508 -0.02833765 -0.032073416 -0.03691839
-0.041370764 0.019594524 0.01968116 0.017351752 0.013121256 0.016178243 -0.025608096 -0.019238263
-0.013231216 -0.00685958 -0.00015859205 0.023095764 0.028252501 0.023889482 0.030648768 0.034001317
-0.02034589 -0.01768785 -0.016008426 -0.014934799 -0.0136947045 -0.018658534 -0.012858292 -0.008116681
-0.0036509098 0.003281289 0.022221336 0.021399703 0.023437241 0.027658496 0.03297581 -0.022063011
-0.016666569 -0.011646252 -0.0074890233 -0.0012184493 -0.021402929 -0.0182002 -0.014404019 -0.014700428
-0.013991439 -0.02170553 -0.020058712 -0.018291183 -0.01614923 -0.015385029 0.023539228 0.027012918
0.030028561 0.03660042 0.038473044 -0.019555854 -0.017424157 -0.017395757 -0.013523519 -0.014197868
0.02557881 0.020065896 0.012482987 0.0070347795 -0.0010034374 -0.0225291 -0.027337551 -0.02537065
-0.031766895 -0.034172267 0.021550871 0.018435132 0.017320605 0.015392326 0.01373578 0.01976799
0.013807176 0.0086449245 0.0052026478 -0.0022918032 -0.020150293 -0.02054176 -0.023829047 -0.027969785
-0.033877928 0.022278879 0.016797597 0.013065227 0.008220854 0.0012341149 0.021102717 0.018126268
0.016662324 0.014271048 0.014276287 0.02258685 0.022209417 0.01743278 0.017100777 0.016470125
-0.022511505 -0.02611357 -0.03026123 -0.035106715 -0.038848747 0.02020404 0.018405648 0.017535096
0.013491361 0.015557045 0.02659053 0.01805009 0.009373626 0.0027748984 -0.005326388 -0.027630597

layers_f.blocks.0.conv_layers.1.bias f4 [10]
00000000: 4891 cfbd 7422 d03d f87a d43d 9be3 d0bd
00000010: 374d d03d 99b4 d43d 7f50 cf3d 40a0 d23d
00000020: f62b d1bd 4e32 d03d
-0.10135132 0.101628214 0.10375017 -0.10199662 0.101709776 0.10386009 0.10122775 0.102844715
-0.10213463 0.10165845

layers_f.final_layer.weight f4 [1, 10, 1]
00000000: 3733 9c3e e3d3 2abe 28a3 39be 3294 153e
00000010: 66c0 7dbe 7b41 24bd 4e2d 9bbe e2b7 3abe
00000020: d612 4d3e 63ce a0be
0.30507824 -0.16682391 -0.18128645 0.14607313 -0.24780425 -0.04010151 -0.30308002 -0.18234208
0.20026717 -0.3140746

contraction_layer.weight f4 [3, 500]
00000000: 5344 1dbd 0ae7 cabb 0c8a 84bd 02f2 9fbd
00000010: 1966 32bd 1f4d e3bc 540c e6bb d408 843c
00000020: d565 c8bc 5ed6 15bd c650 d2bc 0f90 c63b
00000030: af45 bfbc a7e0 153d 91a0 ba3c 9412 873c
00000040: b442 c3bc ac5a 4f3d cd1b 09bd 97e7 473d
00000050: 94ac ec3b 7350 86bc 9add 933c 1d16 89bc
00000060: efa7 8ebc 421e cebc fd4f 84bc 238c 823c
00000070: 0236 193d 8ae7 debc adb4 c4bc 4eaf f3bc
00000080: 0ce4 c43b 8764 c23b d173 fdba af7c 433d
00000090: 2531 193d 3efb 103c e3ba fa3c ce69 a7bc
000000a0: 30d3 d03a 2940 1cbd 824f 343c e795 993b
000000b0: 790a 383c 0372 3b3c c7a2 1a3d e30e c23b
000000c0: c11b a93b 13ab 693d 3812 313d 1e79 f63c
000000d0: 6ca7 c13c 946b 123d 8a76 6c3d 1c05 4d3c
000000e0: 4d95 b33c a8a6 033d 4713 c13c 4591 d73b
000000f0: 822d 783d ce93 c83c ef7f 213d d2a5 0b3d
00000100: 48b3 7dbc 607c 573c 4a61 073d 63fa c93c
00000110: a1ff 443d 43f0 173b b802 603c bdae 2c3d
00000120: 935b a53a 9ea9 c23c b8c2 46bb 684c 6cbc
00000130: c89e a63c 4664 553d 0903 653d 838d 533c
00000140: 9978 953c 5fba 8d3d 24b5 ab3d e227 9d3c
00000150: b101 ad3d 4707 253d 0454 813d 807d b93d
00000160: b669 d03d 034d a83c cd96 1a3d 5984 923c
00000170: b82d 503d 7d69 b0b9 bc29 2d3d 4365 c53b
00000180: d0bb dfbc 4d62 7fbb f7b7 ea3c 4921 4e3d
00000190: 5ddb 8838 ec2e f139 d683 99bc a74c fe3c
000001a0: 5a00 22bc 22ad eb3c 9dba 4f3d 4bdc 073c
000001b0: 154e 903d 41c1 ab3c e1fa a13d f2d1 aa3d
000001c0: 8a84 8cba 3f46 f03c 6cc0 9dbb b0cd 493d
000001d0: 3f55 333c 8607 063c b4a5 693d 0aa2 8c3d
000001e0: 1f13 6a3d d9df af3b 0213 233d e510 ea3c
000001f0: 9e3a a53c 4146 4dbb efc1 033d a8f2 f2bc
00000200: 89d2 533c 98ac fc3a 218e 2fbd 9b54 9b3c
00000210: 71de 253d d0ea cc3c d55e eb3c fa16 12bd
00000220: 7cc6 623d df84 9bbb 7a05 42bb bcb1 4b3d
00000230: 21a2 173d 13e0 55bb fd03 c43b 58bc 943c
00000240: ee38 163d 005a 673d 97e5 863d 525d df3b
00000250: a157 823d a39e 0c3d 71d5 c93b ae84 913c
00000260: 2b53 86bc e989 2e3d cd26 703d e6c2 3f3b
00000270: 9180 a83b 6501 31bc 8497 4f3d 18e7 4f3d
00000280: 90ab 8fbc 473e b23c fda7 2e3d 8c23 633d
00000290: 53e1 233d 483d 2e3d 0203 65bc 0f4e da3b
000002a0: 19bb 2dbb f324 09bc 6d15 b83b 09c8 523c
000002b0: 1003 a4bb e828 8a3b bc33 d43c 9577 473d
000002c0: 45cd 0abc 014e 44bc d480 80bc caf6 923c
000002d0: 0010 053d e17f 2fbc f26b 5dbc 7099 62bb
000002e0: 188e 513d 0a01 453d c754 c4bb 6fc2 5c3d
000002f0: ddfb 573d 99da 80bc 0393 633c df6b 2d3d
00000300: 47af 3f3d 0a64 243d 1c11 783a 633a 9bbc
00000310: 3514 313c a9ee fe3c 422c 4abb 1ea6 3fbc
00000320: 807f fc3a 42db c5bc 4d7b 2cbc 3cec 423c
00000330: 7675 74bb f3f2 1fbd 010f 92bc ebae 22bd
00000340: 73ef fe3c f7a8 03bc 2580 b8bc d842 ba3c
00000350: cc65 8ebc eedd e4bc 0e5d 18bd 6b39 c53c
00000360: 25b0 ecbc babb 95bc 0741 c63b 6892 55bd
00000370: ae5b 68bc 6439 3fbd 7e5a 3e3c bcbd 3cbd
00000380: 4003 e63c 9e91 ddbc da4f 7abc c51f 79bd
00000390: 7831 29bd acec 87bd af9e 21bd ae91 e8bc
000003a0: 4ca7 90bd fc00 9ebd ff5a 24bd edc7 3ebb
000003b0: 74ea 85bd 822d acbc 9dd1 3bbd bfc4 b2bd
000003c0: c547 98bd 50e5 89bc 327a 3dbd 5474 69bd
000003d0: a296 8dbd bf82 65bd eaf3 0ebc 51af 41bd
000003e0: 4ed0 7dbc cec5 94bd d4cf c3bd f48d 17bd
000003f0: aba2 08bd 7a06 84bd 07d9 d1bd 20d5 b4bd
-0.038395237 -0.006192093 -0.06471643 -0.07809831 -0.0435544 -0.027746735 -0.0070205126 0.01611749
-0.02446262 -0.03658139 -0.025673281 0.0060596536 -0.023348657 0.0365912 0.022781642 0.01648835
-0.023835517 0.05062358 -0.03347378 0.048804846 0.0072227214 -0.016395783 0.018050004 -0.016734177
-0.017414061 -0.025160912 -0.016151423 0.015935963 0.03740502 -0.027210016 -0.024011934 -0.029746678
0.0060086306 0.005932394 -0.0019336884 0.04772633 0.037400384 0.008848963 0.030606693 -0.020436194
0.0015932079 -0.038147125 0.011005284 0.004687059 0.011232966 0.011440757 0.037752893 0.005922185
0.005160779 0.057047915 0.043230265 0.03008705 0.023639403 0.035747126 0.057730235 0.012513425
0.021921778 0.032141358 0.023568762 0.006578597 0.060590275 0.024484541 0.039428648 0.034093685
-0.0154846385 0.013152212 0.033051766 0.024655527 0.04809535 0.0023183979 0.013672523 0.04215883
0.0012615792 0.02376252 -0.0030328464 -0.014422514 0.020339385 0.05209758 0.055911098 0.012912157
0.018245982 0.06920313 0.08384159 0.019184057 0.08447588 0.040290143 0.06314853 0.0905714
0.10176413 0.020544535 0.03774147 0.017885374 0.05082485 -0.0003364793 0.04227613 0.006024034
-0.027311236 -0.0038968504 0.028652174 0.050324712 6.525845e-05 0.00046002062 -0.018739622 0.03104241
-0.009887779 0.02876908 0.050715078 0.008292268 0.07046143 0.020966174 0.079091795 0.08340825
-0.0010720652 0.029330371 -0.0048141982 0.049268425 0.010945617 0.008180505 0.057042792 0.06866844
0.05714714 0.005367261 0.03981305 0.028572509 0.020169552 -0.0031322392 0.03216737 -0.029656723
0.012928613 0.0019277511 -0.042860154 0.018961241 0.04049534 0.025014311 0.028731743 -0.035666443
0.05536507 -0.004746064 -0.0029605315 0.049730048 0.037019853 -0.003263478 0.0059819208 0.018156216
0.036675386 0.056482315 0.065867595 0.0068165446 0.0636437 0.034330975 0.0061594774 0.017763462
-0.01639708 0.04261199 0.058630753 0.0029260456 0.0051422794 -0.010803555 0.050681606 0.050757498
-0.017537862 0.021758212 0.042640675 0.055453822 0.040009808 0.04253891 -0.013977768 0.0066621373
-0.0026509224 -0.008370626 0.0056177885 0.012865075 -0.005005248 0.004216302 0.025903575 0.048698027
-0.008471792 -0.011981488 -0.01568643 0.017939944 0.032485962 -0.010711641 -0.013514506 -0.003457632
0.0511609 0.048096694 -0.0059915516 0.053896364 0.05273043 -0.015729235 0.013890031 0.042339202
0.046798017 0.040134467 0.0009462999 -0.01894874 0.01080804 0.031119661 -0.0030849134 -0.01169732
0.0019264072 -0.024152402 -0.010527444 0.011897143 -0.0037301457 -0.039050054 -0.01782942 -0.039717596
0.031120038 -0.00803589 -0.022522042 0.022736952 -0.017382525 -0.027937856 -0.03719812 0.02407523
-0.028892586 -0.018277992 0.0060502323 -0.052141577 -0.014182014 -0.04668559 0.011618255 -0.046079382
0.028077722 -0.027046975 -0.015277827 -0.060821313 -0.041306943 -0.066369385 -0.039457973 -0.028389778
-0.07063159 -0.077150315 -0.040125843 -0.0029110864 -0.06538859 -0.021017794 -0.0458542 -0.087289326
-0.07435564 -0.016832978 -0.046259113 -0.056995705 -0.069134966 -0.056032892 -0.008725146 -0.047286335
-0.015491558 -0.07264291 -0.095611244 -0.03700061 -0.033358257 -0.06446548 -0.10246473 -0.08829713

contraction_layer.bias f4 [3]
00000000: 153e 593d 933a e53c 0288 033e
0.05303772 0.027982032 0.12844852

expander_layer.weight f4 [20, 3]
00000000: ab93 323e dc38 e6be cbae 1e3e 1bb2 d3bd
00000010: d450 0b3f 7f36 0e3e 94a3 50be e242 103e
00000020: 151c b5be 0ebf d5be 9a52 173c 03c2 efbe
00000030: b273 073f 337e 68be 04ce 2e3e 20c9 993e
00000040: 0bce 9c3e 666f 01bf e50d 003f 99f2 b53e
00000050: f497 653e 5c52 763d 0e11 1b3e 86f6 16be
00000060: 2c3e 673e 5c18 b9be 26f4 98be 84a0 87bb
00000070: cc58 083f ddb3 013f 1aaa e2be 3849 d5be
00000080: 7b78 f33e 02a7 d03e 8c3d e7bd 1f3e a1be
00000090: 4cca 143e 0bf0 f0bc 9f01 d93e 1813 59be
000000a0: f933 0abe c1a4 8cbe a09f 68bd f571 aebe
000000b0: 79a7 0f3e 7c9a 093f 48f5 043f 69a0 3d3e
000000c0: 57c8 073f 2462 5a3e ac8d b23e f7e5 9c3e
000000d0: 5f9a cbbe d16f 0abf c835 183d bfe8 9d3e
000000e0: 9694 e83e 63f1 0c3f 8fc0 3bbe 6f5b 41be
0.17439143 -0.44965255 0.15496366 -0.10336705 0.5442021 0.13887976 -0.203749 0.14088014
-0.35372987 -0.41747326 0.009236002 -0.46827707 0.5291091 -0.22704391 0.17070776 0.3003626
0.30625948 -0.50560606 0.500212 0.3553665 0.22421247 0.060137138 0.15143225 -0.14742479
0.2258231 -0.36151397 -0.2987377 -0.004139008 0.53260493 0.50665075 -0.44270402 -0.41657424
0.47552857 0.40752417 -0.11291036 -0.31492707 0.14530295 -0.029411336 0.4238405 -0.2119869
-0.13496388 -0.27469447 -0.056792855 -0.34071317 0.1402873 0.5375135 0.5193677 0.18518223
0.5304007 0.213265 0.34873712 0.306442 -0.39766213 -0.5407687 0.037160665 0.30841634
0.45425862 0.55055827 -0.18335174 -0.18882535

expander_layer.bias f4 [20]
00000000: b9d9 9f3d bdda d03c 564b 193e dfb6 41be
00000010: fa09 2fbe e803 9a3e 45dd a4be 1007 6d3e
00000020: 1f93 1bbf 21f8 063f 1cda 8ebe 29a6 bcbe
00000030: 095d c0be 20a0 33bd c6f8 ee3e 4bb2 d7be
00000040: b0e1 9b3e fc79 713e 1cc6 0d3f 2096 d03e
0.07805199 0.025494928 0.14970145 -0.18917416 -0.1709365 0.30081105 -0.32200065 0.23147225
-0.60771364 0.52722365 -0.2790078 -0.3684552 -0.3757098 -0.04385388 0.46674174 -0.42128214
0.30445623 0.2358169 0.55380416 0.40739536

layers_h.0.weight f4 [20, 20]
00000000: b674 d23d d81e 94bd a5d4 62be ddc7 1f3e
00000010: cfa1 dcbd fc5a 0abe 9a3c 8c3e 236a 953d
00000020: 8a53 2bbe 98e3 3b3e 5eca 8bbb 52df 18be
00000030: 8b0f 8dbc 7925 8fbc e266 4bbd c6d6 953d
00000040: 245c 873e 0af6 31be 2f91 083e 85b3 743e
00000050: e03d 62bd e64f 343e 9455 553e 3471 6c3e
00000060: c388 4fbe 0688 a23d b52a 0ebd 155f 57be
00000070: 9ac4 4bbd a33c 833d a56f 39be 56c0 3a3d
00000080: 1797 04be 4138 9e39 b8f6 04be 4925 a0bd
00000090: 3c24 e4bc 5737 bb3d 3ebf 83bc a3f3 a3bc
000000a0: 8bc6 063d 6486 aabc a269 e4bb 565e 533d
000000b0: 71a1 9f3d 709a 4ebe e780 133e 2c49 73bd
000000c0: d645 a8bc 57eb 503d 2cab d1bd f2e0 953d
000000d0: afc0 453d 3b6f aebd a2d1 a8bd 6b4a 05be
000000e0: fbeb 15bd 214f 14bc 589f 773e 7227 153e
000000f0: e9d2 a9bd 1630 323e 2fac 003e be15 b5bd
00000100: b28a 5d3e 6b48 9ebd 6c91 8e3d db8e 06be
00000110: 4602 bbbd 310f 81be a306 013e 0669 353e
00000120: 0627 a13d c9c9 1c3d 68b8 3bbd 78a9 69bd
00000130: c564 133e 5410 543e a0eb 283e a5ab 34bd
00000140: e579 cf3d 0943 db3b 4ab0 a43d 81cb 12be
00000150: 830b d43d 73f1 87be 6d32 193e 7136 b8b9
00000160: b941 243e 103b abbc eb84 aabd 892d 36be
00000170: e0a6 7bbd 232d 39be 3d13 e7bc 19a8 dcbd
00000180: ee22 10be eeb2 8abd 8d6a 3fbe ccd5 413e
00000190: 2dae a43b 4a0d 75bd 832e 45be bafb e9bd
000001a0: 6dd8 0e3d a3c7 04be 97cb b33d 72e2 203e
000001b0: 1eb7 19be 68d5 c53d fc01 c93d 922f 073e
000001c0: 39a7 423e 3c07 04be 9633 35be 4f32 8e3e
000001d0: d04c 673e c5ef 853d 2481 893d d27d 4cbd
000001e0: 7479 0c3e f897 d43d d2a7 bbbc 1f0f 483d
000001f0: a5f2 5f3d 1b73 ff3d ff2e 2abc 386d e23d
00000200: 213f 0f3e 1cbf 77be 4206 29be 29e8 b33d
00000210: 61f8 16be aa7e 89bb ec31 0bbe b2db f9bd
00000220: 59af 2ebe a2fb a3bd 2cfb 48be 90f0 0abd
00000230: 498b d63d f1b7 123d 3846 653e 0b12 bebc
00000240: 3d9a 1f3e f4b3 edbc 8425 f1bd 5b9e 78bd
00000250: 672f 2b3e cfea 2bbe 436f 103d eb71 0d3e
00000260: 4d0c 3dbe 6a02 463d 0076 1ebe d236 d7bd
00000270: a65e 62be 7290 c5bd dcec debc bcd0 21be
00000280: 5053 aabd 1c9c 8d3d 9acf 303e 9a83 073e
00000290: 5779 fe3d 52a6 f33d 5e82 a1bc 759e d43d
000002a0: fa42 133e d908 4fbe d0ab 2b3e c17d c2bd
000002b0: de4f 093e 7d3e 153e 6cc7 e8bd 292d 25bd
000002c0: 21f3 55bd 1c58 10be 91f2 adbd ab17 c0bd
000002d0: 5480 363e e178 703d 1394 66be ee3d 263d
000002e0: eeeb 83bd 3a1f 1dbe e03c 8bbd 9a6d 92bd
000002f0: e37f 0b3e 1fe2 233e b469 e83d 2b32 1a3e
00000300: 6935 55ba be72 0bbe 012c cd3d 0c5f f83d
00000310: d3bf abbd 46be 8ebd f91c 303e d7e6 aa3d
00000320: 8753 153e 77fd 123e 8ed0 323e fe9c 403e
00000330: 17ab d7bd abe9 483e 1de2 49bd f3fd bf3d
00000340: 035e 923e c20e da3b f8cc d0bd 5173 e9bd
00000350: 090c 173e 387a 403c 583c fb3c 9896 31be
00000360: 3c3b 553d ddad 533e 2042 84be 9469 3abe
00000370: 193c aebd 4bf5 0abe 21fa 81be 2e51 25be
00000380: 2069 803b 4b0a 2bbe 6ed3 943e ec75 1cbd
00000390: 5f77 5bbe 229e 88bd 458a 1c3e 3709 423c
000003a0: 0fa1 343e c2c7 bc3d a11d 98bd a23e 8ebd
000003b0: 8f6e 9abd d5a8 843d 6768 2f3e 3f03 1cbe
000003c0: d5a9 773e 46a4 ab3d 8054 39be c245 57be
000003d0: c960 173e 5fa2 40be 0b02 683d 0927 133e
000003e0: 543a 51be f78c 233e 5859 973d b686 4ebe
000003f0: df78 443d 0466 f73c dbfd a5bd 5998 9bbd
0.10276167 -0.072324455 -0.2215143 0.15603586 -0.1077305 -0.1351127 0.27389985 0.072956346
-0.16731086 0.18348539 -0.0042660674 -0.1492894 -0.017219326 -0.017473923 -0.049658664 0.073163554
0.26437485 -0.17379013 0.13336633 0.23896606 -0.05523479 0.17608604 0.20833427 0.23090059
-0.20267014 0.07936101 -0.034708697 -0.21032365 -0.04974804 0.0640805 -0.18108995 0.045593582
-0.12948261 0.0003017802 -0.1298474 -0.078196116 -0.02784931 0.091414146 -0.016082402 -0.020013636
0.03290419 -0.020816036 -0.0069706 0.051603638 0.077944644 -0.201761 0.14404641 -0.059395954
-0.020541113 0.051005688 -0.102377266 0.073182955 0.04827946 -0.08517309 -0.08243109 -0.1301667
-0.036602 -0.009052069 0.24181879 0.14565828 -0.08292181 0.17401156 0.12565683 -0.088420376
0.2163494 -0.077286564 0.06961331 -0.13140433 -0.09131293 -0.25206903 0.12600188 0.17715845
0.07868771 0.038278375 -0.04583016 -0.057046384 0.1439391 0.20709354 0.16496134 -0.044109005
0.101306714 0.006691341 0.08041437 -0.14335443 0.10353758 -0.265514 0.14960642 -0.00035135777
0.16040696 -0.020902187 -0.08326133 -0.17790808 -0.06143844 -0.18083625 -0.028207416 -0.107742496
-0.14075825 -0.067724094 -0.1869299 0.18929213 0.005025646 -0.059827127 -0.19256024 -0.11424966
0.03487437 -0.1296678 0.08779066 0.15711382 -0.1501126 0.09659845 0.098148316 0.1320174
0.19009103 -0.12893385 -0.1769546 0.27772757 0.22587895 0.06539873 0.06714085 -0.04992468
0.13718206 0.10380548 -0.022907171 0.048842546 0.054674763 0.124731265 -0.010387181 0.11055988
0.13988926 -0.24193996 -0.16506293 0.087845154 -0.14743187 -0.0041960077 -0.13593262 -0.12200107
-0.17059077 -0.080069795 -0.19627064 -0.033920825 0.10475785 0.03581995 0.22390068 -0.023201963
0.15586181 -0.029016472 -0.11774734 -0.060697895 0.16717301 -0.16788791 0.035262357 0.13812988
-0.18461724 0.048342146 -0.15474701 -0.10508503 -0.22106418 -0.096466914 -0.027212553 -0.15802282
-0.08316672 0.06914541 0.17266694 0.13233796 0.124254875 0.118969575 -0.019715484 0.10381786
0.14381018 -0.20218219 0.1676476 -0.09496642 0.13409373 0.14574619 -0.11366162 -0.04032627
-0.05223382 -0.14096111 -0.084935315 -0.09379514 0.17822391 0.05870903 -0.22517423 0.040586405
-0.064414844 -0.15343943 -0.0679872 -0.07149811 0.13623004 0.16004227 0.11348286 0.150582
-0.0008133264 -0.1361799 0.10018159 0.12127504 -0.08386197 -0.069698855 0.17198552 0.083448105
0.14582644 0.14354502 0.1746237 0.18809888 -0.1053068 0.19620387 -0.049287904 0.09374609
0.2858735 0.0066545913 -0.10195345 -0.11398948 0.14750685 0.011747889 0.030668423 -0.17342603
0.052058443 0.20671792 -0.258317 -0.18204337 -0.085075565 -0.13570134 -0.25386146 -0.16144249
0.003918782 -0.16703145 0.29067558 -0.038198397 -0.21432255 -0.066707864 0.1528712 0.011843017
0.17639564 0.09217788 -0.07427526 -0.0694554 -0.07540619 0.06477515 0.1712967 -0.15235613
0.2418588 0.08380942 -0.1809864 -0.21022704 0.14783014 -0.1881194 0.056642573 0.1437036
-0.20432407 0.15971743 0.07390088 -0.20168576 0.047966834 0.030200012 -0.0810506 -0.075974174

layers_h.0.bias f4 [20]
00000000: 991d 25be 10cb 28be 38c5 3c3e f376 693e
00000010: fc9b ad3d 7a32 d4bd 21e3 11be d9f1 903e
00000020: a6bc 40bd 7bb7 7d3d dac7 09be 4a85 8dbd
00000030: bd9f 0e3e d41e 6abc 804b 573e 30f7 943b
00000040: fd47 453d a7a4 7ebd a698 6e3e 76dd 34bd
-0.16124572 -0.16483712 0.18434608 0.22799282 0.08477017 -0.1036119 -0.14246799 0.28309515
-0.04705491 0.06194256 -0.13455144 -0.069101885 0.13928123 -0.014289577 0.21024895 0.0045460686
0.048164356 -0.062168743 0.23300418 -0.044156514

final_layer.weight f4 [12, 20]
00000000: 2de3 0bbe 2830 793d 1d89 1f3e fda8 e2bd
00000010: bc93 a2bd 2bcb df3d 8323 3dbe 065f efbd
00000020: 7281 303c c4f1 b1bd 1648 9bbe 078a 9d3d
00000030: 37c0 2f3e a977 b3bd 7c1e c93d 3817 163e
00000040: 666c 163e 5ee0 863e 946d 683e 6e83 6cbd
00000050: e6fd 75be fd6b 4d3e b927 9b3d 01dc d63d
00000060: 27ca a9bd 09c6 93be 60a2 0e3e 777e df3c
00000070: 8d79 41bc 1e9b febd b929 213e 048e ee3b
00000080: 0c77 6ebe 2808 01bd 6d61 d23d 3604 b6bd
00000090: f245 ff3a 0a9f 80be dc66 95bd d9ae ed3d
000000a0: e260 bf3b 1910 3e3d 9019 ac3c 0268 7dbd
000000b0: bc82 81bd 2f15 2a3d 898a 4f3e 65a7 313e
000000c0: 2bfb 043e bf0d 57bc 87a3 fdbb 4562 5fbe
000000d0: f1ec e1bd ad70 8dbd f4dd 4cbd 19a9 893d
000000e0: 8168 dfbd 50c9 76be b679 f1bc 92da 9bbe
000000f0: 8440 8c3e 837a de3d d85a d7bd 15f1 3abd
00000100: ee27 eb3d df0f 333d a1ab 00bd 6981 5fbe
00000110: c60e 5c3d 6b51 88bd 8540 23bd 433d bc3d
00000120: 3581 493d fa43 503e 9e90 e73c 63cc 343e
00000130: 8c92 033e bf7c f1bd bd9f 5f3e cd2a 803e
00000140: a6c9 cf3d 2a14 803d 16a1 b23d 4115 8cbd
00000150: 7c88 8a3d 640d 653e efea 27be 9277 1cbe
00000160: 20d2 933d c906 9a3d a9d0 12be 29af 00be
00000170: e7ed 813e bca3 633d 875d 533d 879e e43d
00000180: 75c0 1d3d 0596 053d a014 2b3d cbcf 563e
00000190: 4ee5 18be f5b8 293e e2ff 5abc 73fa b13d
000001a0: 845f 92bc 1b31 cbbd 20af 9d3d 0426 c93d
000001b0: 339f f53d e190 2bbe 104e c63d 0bf7 36bd
000001c0: cb21 12bd 55de 9dbd e0db c4bd 6588 0fbe
000001d0: c885 64bb f6d8 76be 780d 92bd 99ba bb3c
000001e0: 1744 673e c53b 4dbe 0ecc a73b 9f77 2cbd
000001f0: 5b48 aabd e0aa 3c3e d5a6 c1bd d54f 48be
00000200: eb74 c03d 2bb7 f6bc 0887 99bd 4a7a 91bd
00000210: 6a33 743e 0168 813e a826 043e 2ab0 bf3d
00000220: a3e5 233e 6f3b bc3d c2b7 14be a04d e2bd
00000230: 77cc 2dbe ff78 013e 00fe 15be 2f83 dc3c
00000240: 5b94 4c3e 4fa3 8fbd 630a f2bd 7d5e ea3d
00000250: 4c80 1e3e f978 b13d fd74 cd3d b576 5fbe
00000260: d928 63be b8a7 12be 0731 68be fe9c 34bd
00000270: f8e4 a4bc 6902 9abd a6c8 94bd f8a4 963c
00000280: 82ab b9bd ed2b edbb a5ea 743c a1f3 d13d
00000290: aad3 033e 557b 19be e5bb 1b3d d1f9 02be
000002a0: 6ef0 ff3d d684 4d3d 95bd 88bd ddd7 60bd
000002b0: 57cf 00be 902b 6cbd 8455 92be 134a 03be
000002c0: 1b5f 8ebe 62e3 babd f9d7 3dbe cb6d 0bbe
000002d0: afd8 8e3e c04b 94bd 19e7 d03d 6f9d c13d
000002e0: 0ece 493c aa24 233e 4e4a 29be de32 6dbe
000002f0: a3a1 c1bb 9dff d43d 104f ffbd 32b4 71bd
00000300: ccc2 823d ec1b 273e 0cba 8c3c 01df 343e
00000310: 4414 2f3d 7397 04be 5628 47bd e6ed a33d
00000320: 881c 4cbe 6580 70bd 11e3 6abe 1c1f 00be
00000330: 5c37 853e 398a 793d eed1 08bd 6ce7 ea3d
00000340: 1e79 543e cb27 36be f285 283e 30eb 1bbe
00000350: 15a2 19be a9d5 ac3c 4fc3 64be 28fe 0f3b
00000360: 79a2 9bbe 5d2b ca3d 99c8 fa3d 7dce 54be
00000370: 83cd 183e e9e5 08be 2a6b 92bd 6706 b1bd
00000380: fd7f 913c c0b2 2e3e 7f48 b6bd e5f9 d63d
00000390: 1735 a2bd d087 1d3e 39ee 47be 6322 fbbd
000003a0: 68d2 663e f9d0 0d3e 1f52 093e e105 793e
000003b0: 4d32 863d b2da 1d3e 26d2 6dbd c415 78bc
-0.1366088 0.06083694 0.15579648 -0.11067388 -0.07938334 0.10927423 -0.18470578 -0.11688046
0.01077305 -0.08688691 -0.30328435 0.07692342 0.17163168 -0.08763058 0.098202676 0.14657295
0.14689788 0.26343054 0.2269805 -0.05774253 -0.24022636 0.20060726 0.07575936 0.10491181
-0.082905106 -0.28862026 0.13929129 0.027281983 -0.011808765 -0.1243193 0.15738572 0.007280113
-0.232876 -0.03150192 0.10272489 -0.08887522 0.0019475801 -0.25121337 -0.072950095 0.11605615
0.0058404068 0.04640207 0.021008283 -0.061866768 -0.06323764 0.04152411 0.2026769 0.17349012
0.12986438 -0.013125836 -0.0077404412 -0.2181483 -0.11031521 -0.06906257 -0.05001636 0.06721706
-0.109086044 -0.24100232 -0.029476982 -0.30440193 0.27392972 0.10863211 -0.10515374 -0.04564007
0.11482225 0.043716308 -0.031413678 -0.2182671 0.053725027 -0.06656154 -0.039856452 0.09191372
0.049195487 0.20338431 0.028267201 0.17656092 0.12848872 -0.117913716 0.21838279 0.25032654
0.10145883 0.06253846 0.08722131 -0.06839991 0.067643136 0.2236839 -0.16398214 -0.15279987
0.072178125 0.075208254 -0.1433741 -0.12566818 0.25376818 0.05557607 0.051602867 0.11163049
0.03851362 0.032613773 0.041767716 0.20977704 -0.14931223 0.16574462 -0.013366671 0.086903475
-0.017867811 -0.099214755 0.07699418 0.09821704 0.119932555 -0.16754486 0.09682858 -0.044669192
-0.03567676 -0.07708422 -0.0961225 -0.14016874 -0.003486978 -0.24106202 -0.07131475 0.022916125
0.22584568 -0.20042332 0.0051207608 -0.042106267 -0.08314582 0.18424559 -0.09455649 -0.19561704
0.093973 -0.030116638 -0.07496458 -0.07103403 0.23847738 0.2527466 0.12905371 0.093597725
0.16005568 0.091910236 -0.14523223 -0.11049962 -0.16972528 0.12643813 -0.14647675 0.026918022
0.19978468 -0.070135705 -0.11818387 0.114438035 0.15478629 0.08665652 0.10032079 -0.21822627
-0.22183551 -0.14321792 -0.22674952 -0.044095032 -0.020128712 -0.07519991 -0.07264833 0.01838921
-0.09065916 -0.0072379024 0.014948522 0.10251547 0.12873712 -0.14988454 0.038020987 -0.1279061
0.1249703 0.05017551 -0.06676785 -0.054893363 -0.12579094 -0.057658732 -0.28580868 -0.12821226
-0.27806935 -0.09125401 -0.18539418 -0.13616101 0.2789969 -0.07241011 0.102003284 0.09453856
0.012317194 0.15931955 -0.16532251 -0.23163936 -0.005909161 0.10400317 -0.12466252 -0.05900974
0.06384811 0.16319245 0.017178558 0.17663194 0.042743936 -0.12948398 -0.04862245 0.0800436
-0.19932759 -0.058716197 -0.22938181 -0.12511867 0.26018798 0.060922835 -0.03340333 0.114699215
0.20749328 -0.17788617 0.16457346 -0.15226436 -0.15003236 0.021097975 -0.2234013 0.0021971557
-0.30397394 0.09871552 0.12245292 -0.20781894 0.14922146 -0.13368954 -0.07149346 -0.08643799
0.017761225 0.17060375 -0.08900546 0.10496882 -0.07920282 0.1538384 -0.19524468 -0.12262418
0.22541201 0.13849248 0.13410233 0.24318649 0.06552563 0.15415457 -0.05806174 -0.015141908

final_layer.bias f4 [12]
00000000: d598 83bd 9f12 4e3e 7f79 573e 1369 183e
00000010: 2f88 653e 3abe a3bd 3228 193e 8dad 883d
00000020: 4f58 1abe 041d 0dbd 4e03 403e 230e 0a3e
-0.06425635 0.20124291 0.21042441 0.14883833 0.22415231 -0.07995267 0.1495674 0.06673727
-0.1507275 -0.0344515 0.1875126 0.13481955
