symmetry-informed-flows/notebooks/SineGaussian/sine-gaussian-similarity-embedding-weights.neurips.pth (torch, 270669 bytes, 63 tensors)

layers_f.initial_layer.weight f4 [10, 10, 11]
00000000: e907 273d b1e1 0d3d 7cb6 c6bd f0c3 06bd
00000010: 4f25 bebd a7a6 913d 97a6 9bbd 6d4e e6bc
00000020: 5cd2 3abd cfe4 403d a665 cdbb dcdb 5dbd
00000030: 644b 32bd 54c7 d23b 2181 31bd b642 0cbd
00000040: 1df4 403d 4b38 d9bc 3262 783d 1f52 7a3d
00000050: a867 823d be41 9abd 276b 6d3b bf00 65bc
00000060: b0df 173d d736 44bd 4940 0e3c d448 993c
00000070: 84f5 d1bb a7ed d8bd 5c48 14bd 3a8e 74bd
00000080: a8f7 7f3d 3768 543d 87f1 9b3d 8fdd 14bd
00000090: 4859 cfbb 671a 713c d016 66ba 97de e33c
000000a0: 0b74 22bd 52fe c6bb feb8 85bc 8596 9abc
000000b0: d30e 95bd ea99 80bd 5866 7abc d61e d8bc
000000c0: 0ec7 13bd e4a3 843d 704d b53d e7f0 bfbd
000000d0: e39a 33bd dd2a 8d3d cb21 94bd 568d 85bd
000000e0: bf4b 9b3d 0de6 063d cca8 76bd 5949 b6bd
000000f0: 9234 3f3c 3989 5cbd dbdf 1c3c bf72 3abd
00000100: 9de6 973d f08f 41bd 8b3f 623c d060 69bd
00000110: bfbf 183d 65cd d1bc 94d9 7e3d a03c 09bd
00000120: cb84 643d db0d cebd 25cf 1b3d 3d82 0bbb
00000130: 0fcb 383d 0d24 2c3d 3e27 6a3d ab3b 483c
00000140: 0045 813d 7209 03bb 7ef3 14bd ed7d c5bc
00000150: 1409 9dbd eb84 bc3d f619 8f3d c258 983d
00000160: 6f4b 16bd 64ff 773d 27e6 40bc 2b9d 38bd
00000170: 6a3f 313d e033 0a3d 5139 f83c 028d b4bc
00000180: 6e05 c13c 6cf7 a23d 5cf1 47bc 7f64 52bd
00000190: 3f9e 20bd 2eff c3bd 1f7d b6bd e955 6cbd
000001a0: adc2 10bd deda 9dbd a1ab 81bd ec13 f0bd
000001b0: cce6 e8bd 3e04 52bd 9c20 87bd c564 77bd
000001c0: c45d 96b9 b2eb a7bd 130a 83bc 9fd1 073d
000001d0: f13a 4f3d 36b7 ba3b 035b e83c 901c 8e3c
000001e0: 76b0 a63d fc2f 123e da7e 8a3d 27a1 443d
000001f0: a2dc b73d 1a2d df3d 9572 ca3d 6c5f 6f3d
00000200: e10f c2bd d787 88bd aa7e e4bd cdc1 47bd
00000210: 8c44 2b3a f56e b6bc 45ef 0dbd 4106 7f3d
00000220: c383 80bc 4e83 3b3d c704 a93d 0f56 90bc
00000230: d2f9 27bd ffdd 8a3d 8937 bbbd c70e 3f3d
00000240: eb96 313d 16ec 193d 40ac 80bd 4999 88bd
00000250: 24f7 efbc cb65 213d 324c 88bc 8923 273d
00000260: a783 413c 04c8 4f3c 89dd 9ebd 32d9 8c3d
00000270: 224b 553c 0551 7fbc 7303 663d 0fad 94bd
00000280: 35d9 573d 6143 0f3c 5048 3bbd 8a1b 033d
00000290: 669a 9e3c 962c 663d be3a 1ebd e3a6 58bc
000002a0: 68db 113d 6ea2 1e3d 6323 9fbd d82d a53c
000002b0: f571 58bd 0cb0 9c3c 5548 2ebb cede 293d
000002c0: e7d9 70bb 55e1 4fbd ecb2 c7bc 5b3c 3b3d
000002d0: cd6f 263d 8f69 1cbd 71c3 f4bc 83f4 c23d
000002e0: 7553 e2bc 0ad1 d53a 4543 ba3c e443 e2bc
000002f0: 347c 60bd a919 9dbd 927c 4f3d db43 4d3d
00000300: 8703 29bc 46cb a7bd c489 ac3d c75e e4bc
00000310: 338b a83d cc57 a13d 7946 85bd 8d91 9a3d
00000320: 16de a6bb cf32 3bbd e3f4 50bd cf9d 0cbb
00000330: 1c67 8e3b bc56 233d 5c29 73bd ead6 b93d
00000340: a1e1 b63d bd2c d13b 08b9 27bd f61a 6c3c
00000350: e4ed 7c3d fda2 9bbd 2cb7 30bb 853d 5bbc
00000360: ea42 9c3c 71cd 04bc 3e2c 92bd 83a2 983d
00000370: fefe 36bd b27b 66bd 9c57 9dbd d9d1 7f3d
00000380: 3719 793d 5a4e 523c d485 d8bd e2d1 91bd
00000390: f5ba 233d a6fc c4bc 337a 893d e587 5fbd
000003a0: 3480 2ebd 347f cf3c b5e4 dbbd 12e8 233d
000003b0: a9ca d6bd a27f 0ebd a794 60bd 256d 03be
000003c0: fe6f d9bd 38fc febd f1d3 50bc 990e 133c
000003d0: 7b87 8a3d 7083 cebc 71e6 9abc eb0f e8bc
000003e0: 5d9b 41bc 2ddb 26bd dbe7 043d e3ed 4bba
000003f0: 4457 a0bd f4b3 99bd 76f2 023d 64c9 8dbd
0.040779028 0.034639064 -0.09702775 -0.032901704 -0.0928446 0.071118645 -0.07600134 -0.028113568
-0.04561077 0.04709321 -0.006268221 -0.054164752 -0.04352893 0.006432453 -0.043336038 -0.034243308
0.047107805 -0.0265161 0.06064052 0.061113473 0.06367427 -0.075320706 0.0036227198 -0.013977229
0.03707856 -0.04790386 0.008682319 0.018711485 -0.0064074416 -0.105922036 -0.03620182 -0.05970595
0.062492043 0.0518572 0.07614427 -0.036344107 -0.006327782 0.014715767 -0.0008777203 0.0278161
-0.03966145 -0.006072798 -0.016323563 -0.018870601 -0.07278218 -0.06279357 -0.01528319 -0.026381891
-0.036078505 0.06476572 0.08852661 -0.0937212 -0.043848883 0.06892941 -0.07233008 -0.06521098
0.07582807 0.032934237 -0.06021957 -0.08900709 0.011670249 -0.053841803 0.009574856 -0.045519587
0.07417033 -0.04725641 0.013809095 -0.056977093 0.03729224 -0.025610635 0.062219217 -0.033505082
0.055790704 -0.100612365 0.038039345 -0.0021287345 0.045115527 0.04202657 0.05716633 0.012221257
0.06311989 -0.0019994644 -0.036365025 -0.024107898 -0.07667747 0.092050396 0.069873735 0.07438804
-0.036693033 0.060546294 -0.011773623 -0.045071762 0.043273367 0.033740878 0.030300768 -0.022039894
0.02356216 0.07957348 -0.012203541 -0.05136537 -0.039213415 -0.09570156 -0.08910584 -0.057699118
-0.035341907 -0.07707761 -0.06331564 -0.1172255 -0.11372146 -0.051273577 -0.065980166 -0.060398836
-0.0002868009 -0.08199252 -0.015996015 0.033158895 0.05059332 0.00569811 0.02836371 0.017347604
0.08139126 0.14276117 0.06762476 0.04800525 0.08977629 0.10897274 0.09885136 0.05844061
-0.09475685 -0.066665344 -0.11156972 -0.048768807 0.00065333466 -0.022269705 -0.034652013 0.062261824
-0.015687829 0.04577952 0.08252864 -0.017619161 -0.04100973 0.06780624 -0.09141452 0.046644952
0.043356817 0.037578665 -0.06282854 -0.06669862 -0.02929265 0.039403718 -0.016637895 0.040805373
0.0118111735 0.012681965 -0.07757098 0.06877364 0.013018401 -0.015583281 0.056155633 -0.07259571
0.05269738 0.008744092 -0.04572326 0.032008685 0.019360732 0.056194864 -0.03863024 -0.013223383
0.035609633 0.038729124 -0.07770421 0.020163462 -0.052843053 0.019126914 -0.0026593406 0.04147225
-0.0036750974 -0.050752003 -0.024377309 0.045711856 0.040633965 -0.038186606 -0.02987835 0.09519293
-0.027627686 0.0016312909 0.022737155 -0.027620263 -0.05480595 -0.0767091 0.05065591 0.05011354
-0.010315782 -0.08193068 0.08424714 -0.027877225 0.08229675 0.07878074 -0.06507582 0.07547293
-0.0050923927 -0.04570275 -0.051014792 -0.0021456366 0.0043457877 0.03987764 -0.059365615 0.09074195
0.08929754 0.006383507 -0.040947944 0.014410725 0.061750308 -0.07599447 -0.0026964648 -0.013381367
0.019074876 -0.008105622 -0.07137345 0.07452872 -0.044676773 -0.05627031 -0.07682726 0.062455986
0.060815062 0.012836063 -0.10572401 -0.0712011 0.039973218 -0.024046253 0.06712761 -0.05457296
-0.042602733 0.02532921 -0.10736982 0.04001624 -0.10487873 -0.03478969 -0.054829266 -0.12834604
-0.10617064 -0.12450451 -0.012745843 0.008975648 0.06764122 -0.025209159 -0.018908711 -0.028327903
-0.011816827 -0.040736366 0.032447677 -0.00077792833 -0.078291446 -0.075050265 0.03196951 -0.06923178

layers_f.initial_layer.bias f4 [10]
00000000: c2cf 90bd dcfd 9ebd 74e8 95bc 909b fa3c
00000010: fb49 173d 81c9 afbd b2b2 4f3c a0d5 b33d
00000020: d2cf 20bd 7230 ad3d
-0.07070877 -0.077632636 -0.018299319 0.030591756 0.036935788 -0.08583356 0.012676882 0.0878098
-0.039260693 0.08456506

layers_f.blocks.0.batch_norm_layers.0.weight f4 [10]
00000000: 9c8a 823f f6ec 773f 9417 863f 7c14 793f
00000010: 9166 7d3f 3ebb 7f3f a9ec 783f 67c0 7b3f
00000020: 7a23 813f 5452 823f
1.019855 0.9684595 1.0475945 0.9729688 0.9898463 0.99895084 0.97236115 0.9834046
1.0088952 1.0181375

layers_f.blocks.0.batch_norm_layers.0.bias f4 [10]
00000000: 6877 213d 9585 8c3c 810d db3d b3c5 4e3a
00000010: f702 013d e65f a8bb 57a7 763a ade7 793c
00000020: 0f6b 093d c4ec 043d
0.039420515 0.01715354 0.10695935 0.0007887736 0.031496968 -0.005138385 0.0009409091 0.01525299
0.033549365 0.03245236

layers_f.blocks.0.batch_norm_layers.0.running_mean f4 [10]
00000000: 3692 90bd e9fa 9ebd ac9b 95bc cb98 f93c
00000010: 908b 173d 0cdb afbd 21b3 4e3c 71ab b33d
00000020: cfc7 20bd 723f ad3d
-0.070591375 -0.07762701 -0.018262707 0.030468365 0.03699833 -0.08586702 0.01261595 0.08772934
-0.039253052 0.08459367

layers_f.blocks.0.batch_norm_layers.0.running_var f4 [10]
00000000: 35e6 013e 25dc 803d 1902 443e 00df fa3d
00000010: 1d7f a83e 97f5 0d3e a38d 733e 63bf 7d3e
00000020: 4908 4d3d 9f76 f03d
0.12685473 0.06291989 0.19141425 0.12249565 0.3290948 0.13863216 0.23784499 0.2478004
0.05005673 0.11741375

layers_f.blocks.0.batch_norm_layers.1.weight f4 [10]
00000000: a989 833f f790 823f c6d6 823f c84e 843f
00000010: 9803 833f af5f 823f d1a0 833f 443a 813f
00000020: b700 833f 363b 823f
1.0276386 1.020049 1.0221794 1.0336542 1.0235472 1.018545 1.0283452 1.0095906
1.0234593 1.017432

layers_f.blocks.0.batch_norm_layers.1.bias f4 [10]
00000000: 8566 a93c cd14 7d3b e096 323c c60d c83c
00000010: 9f21 1d3c 44e7 323c e2ab 1d3c c34c b73c
00000020: 9917 cb3b 117b 113b
0.020678768 0.0038617135 0.010900229 0.02442063 0.009590535 0.010919396 0.0096235 0.02237547
0.0061978814 0.0022198597

layers_f.blocks.0.batch_norm_layers.1.running_mean f4 [10]
00000000: 99e3 f2be e7d9 ebbd c96a 133e 43a5 d5bd
00000010: 224a 683d 00b5 373e f9c4 1dbe 24f3 8fbd
00000020: 38eb 57be 2bfd c23e
-0.47439268 -0.11516171 0.14396204 -0.10431912 0.056711324 0.1794014 -0.1540717 -0.07028797
-0.21085823 0.38083777

layers_f.blocks.0.batch_norm_layers.1.running_var f4 [10]
00000000: 250d 973e c97f 053e 21d9 203e 6762 e53d
00000010: 2789 873e b776 aa3d e803 a83d c3a5 313e
00000020: b751 d23d 8722 1f3e
0.29502216 0.13037027 0.15707828 0.112004094 0.26471826 0.08323424 0.0820387 0.1734839
0.10269492 0.15540515

layers_f.blocks.0.conv_layers.0.weight f4 [10, 10, 11]
00000000: e1ea 08bc 8bcc aabd 7b3e b6bc ba13 7dbd
00000010: 644e 323d cfeb c8ba d72b 91bd eecf 403d
00000020: a24b b8bd b26c ba35 8b53 0fbd 9e97 cf3d
00000030: b54f 763c 3888 653d a126 cb3d fb29 7b3c
00000040: 067e 453d 2e4d 9ebd f31e a83b 6cb6 b3bd
00000050: 7d00 6f3d c4f2 5dbd e9ed ee3a 4a52 a0bc
00000060: 0fc0 9bbd e6ef d7bd f830 51bd fa05 d43c
00000070: 2117 8c3c 848d e7bd 5b59 cc3c 3587 343b
00000080: 33d0 94bc ff1f 9a3d f43f 1bbd 5c39 65bc
00000090: 1652 193b 9de6 9d3d 3042 44bd 3357 3ebd
000000a0: 966d 6dbd 6e4b 2bbd 5c47 f23b 48dc 1d3d
000000b0: f9f6 b5bd 4376 70bc 46e0 c5bd ecb2 afbd
000000c0: bfce 8cbc b2bb d1bd a534 af3d 11ad 5039
000000d0: c4f6 ac3c 4620 4b3d e1a7 c1bc 7a4e 333d
000000e0: 9b52 eebb cd8b 7fbd 24ba 953c 8805 4fbc
000000f0: 8b8f 713a b054 3abd a07f f2bb 89ca a23d
00000100: 3e27 34bb 7cf9 df3b 0dcb 533d f470 aebd
00000110: 46ce 973b a048 be3d b7e4 95ba 9050 a5bd
00000120: 35fa 7f3d f7e4 a8bc c004 d63c 3282 fbbc
00000130: e421 d5ba 9d19 19bc c11f 8b3c 2433 35bd
00000140: 5661 8abd 6de4 b2bd 09b3 c5bc 5e41 c53c
00000150: 8017 89bd d78f a53d b75d a9bd 33b6 a23d
00000160: ba28 703d bfec efbc 6efc 77bd 44c8 c43c
00000170: 28fe c3bc b658 eebc 8168 d0bd 70d2 983d
00000180: 95b5 d43a dc48 3abd e08f a53d c6e6 8ebb
00000190: f428 2bbc b92a 4ebd 49dc 80bd b6b4 c9bb
000001a0: 6968 c3bc 635f 78bd 03a4 c5bd 8ce4 843c
000001b0: 1098 14bd 992f b0bd 4006 053e 7296 afbc
000001c0: f6cc 9e3d 5310 253d f874 48bc 3de0 1fbd
000001d0: 6b63 89bd 31e9 bebd 43b5 2dbd 1552 1dbd
000001e0: fc6a 8abd 58ed 913d 1100 6fbd 64f5 0e3d
000001f0: 145c 83bd 7ee3 9b3d 5f23 48bd 77c4 c6bc
00000200: d991 aebb 5350 0d3d 3b85 073d 6549 acbb
00000210: 0bb9 8bbd 4127 4fbd cd52 40bd 9a29 85bd
00000220: 91ec 8d3d d58e 423a c460 25bc 2cbc f0ba
00000230: 1768 07bd 5a5b 103d d2f6 8d3d 8b08 7dbd
00000240: 8ee9 8b3d b3b6 92bd 33d1 50bd 8a73 18bd
00000250: 534a b13c dff7 813d d2bc 3a3b 3093 943d
00000260: da8b f53d 40d6 79bd 670a c4bc aff2 0ebc
00000270: 417c 193d fdba 983d 9b34 633d f2d6 69bd
00000280: e1c3 6dbd a312 203d 5d7d 2c3d 1308 ac39
00000290: c12b a9bc 89e6 4fbd 2f17 c2bd ffba a73d
000002a0: d9eb 67bd 98d2 3c3c 66a1 2ebd 1127 2f3d
000002b0: c64b 8cbc d3fa 393d 42ef aa3d bf22 53bd
000002c0: 99c4 a53c f7a9 923d fc21 803d 20e2 fabb
000002d0: 8359 05bd b356 a2bb 0d0b a4bc ea65 1b3c
000002e0: 33c6 473d cc0f 3e3c 7191 0b3d 2214 8abd
000002f0: 221a 6b3d 4dbf 70bd 10b2 1ebc bfc3 0ebd
00000300: e3b3 4dbd 41d5 b73c 267a 643d c6e8 b13d
00000310: eeaa ac3c cb31 b13d 5321 023d cca5 49bd
00000320: 8bd4 0cbc 434b 943d 318d 9bbd 5246 3d3d
00000330: f249 a1bd a04e 0dbc e06f 99bd 56ca 85bd
00000340: 49ca 823d 34f2 c0bc f900 053d 663d ecbc
00000350: 35ee 843d c20b 5c3c 80c9 a3bd 7fbe d4bc
00000360: bd1e 16bd 5895 2f3d aaae 893c 894a 57bd
00000370: b745 f83c a2c2 083d 1939 42bd 9703 113d
00000380: f733 753d 559a 3a3d 489b 403d 55c0 cdbd
00000390: 90ac e1bc 4302 e43c 7f46 06be eaee 9ebc
000003a0: 54f8 313d a465 5fbd bc1a 04bb 259c a13d
000003b0: 4870 6f3d d43c 563c c63c 40bc 7a42 59bb
000003c0: f156 023d 6cf0 623d bb89 f6bd 765b 5cbd
000003d0: c3ef 6c3b 4c57 db3a 8311 7abd 8cbf aabd
000003e0: 4773 653c 6f11 b03d 7c92 773d 900b a0bb
000003f0: 6191 ce3d 8602 f5bc 4411 9e3d f223 9a3d
-0.008356781 -0.08339795 -0.02224659 -0.06178639 0.04353179 -0.0015329065 -0.0708844 0.047073297
-0.08998801 1.3889714e-06 -0.034991782 0.101363406 0.015033652 0.05603811 0.09919477 0.015329833
0.04821589 -0.077295646 0.0051306426 -0.087750286 0.058350075 -0.054186597 0.0018228862 -0.019570488
-0.07604992 -0.10543804 -0.05107209 0.025881756 0.017100872 -0.11306289 0.024944952 0.002754641
-0.018165683 0.07525634 -0.037902787 -0.013990726 0.0023394874 0.077100016 -0.047914684 -0.04646988
-0.057965837 -0.041819982 0.0073937606 0.038540155 -0.08884997 -0.014676633 -0.096619174 -0.085790485
-0.017188428 -0.10240878 0.08554963 0.00019900898 0.02111376 0.049591325 -0.023639621 0.043776013
-0.007273031 -0.062389184 0.018277235 -0.012635596 0.000921481 -0.04549092 -0.007400468 0.07948787
-0.002748921 0.006835161 0.051707316 -0.08517638 0.004632744 0.09291196 -0.001143596 -0.08072007
0.062494475 -0.020616991 0.026125312 -0.03070173 -0.001626071 -0.009344486 0.016982915 -0.044238225
-0.067568466 -0.08734975 -0.024133222 0.024079021 -0.066939354 0.08084076 -0.08269828 0.07944908
0.05863259 -0.029287694 -0.06054347 0.024021275 -0.023924902 -0.029095035 -0.101761825 0.07462013
0.0016228432 -0.04547964 0.080840826 -0.0043610064 -0.010446776 -0.050333712 -0.06292016 -0.0061555756
-0.023853498 -0.060637843 -0.096504234 0.01622226 -0.03627783 -0.086028285 0.12990665 -0.021434043
0.07753937 0.04029877 -0.012234919 -0.03903221 -0.067084156 -0.093218215 -0.042409193 -0.038408358
-0.06758687 0.07125348 -0.058349673 0.03490199 -0.06414047 0.0761175 -0.048861858 -0.024263604
-0.005327445 0.03450043 0.033086043 -0.0052577727 -0.068224035 -0.050574545 -0.046953965 -0.065020755
0.06929887 0.00074217963 -0.0100938715 -0.0018366626 -0.033058252 0.03524337 0.06931843 -0.061775725
0.068316564 -0.07163753 -0.050980758 -0.03721956 0.021641886 0.06346106 0.0028493893 0.07254636
0.11989565 -0.06099534 -0.023930741 -0.008724852 0.037472013 0.0745754 0.05547009 -0.057089753
-0.058048133 0.039080273 0.042111743 0.00032812412 -0.020650746 -0.050756965 -0.09477078 0.081899635
-0.056621406 0.011524819 -0.04263439 0.042761866 -0.017125975 0.04540522 0.08346416 -0.05154681
0.020235347 0.071613245 0.06256482 -0.0076563507 -0.03255607 -0.004954183 -0.0200248 0.009484747
0.048773002 0.011600446 0.03407425 -0.06742121 0.05739797 -0.05877619 -0.009686008 -0.034854647
-0.05022038 0.022440555 0.055780552 0.08686976 0.0210776 0.086520754 0.03177006 -0.04923038
-0.008595596 0.072409175 -0.075952895 0.04620964 -0.07875432 -0.008624703 -0.074920416 -0.06532733
0.06386239 -0.023552991 0.03247163 -0.02883787 0.06490747 0.013430538 -0.079974174 -0.025969742
-0.036650408 0.042867035 0.01680692 -0.052561317 0.03030668 0.03338874 -0.047417734 0.035403814
0.05986401 0.04555734 0.047023088 -0.1004645 -0.027548105 0.02783311 -0.1311283 -0.019401032
0.043449715 -0.05454029 -0.0020157536 0.0789111 0.05845669 0.013076026 -0.0117332395 -0.0033151195
0.031821195 0.055405065 -0.12037989 -0.05379816 0.0036153651 0.001673439 -0.061051857 -0.08337316
0.014004535 0.08597075 0.060442433 -0.004884191 0.100863226 -0.02990843 0.07718137 0.07526387

layers_f.blocks.0.conv_layers.0.bias f4 [10]
00000000: a89b 943d 4816 b4bd 2440 f2bc 9a51 98bd
00000010: 5c81 f2bc 466c 353c a55f b23d 4fc9 a53c
00000020: bf55 78bc 291a 10bc
0.072562516 -0.08793312 -0.0295716 -0.07437439 -0.029602699 0.011073178 0.08709649 0.020237593
-0.015157162 -0.0087953

layers_f.blocks.0.conv_layers.1.weight f4 [10, 10, 11]
00000000: 55f2 98bb 75ed 5abc dbc6 3abc 61e9 81bc
00000010: c6a6 6abc 31fd 77bc ef05 d9bc 288d 96bc
00000020: a0f4 6dbc bdaf f2bb 85fc 43bc 65c0 74bb
00000030: 2b9d 05bb a563 4abb 77a6 3abc b020 e7bb
00000040: ad99 7fbc d6c2 7bbc c22c 8abc 2001 8dbc
00000050: 0543 08bc 6d34 c2bb 82ee 943b 46c1 acbb
00000060: 6e4e a03a ef45 b9bb 4794 98bc 2678 c2bc
00000070: 8a8d 0fbd 8f10 11bd 2409 17bd 26c7 27bd
00000080: a529 48bd afe2 243b c445 be3b b35e a23b
00000090: 04f4 293c 93d6 f23b 419f 2eba 9790 cf3b
000000a0: 2f24 1b3c 048a 953c 26a4 753c dd1c 743c
000000b0: 11f0 333c a57a 283c f6c4 fa3b 5534 253c
000000c0: 59f2 403c d274 1e3c 4a8e 183b d812 8e3b
000000d0: e9cb e93b 136c 56bb 335c c2bb 32b9 aebb
000000e0: 66a1 75bb 5298 eabb 1261 7a3b 8008 783b
000000f0: 519d 0f3c 54e7 a83b ef8b 463c 567a 523c
00000100: 0fa7 333c 6efa f83b 88ee c7bc ef48 ebbc
00000110: d0d9 0abd 6466 eebc 6234 53bc e6b3 98bc
00000120: d0fd afbc 20c1 efbb e60a 9fbc 5d29 97bc
00000130: f69d d5bc c947 aab9 ac5e 9cba 44ca 933b
00000140: 845e 673b b6c2 e2b9 6708 2a3c 0263 7e3c
00000150: 2607 ba3c 763b db3c cacc bd3c 81a7 aa3c
00000160: d421 cb3b 5613 543c 80ab 54ba 8c5b a3bb
00000170: 7718 f93b 8f60 063c 22e3 c43b 0961 3bbc
00000180: eae5 ebbb a499 523a 74cb 523a ba56 e7b8
00000190: 780a 9a3b 2c0a 353c 89af 2e3c 8164 f339
000001a0: 2c88 dd3a c175 44ba a1cf 80ba d3d7 ecbb
000001b0: 62d9 333b 8653 b9ba 0d15 8abc cffe a2bc
000001c0: d1da 2ebb 57e9 e4bb 3d7f 4fbc 9419 d3bb
000001d0: 2db4 b2bb 9f21 32bc d628 04bc 7a79 a1bb
000001e0: 17f3 19bb f838 353c 28cc 953b e47d ab3b
000001f0: 0597 8e3b 9b69 ac3b 0635 463b b41b b7ba
00000200: 04ff 813b 898f 963b 6104 063c 3304 3abb
00000210: 16ba cabb 9d46 3ab9 c9d2 a2bb 6a08 e6bb
00000220: 4803 8c3b d449 3cba f306 3cba 4e82 623c
00000230: 11e1 1e3c 943f a23b 78ac 963c 212f 3ebc
00000240: 4941 c4bb f164 4739 33c7 e2bb f786 76bc
00000250: 6a5f 46bc a20a 75bc b228 b4bc 5af9 03bd
00000260: c257 11bd e321 32bd 5617 783c 7aa0 413c
00000270: 8ef2 4639 6fd6 e33b 4711 563c dae3 0039
00000280: d0f1 fb3b 7562 243c 84f0 813c 65c7 d23c
00000290: 7325 b73c c41b fa3b b716 6c3c bba9 293b
000002a0: 6f6a e23b bcd0 ec3b 98d7 ccb9 ad9f b83b
000002b0: 2087 3bbb f0be b9bb b7a2 01bc fa11 82bc
000002c0: c10c 1e3b 3799 653c 837d 333c e257 3bbc
000002d0: 3144 d5bb 096e b9bb 4893 7ebc 5059 dbba
000002e0: 53f1 8d3b 9a63 82bb aed1 6c3c f599 983b
000002f0: 2df6 80b9 6737 d6bb 7896 2fbb aab2 e13a
00000300: 60d5 0fbc bfa1 0ebc 0296 12bc 5817 c3bc
00000310: 07b1 cabc a142 b7bc 7130 d3bb 0300 9e39
00000320: c21a 45bc 5594 feba 9029 18ba d448 45bc
00000330: 25d6 2ebb a9f0 85ba fd37 73bb 2a79 d4b9
00000340: fca0 463c 57ef 2abc 843a 92ba 5267 1e3b
00000350: 9165 323b b145 033c 1e56 e23a 0e14 6ab9
00000360: 573a 9dba 2804 86bb 1b18 5a3a 0371 1b3b
00000370: e915 98bb 90f3 17bc 6e1e 19bc ed33 92bc
00000380: 0d52 82bc 9035 8dbc 39f0 9ebc 76d2 85bc
00000390: b0a7 a6bc d135 80bc ba25 42bc bfc0 09bd
000003a0: 220f 10bd 3a19 08bd 18db cdbc 98e5 97bc
000003b0: d212 81bc 8457 03bc 051d 75bb 7036 b0ba
000003c0: 9d22 f33b 888c 6e3c 87e8 79bc 2f2e 4fbc
000003d0: 53c6 10bc 2047 11bc 4d48 8bbb 266f 4fbb
000003e0: a08f 4a3a eda4 543b b6e0 103b 0994 923b
000003f0: e894 ef39 e399 ebbb 38e4 75bc d2dd 9cbc
-0.00466756 -0.013362278 -0.01139995 -0.015858354 -0.014321988 -0.015136049 -0.026492087 -0.018377855
-0.014523655 -0.0074062035 -0.011962061 -0.0037346121 -0.002038787 -0.0030882147 -0.011392227 -0.007053457
-0.015600604 -0.015366277 -0.016867045 -0.01721245 -0.00831676 -0.00592666 0.004545034 -0.0052720634
0.0012230405 -0.0056540887 -0.018625392 -0.023738932 -0.03504709 -0.035416182 -0.03687395 -0.040961407
-0.04886784 0.0025159528 0.0058066566 0.0049551367 0.010373119 0.007410833 -0.0006661304 0.006334375
0.009469076 0.018254288 0.014992749 0.01489946 0.010982529 0.010283147 0.007652874 0.010083278
0.01177653 0.009671407 0.002327817 0.0043357424 0.0071349037 -0.0032718226 -0.005931401 -0.0053321356
-0.0037480234 -0.0071592713 0.003820483 0.0037846863 0.0087655345 0.0051545296 0.012118324 0.01284655
0.010965123 0.007598213 -0.024405733 -0.0287213 -0.03389913 -0.029101558 -0.012890907 -0.01864047
-0.021483332 -0.0073167235 -0.019414376 -0.01845234 -0.026076298 -0.0003247841 -0.001193007 0.004510196
0.0035304138 -0.0004325115 0.01037798 0.015526535 0.022708487 0.026761752 0.02316894 0.020831825
0.006199101 0.012944063 -0.00081127137 -0.0049852785 0.0076017934 0.008201732 0.0060085217 -0.011436709
-0.0071990388 0.00080337585 0.0008041181 -0.000110310924 0.004700955 0.011049788 0.010661968 0.00046423453
0.0016901544 -0.00074943533 -0.0009827503 -0.0072278767 0.0027442803 -0.0014139272 -0.01685574 -0.019896893
-0.0026680718 -0.006985824 -0.012664613 -0.006442258 -0.0054536075 -0.010872274 -0.008066377 -0.004927811
-0.002349084 0.011060946 0.0045714565 0.005233513 0.004351499 0.0052616126 0.0030244007 -0.0013970048
0.003967168 0.0045947474 0.008179755 -0.002838385 -0.006186734 -0.00017764648 -0.004968975 -0.007020046
0.004272852 -0.0007182632 -0.00071726664 0.013825012 0.009697215 0.0049514268 0.018392786 -0.011607916
-0.005989228 0.00019015723 -0.006920719 -0.015046827 -0.012107709 -0.014956148 -0.021992061 -0.032220222
-0.035484083 -0.04348935 0.0151422825 0.011818046 0.0001897311 0.0069530527 0.013065643 0.00012291913
0.0076887384 0.01003324 0.015861757 0.025729844 0.022356724 0.0076327045 0.0144097125 0.002588852
0.0069096605 0.0072270315 -0.00039070542 0.005634269 -0.0028614476 -0.0056685135 -0.007912329 -0.015877713
0.0024116489 0.01401358 0.010955217 -0.011434527 -0.006508373 -0.005658869 -0.015538044 -0.0016734991
0.0043317466 -0.0039791586 0.014454288 0.004657025 -0.00024597478 -0.006537366 -0.0026792567 0.0017219384
-0.0087789 -0.008705555 -0.008946897 -0.023814842 -0.024742616 -0.022370638 -0.0064449836 0.00030136117
-0.012030305 -0.0019422868 -0.0005804533 -0.012041289 -0.0026677933 -0.0010218817 -0.003711223 -0.00040526065
0.012123343 -0.01043304 -0.0011156355 0.002417047 0.0027221183 0.008012221 0.0017268097 -0.0002232345
-0.0011995536 -0.004089851 0.0008319632 0.0023718483 -0.004641284 -0.009274378 -0.009345634 -0.017847026
-0.015908265 -0.017237455 -0.019401656 -0.016335707 -0.020343632 -0.015650662 -0.011849815 -0.033631083
-0.03517068 -0.033227183 -0.025128886 -0.018542096 -0.015756045 -0.008016471 -0.003740133 -0.0013443958
0.0074198977 0.014559872 -0.015253193 -0.012645288 -0.008836347 -0.008867055 -0.0042505623 -0.0031651943
0.000772709 0.0032446936 0.0022106594 0.0044732136 0.00045696576 -0.0071899756 -0.015008025 -0.01914874

layers_f.blocks.0.conv_layers.1.bias f4 [10]
00000000: c61a eebb fc02 eabb 1523 00bc 3f69 083c
00000010: a4d3 e5bb 7643 e73b 48ff 973b 00cc d73b
00000020: ada5 e7bb d7bd d9bb
-0.0072663752 -0.007141469 -0.007820864 0.008325874 -0.007013755 0.0070576025 0.004638586 0.006585598
-0.0070693106 -0.006644945

layers_f.blocks.1.batch_norm_layers.0.weight f4 [10]
00000000: 1e7a 813f d6e8 7d3f c7ed 813f 6e95 803f
00000010: de02 7f3f f78d 7c3f b034 7b3f 8880 7f3f
00000020: 33c0 803f 8e96 7d3f
1.0115392 0.99183404 1.0150689 1.0045602 0.9961375 0.9865412 0.9812727 0.998055
1.0058655 0.99057853

layers_f.blocks.1.batch_norm_layers.0.bias f4 [10]
00000000: 77e2 d83a f386 4f3c 1d60 9d3c d6ca e23c
00000010: c421 0e3b 1234 32bc 517c c43a 100d 6fbb
00000020: 51cf 133d 7a48 5cbc
0.0016546984 0.012666452 0.01921087 0.02768461 0.0021687606 -0.010876672 0.0014990662 -0.0036476292
0.036086384 -0.013445014

layers_f.blocks.1.batch_norm_layers.0.running_mean f4 [10]
00000000: a169 5ebe dc8e 2cbe 4498 dfbe 6b2d c2bc
00000010: 106f 50be e68e 293d 4cb6 fdba 69e5 173e
00000020: c023 c6be 9663 63bd
-0.21719982 -0.16851372 -0.43670857 -0.023703298 -0.20354867 0.041396044 -0.0019356697 0.14833607
-0.3869915 -0.055514894

layers_f.blocks.1.batch_norm_layers.0.running_var f4 [10]
00000000: aa41 823e 1f78 873d 93fb aa3e 585b 373e
00000010: c047 493f 0845 9d3e 7ae8 813e 74a5 fd3e
00000020: 9874 cc3d 0b33 013e
0.25440723 0.06614708 0.3339506 0.17905939 0.78625107 0.3071673 0.25372678 0.49540293
0.09983176 0.12617128

layers_f.blocks.1.batch_norm_layers.1.weight f4 [10]
00000000: 0eb9 833f 7a12 823f f8bb 823f b4d0 833f
00000010: ce1c 833f e6d6 823f d983 813f cab8 823f
00000020: cf24 823f 0187 833f
1.0290849 1.0161889 1.0213614 1.0298066 1.0243165 1.0221832 1.0118362 1.0212643
1.0167483 1.0275575

layers_f.blocks.1.batch_norm_layers.1.bias f4 [10]
00000000: 9234 353c de15 a03b edb0 71bb 2d48 4fbc
00000010: 55f3 8d3b 1f22 7bba 8a58 ec3b b520 9e3c
00000020: 2c0e 4d3c 3e0b 033c
0.011059897 0.0048854193 -0.0036879138 -0.012651485 0.004331986 -0.00095799746 0.007212703 0.019302705
0.012515586 0.007998286

layers_f.blocks.1.batch_norm_layers.1.running_mean f4 [10]
00000000: 9c1d a53d 1ebe 7f3e 3d7b 9a3e 9b36 743d
00000010: 33aa e23e ab5a a63e a25c 74bc c12f 413e
00000020: 461e 9dbc fb89 e23d
0.08062288 0.24974868 0.30172148 0.05962239 0.44270477 0.3249105 -0.0149146635 0.18865873
-0.019179475 0.11061474

layers_f.blocks.1.batch_norm_layers.1.running_var f4 [10]
00000000: 3025 733d 0bbc a63d 89cc 023e e7d7 d63d
00000010: 70cf 0e3e 7395 0c3e 4f64 af3d adc0 993d
00000020: 2128 c63d 31ee a03d
0.059361637 0.08141335 0.12773336 0.10490399 0.13946319 0.13728885 0.08564054 0.07507453
0.09675623 0.078579314

layers_f.blocks.1.conv_layers.0.weight f4 [10, 10, 11]
00000000: 80c3 97bd 4d6d 04bd 86a4 c7bd abae 97bc
00000010: 875a 993d fc86 9cbd 3753 9b3d 02b1 8e3d
00000020: 6a8f 5b3d 3b15 f539 7cc9 0b3c 9577 76bd
00000030: 2047 1e3d b213 ab3d 36b4 c03c e5df aa3c
00000040: fe09 f23c f182 20bc 8eea 723d 8009 58bc
00000050: 662f 6b3d 13cb 8a3d 3ce4 3bba 5270 67bd
00000060: 30e7 f6bb d46a ab3d eeec 5d3d 4044 873c
00000070: 95f6 5cbd 24ba fcbc 398b cebd 0059 313d
00000080: 4711 1f3d 204c 95bd 9f82 773d 9869 753d
00000090: 3565 7fbd 8270 313d b923 3bbd 7490 913d
000000a0: 6d0f 4bbc 2a6f 4ebd 5c04 c9bd ea66 2cbd
000000b0: 5c7f 88bd 6bbe 8dbc cc40 83bd 0674 963d
000000c0: e28b 373c fbe9 b5bd 3a83 763d f0ac 91bd
000000d0: ce24 56bd 5a39 ce3d 2c14 863d 3342 0bbd
000000e0: 4891 62bd c573 dc3c 14ac 7fbd 5a23 b53d
000000f0: 342d 29bc ba31 233d 4c10 e23c d092 43bd
00000100: 7028 71bd d6d3 82bd d741 cbbc f8ee ccbb
00000110: 9b1a e23c a567 913d f283 9a3d e1d4 b1bc
00000120: 4595 44bd c0ea adbd ff9c 8a3d 869e 72bd
00000130: bcd5 c4bd 8123 5fbd 27e0 20bd f8a8 5ebd
00000140: c7e3 923c 25f3 963d 95a9 a63c f253 c33d
00000150: b5bf 613d 0162 443d 86c4 0ebd a6c3 16bc
00000160: 3a61 45bd d1f1 87bc bc87 b23d bea0 813d
00000170: 4aa7 55bc c78a 3a3d 2f6f b5bd 8202 533d
00000180: c026 88bd 4f03 823d 3dd8 edbc 40df 96bc
00000190: 5d1c 673c 84ff 5fbd 5cfa 193d 1931 f8bc
000001a0: 8d2b adbd 238e 3b3d 8088 413c 990d 903d
000001b0: 8424 a53c 1385 803c 0cd8 873d 9f43 edbb
000001c0: aec5 833d d8ca 8e3d d02c 05bd ddd8 6e3a
000001d0: 4a88 5dbd 0db8 b03d 0ece a63d 52d3 c0bd
000001e0: d686 b5bd f90f 0cbd 88ef e23c fe6d 84bd
000001f0: 0952 86bd 7a5f 65bd 9251 0f3d d837 15bd
00000200: be4f 49bd cecc 1e3c bf76 503d 66ca 903c
00000210: e4df cb3d 856b 21bd 3d5b ad3d beab b0bc
00000220: 8e5b 0fbd b3f6 b2bd f49e 94bd 9f40 7abd
00000230: b976 9b3d a7b2 9fbd 5dbe 82bc a103 1dbd
00000240: 672b 27bd edc8 bd3d 539a acbd f498 9bbd
00000250: 7fde 353d 1c0d 25bd bdea b63c 2e87 4bbd
00000260: 5f57 853b 2a66 2a3d 703f 4b3d 2c20 c7bd
00000270: 274d 84bb 67a9 9d3d 1fc5 353d c4a4 74bd
00000280: 8030 1cbd f9ad fabc 56d3 75bd 4b54 99bc
00000290: 3ad1 813d db3e 653c 0ee7 96bd fa94 a83d
000002a0: 6b18 9f3d b2e8 e3bb 75b0 893d c2e9 e03d
000002b0: 4281 143d 5315 e9bc fd90 5bbd a4ab 873d
000002c0: 0775 7b3d 0de2 bb3d d388 993b fb75 ff3c
000002d0: ec2e bc3d a9d2 95bd ad9d 6f3d 55b7 36bd
000002e0: 08f5 66bd cb91 60bd d19e 843d f819 833c
000002f0: 0ae0 16bd 1d30 c73b 41a5 de3c 0b1d b13d
00000300: 490c 863d a2df 9cbd cdfc 323d 176b 3a3a
00000310: 6cbd 90bc d3fc 0b3d 24e9 203d 855b 5d3d
00000320: a775 5fbd 72d5 dbba f30e d23c 1681 8cbd
00000330: 4139 5e3d 3fd3 7a3d 0a29 053d bda5 c03d
00000340: 96cf 303d 5340 dc3d 801d 5a3b 5bb0 a4bd
00000350: 35b4 89bc ab47 9fbd f59d 503d 10cf 59bb
00000360: 1c46 a53d 2a42 533d 03da e13d 1356 883c
00000370: c61c 443d 9ab7 9c3d a4cf 9bbd 2075 d13d
00000380: 546b 10bd fd05 56bc de40 a2bd 5338 503d
00000390: 8f74 49bd 0673 db3c 2d69 d0bc a612 96bd
000003a0: 1304 3dbd 3997 8abc ea95 83bd 40af 4fbd
000003b0: 6834 1cbd 2473 d7bc 1159 423a c0ca 423d
000003c0: 70f7 85bd 0832 b4bd b25c b23d efc1 10bd
000003d0: b57f 943b 734a 673d 7a6e dc3b 200b bf3d
000003e0: 803a 853b 0f0d c63d 02cd 1dbd be17 7039
000003f0: 87bb ae3d 29d3 d63d 49d9 f53a 8a18 ea3d
-0.074103355 -0.0323308 -0.09748177 -0.018515905 0.0748797 -0.07642934 0.07584231 0.06967355
0.053603567 0.0004674586 0.008531924 -0.060172636 0.03864205 0.08353366 0.023523431 0.020858714
0.02954578 -0.009796844 0.05930572 -0.013185859 0.05741825 0.067770146 -0.00071674935 -0.0565036
-0.007534884 0.08369985 0.054181032 0.016512036 -0.053946096 -0.030850478 -0.10085148 0.043297768
0.038834836 -0.0728991 0.060427304 0.059915155 -0.062352378 0.043320186 -0.045688365 0.0710763
-0.0123938145 -0.050398983 -0.098152846 -0.042090334 -0.06664917 -0.017302712 -0.064088434 0.073463485
0.011202784 -0.08882519 0.06018374 -0.07113063 -0.052281193 0.10069533 0.06546816 -0.03399868
-0.055314332 0.026910672 -0.062419966 0.088446334 -0.010325719 0.039842345 0.027595662 -0.047747433
-0.058876455 -0.06388061 -0.024811668 -0.006254073 0.027600577 0.07099847 0.07544698 -0.021707954
-0.047993917 -0.08492041 0.06768226 -0.05923321 -0.09611079 -0.05447722 -0.03927627 -0.05436036
0.017930878 0.07370595 0.020344535 0.09537496 0.055114467 0.047945026 -0.034855388 -0.00920192
-0.048188426 -0.0165948 0.087172955 0.06329487 -0.013040373 0.045542505 -0.08859097 0.051516064
-0.06648016 0.06348287 -0.029033775 -0.018417 0.014105883 -0.054687038 0.037592277 -0.03029685
-0.08455572 0.04578985 0.011812329 0.070338435 0.020159014 0.015688455 0.066330045 -0.007240727
0.06434189 0.06972283 -0.03251344 0.00091112946 -0.054085054 0.08628855 0.081447706 -0.09415306
-0.088636085 -0.03419492 0.027702108 -0.06466292 -0.06558616 -0.055999257 0.0349899 -0.03643021
-0.049148314 0.009692384 0.050894495 0.017674636 0.09954813 -0.03940918 0.08464668 -0.021566268
-0.034999423 -0.087384604 -0.072568804 -0.061096784 0.07591004 -0.07797747 -0.015959913 -0.03833354
-0.040812876 0.09266839 -0.084278725 -0.07597533 0.044401642 -0.040295705 0.022328729 -0.049689464
0.0040692533 0.041601337 0.049621046 -0.09722933 -0.0040375176 0.076983266 0.044377442 -0.059727445
-0.03813219 -0.030600535 -0.060016 -0.018716952 0.06338735 0.013992037 -0.07368289 0.0823154
0.07768329 -0.0069552297 0.0672311 0.10982086 0.036256082 -0.028452551 -0.05360507 0.06624535
0.061390903 0.09173975 0.0046855 0.031184187 0.09188637 -0.07315571 0.05849998 -0.044608433
-0.056386024 -0.05482654 0.06475604 0.016003594 -0.036834754 0.0060787336 0.027178409 0.08648118
0.06545312 -0.07659842 0.04369812 0.00071112945 -0.017668448 0.03417666 0.03928484 0.054042358
-0.05455556 -0.0016771986 0.025641894 -0.06860559 0.05425382 0.061236616 0.03250984 0.09406612
0.04316672 0.10754456 0.0033281744 -0.0804145 -0.016809562 -0.077773415 0.05093189 -0.003323499
0.08070013 0.05157677 0.110279106 0.016642606 0.047879003 0.07652207 -0.07607964 0.10227418
-0.035258606 -0.013062951 -0.07922529 0.050834965 -0.049183425 0.026788246 -0.025440777 -0.07327776
-0.046146464 -0.016917812 -0.06425078 -0.05070424 -0.038135916 -0.02630002 0.00074137846 0.04755664
-0.065413356 -0.08798605 0.087090865 -0.0353412 0.0045318254 0.056467485 0.006727037 0.09328294
0.0040658116 0.096704595 -0.03852559 0.00022897028 0.08531862 0.10489494 0.0018756773 0.11430462

layers_f.blocks.1.conv_layers.0.bias f4 [10]
00000000: d90e 893d 540a f0bb 163e 35bc 0450 843c
00000010: 03e8 bd3d fc01 12bd 8d25 73bd b691 133d
00000020: 61b5 8bbd 1e95 393d
0.06692285 -0.00732545 -0.011062166 0.016151436 0.09272768 -0.035646424 -0.059361983 0.036027633
-0.06821705 0.045308225

layers_f.blocks.1.conv_layers.1.weight f4 [10, 10, 11]
00000000: e3b2 b0bc e561 81bc 6db3 8abc 89dc abbc
00000010: 25a1 c0bc 7643 92bc 8472 8dbc c6df e4bc
00000020: 7ce9 cfbc e353 b1bc 9692 b6bc 257e 32ba
00000030: a1e9 12bc 2f03 35bc 3310 88bc 123f 29bc
00000040: d96b 5abc 64eb 4cbc 6930 63bc e3b7 6bbc
00000050: 0d83 76bc abc3 2dbc d3f6 103c e0e3 ba3b
00000060: aeff c83b dcfe b43a a99f 063b e258 753a
00000070: f6d3 19bb 366a eaba e2be 6eba 40b8 caba
00000080: 7d82 8db9 9938 d13c 9450 cc3c 64fc 9c3c
00000090: 8104 993c 5c0d a13c 5ac2 793c 320d 803c
000000a0: 324b ab3c c46b b53c 233f c23c 67ba db3c
000000b0: 8532 593c 1bed 4b3c 8777 0e3c c5d0 b33b
000000c0: 2de7 e73b a2c2 d13b a6b9 983b 461a 163b
000000d0: 7f94 213c 5cb7 db3b 8fd6 4c3c 4051 4fb9
000000e0: 0f39 053a ffbc dbba 4696 ddba 8542 39ba
000000f0: 642f 21bb 86d8 1738 f950 92ba 6545 b639
00000100: 3a02 473a 47e7 693b 3ce0 29bc 813e 19bc
00000110: ef17 2cbc efdb 71bb 5af4 edbb 7d05 e1bb
00000120: 7019 87bb 9ff1 a2ba ee13 a1bb 2646 343b
00000130: a429 c23b 08c7 703b d548 5d3a 9b72 14ba
00000140: fb36 d5bb dead 2ebc 5f01 6fbc 78c9 a8bc
00000150: 4bee d3bc 6292 f8bc 1f19 cebc d074 ebbc
00000160: c1b3 87bb 7f00 9e3b 0b74 91ba 2fe7 debb
00000170: fbcc c8bb 9487 03bc 12e0 41bc 82ac 36bc
00000180: f5d0 5bbc 2363 7fbc fa3d 37bc 3e46 71bc
00000190: 003c 35bc f766 48bc 316a 99bc c105 9abc
000001a0: 53c8 92bc 896a c3bc dc39 c1bc 2f21 f8bc
000001b0: ac90 0ebd 4729 31bd 7242 b5bc 42d6 88bc
000001c0: 18f4 40bc 4395 91bc f193 03bc 0c1a 6ebc
000001d0: 52bc cbbc ff69 d2bc f1db d0bc 3d13 6cbc
000001e0: aefa eebb 6372 ff3b 0095 a13b 662b fb3b
000001f0: 1807 ce3b a4b6 2d3c b4ce fa3b 9905 0c3c
00000200: aa84 383c 75df 573c e957 223c 8f4d 263c
00000210: b705 c0bc 0a05 b4bc 9495 a7bc 0c19 aabc
00000220: e1fb 51bc 60a6 0ebc 45ab 24bc db40 bdba
00000230: 1d7f e5ba 4bad 453a a109 fd3a ae1f 12bc
00000240: 75b2 0bbc 4bbd 34bb 2118 2aba 502e 903a
00000250: 62f8 1fbc 8e44 313a ce8b 0e3b 1da3 f8bb
00000260: 4553 01bc 523d 1abc bdea 57bc 1148 99bc
00000270: bc52 b3bc 5fff 8fbc 6e89 aabc 98bd 8bbc
00000280: 7b79 81bc 8b58 8ebc 487a eabb bd39 34bc
00000290: aaaa 8dbc 250a a9bc 3727 7cbc f2bd 5ebc
000002a0: a436 76bc ebfc 5abc cd6f 40bc defb 4ebc
000002b0: d055 46bc 30a8 8fbc ca47 63bc 8c18 a0bc
000002c0: 882c 8ab9 0f5d fbb9 2375 753b 5a21 8a3b
000002d0: 156d b83b 188a 1f3c 5cf4 b03b 8548 cc3b
000002e0: 6e54 1a3c b018 063c dea5 bfba e11a 87ba
000002f0: f681 97bb b0e6 e6ba 55b8 883b 97e9 a93b
00000300: 51b6 a83b de4c 063c 68b6 fb3b 8e05 023c
00000310: ded4 343c 987b f73b 9984 e1bb dbdd 1dbc
00000320: ce8d a5bc 58c1 a5bc 34e8 a1bc ca09 67bc
00000330: cb09 68bc 0bd1 7abc 5cc2 16bc e666 27bc
00000340: 44b6 eebb e177 1cba 0b58 08bc 92c6 6fbc
00000350: 63ea 5cbc 4e82 96bc 3520 49bc 6a87 84bc
00000360: 1210 c6bc d6dc 92bc 56ae 4fbc 704e 34bb
00000370: 15a8 8abc ff98 f8bb b090 ecbb 1165 20bc
00000380: 2c93 e4bb 38db cdbb 70e2 7fbb 99ea 3bbc
00000390: 1aee 44bc 63a8 83bc b3b8 aabc 4159 d8bb
000003a0: 0a22 48bc 2398 33bc 2df4 9cbc a3a9 91bc
000003b0: 88a7 a6bc b57f b1bc f92f babc 3de1 dabc
000003c0: 2d42 e7bc cfd4 b8bc b5e3 ae3c ac58 803c
000003d0: 0a53 683c 4252 123c 75fb 4b3c da88 a73b
000003e0: ccdf dc39 9cb0 45b9 5c1f 7aba 72aa 4bbb
000003f0: 51a2 7eba 051e c63b d798 9e3b 5333 3c3a
-0.021569675 -0.01579375 -0.01693126 -0.020979183 -0.02351434 -0.017854434 -0.01726652 -0.027938735
-0.025379889 -0.021646446 -0.022286694 -0.0006808958 -0.008966834 -0.011048122 -0.016609287 -0.010329979
-0.013331377 -0.012507293 -0.013866522 -0.014387104 -0.015045893 -0.010605733 0.00884791 0.0057034343
0.006133995 0.0013808864 0.0020541942 0.0009359253 -0.0023472286 -0.0017884437 -0.0009107423 -0.0015466288
-0.00026990837 0.025539683 0.024940766 0.019163318 0.018678905 0.01965969 0.015244091 0.015631292
0.02090988 0.022146113 0.023711747 0.026822282 0.013256674 0.012446667 0.00869549 0.0054875338
0.007077119 0.006401376 0.004660803 0.0022903844 0.009862064 0.0067052078 0.012502327 -0.00019771326
0.000508205 -0.0016764699 -0.0016905747 -0.0007067102 -0.0024594897 3.620286e-05 -0.0011163048 0.00034765448
0.00075915793 0.003569083 -0.010368403 -0.009353281 -0.010503753 -0.0036904772 -0.007261795 -0.0068671093
-0.0041229054 -0.0012431628 -0.004915706 0.0027507632 0.005925374 0.0036739726 0.0008441334 -0.00056628295
-0.0065067983 -0.01066157 -0.014587729 -0.02060388 -0.025870463 -0.030343238 -0.025158463 -0.028742224
-0.0041413014 0.0048218365 -0.0011097206 -0.0068024616 -0.006127951 -0.00802793 -0.011833208 -0.0111495275
-0.013416518 -0.015587601 -0.01118421 -0.01472622 -0.011061668 -0.01223158 -0.018727394 -0.018801572
-0.017917788 -0.02385451 -0.02358716 -0.03028926 -0.03480594 -0.043252256 -0.02212641 -0.016703729
-0.0117769465 -0.017771369 -0.008030877 -0.014532577 -0.024870072 -0.025685309 -0.025495501 -0.014408884
-0.007293067 0.0077956184 0.0049310923 0.0076650856 0.0062874667 0.010602627 0.0076540355 0.008546256
0.011262098 0.013175835 0.009908655 0.010150327 -0.023440225 -0.021975059 -0.020457067 -0.020763896
-0.0128164 -0.008706659 -0.010050599 -0.0014438884 -0.0017509196 0.0007540776 0.0019305238 -0.008918686
-0.008526434 -0.0027578648 -0.0006488581 0.001100013 -0.009763809 0.00067622296 0.002175081 -0.007587804
-0.007893388 -0.009414034 -0.013178525 -0.018711122 -0.021890037 -0.017577825 -0.020817485 -0.017058179
-0.015804997 -0.017376205 -0.0071556903 -0.011000094 -0.017293293 -0.02063472 -0.015390209 -0.013595091
-0.015027676 -0.013365964 -0.011745405 -0.012633292 -0.01210542 -0.017536253 -0.013872096 -0.019542955
-0.0002635459 -0.00047943785 0.0037453852 0.0042154016 0.005628238 0.009737514 0.0054002237 0.006234231
0.009419544 0.008184597 -0.0014621576 -0.0010307693 -0.004623647 -0.0017616358 0.0041723647 0.005185317
0.005148687 0.0081970375 0.0076816566 0.007935895 0.01103708 0.0075525753 -0.006882262 -0.009635414
-0.02020922 -0.020233795 -0.019764043 -0.014101455 -0.014162491 -0.015308629 -0.009201612 -0.010217404
-0.0072849113 -0.0005968791 -0.008321772 -0.014634745 -0.0134836165 -0.018372681 -0.012275745 -0.016177852
-0.024177585 -0.017927568 -0.012675842 -0.0027512573 -0.01692585 -0.007586598 -0.0072193965 -0.009789721
-0.006975552 -0.0062822364 -0.003904488 -0.011469507 -0.012019658 -0.016071504 -0.020840025 -0.006602437
-0.012215147 -0.010961565 -0.0191594 -0.017781084 -0.020343557 -0.02166734 -0.022727953 -0.02671873
-0.028229797 -0.022562413 0.021348814 0.015667282 0.014179954 0.008930745 0.012450089 0.0051127495
0.00042128412 -0.00018853176 -0.0009541416 -0.0031076935 -0.0009713518 0.006046059 0.0048399973 0.0007179279

layers_f.blocks.1.conv_layers.1.bias f4 [10]
00000000: 8a1c 0abc 958b 04bc d9f8 eebb 758f d93b
00000010: 77f7 ecbb 593e 033c 92af 7a3b ff0f d73b
00000020: c6b2 edbb 63de fcbb
-0.008429656 -0.00808992 -0.0072928485 0.006639416 -0.0072316485 0.00801047 0.003825162 0.006563186
-0.0072539775 -0.0077169403

layers_f.blocks.2.batch_norm_layers.0.weight f4 [10]
00000000: 4002 803f 9c59 7b3f 6a39 7f3f 97d1 813f
00000010: ebd6 7a3f eb08 7c3f cec5 823f e34e 803f
00000020: f93a 803f a872 813f
1.0000687 0.9818361 0.9969698 1.0142087 0.9798419 0.9845111 1.0216615 1.0024074
1.0017997 1.0113115

layers_f.blocks.2.batch_norm_layers.0.bias f4 [10]
00000000: 9021 e93b 7e8b 5e3b ff52 3f3c ed03 603b
00000010: 6e81 e3bb fedf 74bc 64bc fd3c 6316 3a3c
00000020: 47db 293c 1ec1 8a3c
0.0071145967 0.0033957656 0.011677503 0.0034182027 -0.0069429195 -0.014945982 0.03097362 0.0113578765
0.010367221 0.016937789

layers_f.blocks.2.batch_norm_layers.0.running_mean f4 [10]
00000000: bfe1 e3be 5efe f1be fdf9 1ebf ac7d f63c
00000010: 00b1 c6be 7bc5 0e3d b618 2e3e 82d6 c33d
00000020: fd7f e8be 2147 76bd
-0.44508168 -0.4726438 -0.621002 0.030089222 -0.38806915 0.0348563 0.17001614 0.095623985
-0.45410147 -0.060126428

layers_f.blocks.2.batch_norm_layers.0.running_var f4 [10]
00000000: d375 c73e ea4f fb3d 8926 2e3f 8cf3 d83e
00000010: 845b ad3f 297f 433f ae3d 8e3e 1b90 843f
00000020: aca7 523e e97e 0c3e
0.3895708 0.12271102 0.6802755 0.42373312 1.3543553 0.76365906 0.27781433 1.0356477
0.20571774 0.13720287

layers_f.blocks.2.batch_norm_layers.1.weight f4 [10]
00000000: 90b2 813f cab7 813f c51f 833f c769 833f
00000010: 3ded 813f 289c 823f 7593 813f f6f7 813f
00000020: 331b 823f 9ed6 823f
1.0132618 1.0134213 1.024407 1.0266656 1.0150524 1.0203905 1.0123125 1.0153797
1.016455 1.0221746

layers_f.blocks.2.batch_norm_layers.1.bias f4 [10]
00000000: 22f8 073c fcfd fe3b 71d1 34bc 61e0 ab3b
00000010: eb68 373c f4c8 643c f1e3 413c fe7e 053c
00000020: 3427 3f3c 91d3 54bc
0.008298906 0.007781742 -0.011036263 0.005245254 0.011194448 0.013963927 0.011834131 0.008147953
0.011667062 -0.0129898945

layers_f.blocks.2.batch_norm_layers.1.running_mean f4 [10]
00000000: b83d 62be 0f89 633e b877 4a3e 54b9 163d
00000010: 33c9 e43e 656f 4c3e bc1b 7e3e 3aa0 1e3e
00000020: 726d 6c3e f24f 083f
-0.22093856 0.22220252 0.19772232 0.036797836 0.44684753 0.19964369 0.24815267 0.15490809
0.23088625 0.53246987

layers_f.blocks.2.batch_norm_layers.1.running_var f4 [10]
00000000: 4160 123e 963b e23d 4e4a 4f3e 2d18 653d
00000010: c9ac 0d3e ba82 983d 6fc0 1a3e d101 c83d
00000020: 24b5 a63d 2409 153e
0.1429453 0.11046521 0.20243189 0.05593126 0.13835444 0.07446809 0.1511247 0.097659715
0.081400186 0.14554268

layers_f.blocks.2.conv_layers.0.weight f4 [10, 10, 11]
00000000: 7ff4 c93c 5070 69bc 6eb4 2abd 99b2 db3c
00000010: bb6f 55bd f6fc ad3d 7158 1b3d 4606 85bd
00000020: 8fbf ba3d 737e 8bbd 5b10 b3bd 4383 9b3d
00000030: 2e8b 89bd 7e85 bfbc 3b77 a33d fe0a 72bd
00000040: 4bce e8bc 9d5d 953d 4392 81bc 10c4 07bd
00000050: 4640 213d bbb2 d6bc 3c78 3cbd fd9d b3bc
00000060: a6f8 f8bb 6d76 b93d 24cc 143d ce05 b2bd
00000070: 2fd1 9d3d aff7 92bd c07c c4bd ee5f 863d
00000080: 3b6a 073d a588 51bd b5c0 b0bd 277f 4cbc
00000090: 6b0a 8bbc 67fb cb3d 0865 50bd 926f 85bd
000000a0: 0f26 2abd 4fbe d63d e70d c23d 988e bf3d
000000b0: 684f 6d3d 0bc8 87ba 085d 1a37 c998 a6bd
000000c0: 08a5 90bd b399 afbd c33b 243d d079 ea3c
000000d0: 7f44 a5bd 49c0 2abd 3653 1f3d 57c7 6f3d
000000e0: b840 98bd dabe b7bc 9357 42bd c57d 113b
000000f0: bfd9 5abc 2bb0 b03d 49e0 8fbd 4deb 3b3d
00000100: a085 60bd 31ba 473d 9720 1bbd 9703 ebbc
00000110: fa0b 18bd 9e5d ccbb f7ec ab3d 8038 18bd
00000120: 77cf 5ebd 0d4b 113d 91cd 92bd a181 6abd
00000130: 6ea9 2f3d 670d 04bc 4a45 6f3c b9f1 f03b
00000140: baab a9bc 31f2 733d 50e0 c13d 6c2b 47bd
00000150: 4cbe d1bb 574d ab3d eff7 533d 009c f03c
00000160: c042 b73d a77a 183d fdcf 263d 8c33 9e3d
00000170: 12f1 c6bc 36a4 bdbc 69cb b5bd 4b83 1f3d
00000180: 3a43 99bd 9614 24bd 3858 05bd 2e79 acbb
00000190: fa8f b7bc 10b3 ab3d dfbc 05bd e1e9 95bd
000001a0: 449a a93d b241 e2bc 530d bfbd 3458 9fbd
000001b0: 5be8 19bc 33ed 47bd 7568 e6bc 20a3 083a
000001c0: ea98 a9bd 51ab 663d 3433 1bbd 194a cfbc
000001d0: 1a56 c23c 57f3 673d 6a97 dd3c 10a4 c1bc
000001e0: c88c bb3d 7fb5 cd3c 21bd b93d 12b6 69bd
000001f0: 813e 813d 1691 1fbd 13e6 60bc 8785 033d
00000200: fb24 943d 6bcd cf3d 0c6a 26bd 732b 993d
00000210: 28ed d03c 2a14 5a3d 1758 a43c f964 3fbd
00000220: b54e 6abb 6d94 a6bd 7941 3fbb 3bd1 d6bc
00000230: f7f6 273d 33d4 6dbb 1ea4 23bd cef7 acbc
00000240: 4a6b 243d 2999 afbb 3e3c e0bb 67c8 253c
00000250: a1ac 12bd d6aa 0f3d 6f96 a93d c138 3a3d
00000260: b62d 453c 850a 8ebd 8976 ff3c c111 8a3d
00000270: dd1c cbbc b795 27bd ced7 1f3d e3d0 a93d
00000280: 4c13 883d 0375 153d b111 96bd f680 34bd
00000290: 2493 bcbd 8ecf 99bd 47a2 65bd 6634 6e3c
000002a0: ba04 b8bc 2a4e d83c 3d59 17bc adbc 3d3d
000002b0: 5af0 37bd c8c9 9e3d 6a0a 34bd 66a1 ad3d
000002c0: 9bc7 b5ba 2f35 17bc d17e a83c 4507 5cba
000002d0: 8233 453d c5ea 533d 733a c53d e188 733d
000002e0: 30e4 ae3c a738 f3bc f4ec b63d 8c3c 0c3d
000002f0: 7e64 993d 7ce7 953d 6b73 683d dd6b 2fbd
00000300: 31c3 73bd ccef 9bbd f6f9 81bb be35 873d
00000310: 5e74 043d efe7 44bd eccb 9e3d 9f1e 70bd
00000320: 2d8c ac3d 1ae5 4dbd 8ef6 933c 9f1e 993d
00000330: d0e6 aabd cdfa ac3d bc66 a8bd 876f a43c
00000340: 4406 30bd 6b04 5fbd 7611 943c 49df 54bb
00000350: 2f7d a3bc 1df4 36bd 34fe e6bc ad02 383c
00000360: cb3d 0ebc b638 71bd 2d84 8d3d cdd6 2fbd
00000370: ed77 39bd 2e99 b6bc 848b 84bb 994f a33d
00000380: 18a0 2e3c 6083 de3d fa97 913d 2c47 ab3d
00000390: 67b9 da3d 7816 edbc 88eb cf3d 0610 b538
000003a0: 9ed7 943d cc5c c3bb f937 1f3d 8bbc 293d
000003b0: 8bc8 c93c a629 42bd 581a 81ba 4429 403d
000003c0: c2ad 52bd 1a92 523d 6df2 87bd 7756 ae3d
000003d0: e00a da3c cb99 903d 723e 59bd 6a7d 133d
000003e0: 0586 29bd 42d8 653c 1f4d 9c3c a29d 643c
000003f0: 92fe bf3d 10eb 433d ad16 963d 8200 533d
0.024652718 -0.014247969 -0.041675977 0.02681856 -0.052108508 0.08495514 0.03792614 -0.06495337
0.09118568 -0.06811228 -0.08743354 0.075933956 -0.067159995 -0.023379084 0.07981726 -0.059092514
-0.02841868 0.07293246 -0.015816813 -0.033145964 0.039367937 -0.026208272 -0.046013102 -0.02192592
-0.0075980006 0.09055791 0.036327496 -0.086925134 0.07705914 -0.07176148 -0.09594107 0.06561266
0.033060294 -0.051155705 -0.08630506 -0.012481487 -0.016972741 0.099600606 -0.0508776 -0.06515421
-0.0415402 0.10485517 0.09475308 0.093533695 0.057937056 -0.00103593 9.200776e-06 -0.0813461
-0.07062727 -0.08574238 0.040096056 0.028622538 -0.08069705 -0.041687284 0.038897716 0.058539715
-0.07434219 -0.022429872 -0.0474468 0.0022200209 -0.013357579 0.086273514 -0.07025201 0.045878697
-0.054814935 0.04876155 -0.037872877 -0.028688235 -0.037120797 -0.006236746 0.08394807 -0.037163258
-0.054397073 0.035471965 -0.07168115 -0.05725253 0.04288619 -0.008059836 0.014603922 0.0073530343
-0.020711768 0.059557144 0.09466612 -0.048625395 -0.006400859 0.08364361 0.05175012 0.029371262
0.089482784 0.037226345 0.040725697 0.077246755 -0.024284873 -0.023149591 -0.08876688 0.03894357
-0.074835256 -0.040058695 -0.032554835 -0.005263469 -0.02240752 0.08383763 -0.032650825 -0.073199995
0.08281377 -0.027619217 -0.09328713 -0.07780495 -0.009393777 -0.048810195 -0.02812598 0.0005212296
-0.08281119 0.056315724 -0.037890628 -0.025303887 0.023722697 0.05662855 0.027049739 -0.023637801
0.09157711 0.025110958 0.090692766 -0.0570584 0.0631075 -0.038956724 -0.013726729 0.032109763
0.07233616 0.10146602 -0.040628478 0.074789904 0.02550371 0.053241886 0.020061536 -0.046727154
-0.003575248 -0.08133779 -0.0029183312 -0.026222816 0.04100701 -0.003628981 -0.039951436 -0.021114256
0.04014138 -0.0053588343 -0.006843119 0.01011858 -0.035809163 0.03507503 0.08280646 0.04546428
0.012034824 -0.069356 0.031184452 0.067416675 -0.024794037 -0.040914264 0.039024167 0.08291795
0.066443056 0.036488544 -0.07327593 -0.0440683 -0.09207752 -0.07510291 -0.056062963 0.01453886
-0.022463191 0.026404459 -0.009237585 0.046322513 -0.04490695 0.077533305 -0.043955244 0.0847805
-0.0013868691 -0.009228989 0.020568283 -0.0008393417 0.048144825 0.051737566 0.09630289 0.05945671
0.021349043 -0.0296901 0.08931914 0.03423743 0.074898705 0.07319543 0.056750696 -0.042827476
-0.05951232 -0.07614097 -0.0039665652 0.066020474 0.03233754 -0.04807275 0.07753739 -0.058622953
0.08425174 -0.050267316 0.018061902 0.07476544 -0.08344805 0.08446274 -0.0822272 0.020072712
-0.042974725 -0.054447573 0.018074732 -0.003248172 -0.019957153 -0.0446664 -0.028197385 0.011231107
-0.008681725 -0.058891974 0.06909976 -0.04292946 -0.045280386 -0.022289839 -0.004044952 0.079741664
0.0106582865 0.108649015 0.07109065 0.08363184 0.10679894 -0.028941378 0.10152346 8.633737e-05
0.07267688 -0.00596199 0.03887174 0.041439574 0.02463176 -0.047403 -0.000984977 0.046914354
-0.05143524 0.051408865 -0.06638036 0.085125856 0.026616514 0.07060584 -0.053038068 0.036008276
-0.041387577 0.014028611 0.019079743 0.013953598 0.09374727 0.047831595 0.07328544 0.051514156

layers_f.blocks.2.conv_layers.0.bias f4 [10]
00000000: cf85 9abd f298 37bd ce62 653c 6c99 01bd
00000010: b7d6 a93d 422b 1e3d 8001 b7bc ef6c 8db8
00000020: 5293 a83d a024 7b3d
-0.07545053 -0.044823594 0.014000608 -0.031640455 0.08292907 0.038615473 -0.022339582 -6.7436944e-05
0.08231224 0.061314225
