symmetry-informed-flows/notebooks/SineGaussian/sine-gaussian-with-similarity-embedding-flow-weights.pth (torch, 86107 bytes, 120 tensors)

_transform._transforms.0.autoregressive_net.initial_layer.weight f4 [10, 2]
0	0xbf65f827	-0.89831775
1	0xbdfcbc2e	-0.1234058
2	0x3ea792a8	0.32729077
3	0xbe9bd2ab	-0.30434164
4	0xbe9c7be8	-0.30563283
5	0x3e142d7e	0.14470479
6	0xbec579f2	-0.385696
7	0xbd080590	-0.03320843
8	0xc008ebfe	-2.1394038
9	0xbe8bd0e2	-0.27307802
10	0x403ff05e	2.9990458
11	0xbec4eb6e	-0.3846087
12	0x4006cd1e	2.1062694
13	0x3e17e504	0.14833456
14	0xbfbfecc3	-1.4994129
15	0x3ee17e73	0.44041786
16	0xc00c99b8	-2.1968822
17	0x3d482e3d	0.04887222
18	0xbf8597b9	-1.0436927
19	0x3e054dc5	0.13017948

_transform._transforms.0.autoregressive_net.initial_layer.bias f4 [10]
0	0x3def4490	0.11682999
1	0xbf5b350a	-0.85627806
2	0xbf2c2c4e	-0.67255104
3	0x3e1852ed	0.14875384
4	0xbe892ba9	-0.26791123
5	0xbf7183e2	-0.9434186
6	0xbfa71733	-1.3053955
7	0x3eb41fb0	0.35180426
8	0xbe060d5a	-0.1309103
9	0x3db30bac	0.087424606

_transform._transforms.0.autoregressive_net.initial_layer.mask f4 [10, 2]
0	0x3f800000	1.0
1	0x00000000	0.0
2	0x3f800000	1.0
3	0x00000000	0.0
4	0x3f800000	1.0
5	0x00000000	0.0
6	0x3f800000	1.0
7	0x00000000	0.0
8	0x3f800000	1.0
9	0x00000000	0.0
10	0x3f800000	1.0
11	0x00000000	0.0
12	0x3f800000	1.0
13	0x00000000	0.0
14	0x3f800000	1.0
15	0x00000000	0.0
16	0x3f800000	1.0
17	0x00000000	0.0
18	0x3f800000	1.0
19	0x00000000	0.0

_transform._transforms.0.autoregressive_net.context_layer.weight f4 [10, 3]
0	0xbd38baa7	-0.04509988
1	0xbdd159d4	-0.102222115
2	0x3e69156a	0.22762075
3	0x3ef7c8b6	0.48395318
4	0x3e9f933b	0.31167015
5	0xbb35fd85	-0.0027769518
6	0x3ca2508f	0.019813804
7	0xbdc0f70d	-0.09422121
8	0x3dae8fd1	0.085235246
9	0x3e6c0b71	0.2305124
10	0x3eacc3c5	0.3374311
11	0xbe262696	-0.16225657
12	0x3edac669	0.427295
13	0xbdfd9adc	-0.12383053
14	0xbe806210	-0.25074816
15	0xbd92bd98	-0.071650684
16	0xbe822a0d	-0.25422707
17	0xbe4cd859	-0.20004405
18	0xbd7d9fb7	-0.061919894
19	0xbd4b51a1	-0.049638394
20	0xbebb1e6e	-0.36546654
21	0xbe52c3cf	-0.20582508
22	0xbf59cf83	-0.8508226
23	0x3db136f3	0.08653059
24	0xbe556258	-0.20838296
25	0x3de49a41	0.11162234
26	0x3d44d7b2	0.048057266
27	0x3e9b4ae9	0.3033059
28	0x3ed1fec2	0.41014677
29	0xbef3ea55	-0.4763972

_transform._transforms.0.autoregressive_net.context_layer.bias f4 [10]
0	0x3e8e567b	0.27800354
1	0xbd8e52ab	-0.069493614
2	0x3f830619	1.0236236
3	0x3f428485	0.7598346
4	0xbf3e4d54	-0.74336743
5	0x3e9355ca	0.2877639
6	0x3f4a2f3c	0.78978324
7	0xbe946a60	-0.28987408
8	0x3f04b2d0	0.51835346
9	0xbf646268	-0.89212656

_transform._transforms.0.autoregressive_net.blocks.0.context_layer.weight f4 [10, 3]
0	0xbede1ebb	-0.4338282
1	0xbe9df9ef	-0.30854747
2	0x3eb788c9	0.35846546
3	0x3da387cb	0.07984885
4	0xbcb0cec4	-0.021582969
5	0xbd8defb7	-0.069304876
6	0x3e33f564	0.17574078
7	0xbcc50b9e	-0.024053391
8	0x3d3e1b49	0.04641274
9	0x3e976410	0.2956853
10	0xbe8fda23	-0.28096113
11	0xbf281b76	-0.656669
12	0xbe82e2bd	-0.25563613
13	0xbec2ea90	-0.38069582
14	0x3e601ac4	0.2188521
15	0xbcd7b347	-0.026330603
16	0x3d8a8155	0.067629494
17	0x3c67ea64	0.014155004
18	0xbe6d479e	-0.23171851
19	0x3e598bd0	0.2124474
20	0xbbebd81d	-0.0071973936
21	0x3d83d50b	0.06437119
22	0x3db23747	0.087019496
23	0x3f7755f6	0.9661554
24	0xbe64ea8b	-0.22355096
25	0x3be4f9e8	0.006987799
26	0xbb919a79	-0.0044434634
27	0x3e19c466	0.15016326
28	0x3e261979	0.16220655
29	0xbe50ca2a	-0.2038962

_transform._transforms.0.autoregressive_net.blocks.0.context_layer.bias f4 [10]
0	0xbec4ce59	-0.3843868
1	0x3ef17099	0.47156218
2	0x3f9b9277	1.2154073
3	0xbf65f110	-0.8982096
4	0x3e6221b0	0.22083163
5	0xbe0d600e	-0.13806173
6	0xbf4ea139	-0.80714756
7	0xbf5a149d	-0.85187703
8	0xbf0c5cbe	-0.54829013
9	0x3f048ad5	0.5177434

_transform._transforms.0.autoregressive_net.blocks.0.linear_layers.0.weight f4 [10, 10]
0	0x3f75aedb	0.95969933
1	0x3e9a7f63	0.30175313
2	0x3f628903	0.88490313
3	0xbe180cd5	-0.14848645
4	0x3f86a1e9	1.0518161
5	0xbce291c5	-0.027657399
6	0xbf42e740	-0.7613411
7	0xbf719624	-0.9436972
8	0xbf8b0752	-1.0861609
9	0x3f039d51	0.5141192
10	0x3f99fefb	1.2030939
11	0x3e88e0ca	0.26734
12	0x3f66add6	0.90109
13	0xbe1aee9e	-0.15130088
14	0xbec56fcd	-0.3856186
15	0xbf7e5fb3	-0.99364775
16	0xc0b451eb	-5.6349998
17	0x3c6edd5f	0.014579146
18	0x3e3cff77	0.18456827
19	0xbf35bcb2	-0.7099105
20	0xbf3ffadd	-0.7499216
21	0x3e10d491	0.14143588
22	0x3da34b5b	0.07973357
23	0xbdc8a13e	-0.097963795
24	0xbf0fda7e	-0.5619277
25	0xbe891b3e	-0.26778597
26	0xbf31eb50	-0.69499683
27	0xbf176d57	-0.59151214
28	0xbf726e17	-0.94699234
29	0xbf6b352f	-0.91878027
30	0x3efe7faf	0.4970679
31	0xbe910d31	-0.28330377
32	0x3ddd7608	0.10813528
33	0xbf9dfeaa	-1.2343342
34	0x402d6c33	2.709729
35	0x3e55d883	0.20883374
36	0xbf083647	-0.5320782
37	0x3e94a929	0.2903531
38	0x3e069300	0.13142014
39	0x3f21ecd1	0.6325198
40	0xbfe1eebf	-1.7650985
41	0x3f0f3d35	0.5595277
42	0xc0b25f52	-5.574136
43	0xbd442d7e	-0.047894947
44	0xbf661ca4	-0.8988745
45	0xbe176fa3	-0.1478868
46	0x3e31706e	0.17328045
47	0xbe89e4b8	-0.2693231
48	0x3e015914	0.12631637
49	0x3f2de8d5	0.679334
50	0x3e15921c	0.14606518
51	0xbe9e2e7c	-0.3089484
52	0x3e041ce0	0.1290164
53	0xbf42e248	-0.7612653
54	0x3ef126ca	0.47099906
55	0x3f842e27	1.0326585
56	0x3fb52ef5	1.4154955
57	0x3fadbef2	1.3573897
58	0xbf302ebc	-0.6882131
59	0xbec064ef	-0.37577006
60	0xbf26b28f	-0.6511621
61	0x3f174671	0.5909186
62	0x3f0091ca	0.50222456
63	0x3f15bba1	0.58489424
64	0x3fc27541	1.5192033
65	0x3ef871d1	0.48524335
66	0x3f92444f	1.1427096
67	0xbe579df5	-0.2105635
68	0x3e6a58d3	0.22885446
69	0xbe91064a	-0.2832511
70	0xbf42a5f2	-0.7603446
71	0x3dc6d751	0.09709037
72	0xbd9c5449	-0.076332636
73	0xbfe36293	-1.7764457
74	0xbf732c4b	-0.9498946
75	0x3f059da5	0.5219367
76	0x3de4f232	0.111790076
77	0xbf863e02	-1.0487673
78	0x3e66ebc9	0.22550882
79	0x3f590249	0.8476911
80	0x3fff439d	1.9942509
81	0x3e5fcc41	0.2185526
82	0x3fc3ebae	1.5306299
83	0xbc935511	-0.017984899
84	0x3fc8c30c	1.5684524
85	0x3ff0904e	1.8794038
86	0xbd8d1ed7	-0.06890648
87	0xbec4110b	-0.38294253
88	0xbebb8a6a	-0.3662904
89	0x3d805dd8	0.06267899
90	0xbf54a8d0	-0.8307009
91	0xbdfda65c	-0.12385246
92	0xbeb2d4c4	-0.34927952
93	0xbf2dc840	-0.6788368
94	0xbf5b21e6	-0.855986
95	0xbddfe8c1	-0.10933066
96	0xbf5d6731	-0.8648558
97	0xbe08eb2b	-0.1337096
98	0x3f2894fb	0.65852326
99	0xbe41269d	-0.18862386

_transform._transforms.0.autoregressive_net.blocks.0.linear_layers.0.bias f4 [10]
0	0xbef1e468	-0.47244573
1	0x3e5f70ba	0.21820346
2	0x3f437fea	0.76367056
3	0xbe8bb4b9	-0.27286318
4	0xbd607723	-0.054801118
5	0xbeca9960	-0.3957014
6	0xbed8576d	-0.422542
7	0xbf10a9c8	-0.56509066
8	0xbf1202b2	-0.5703536
9	0x3f1b4a9a	0.6066071

_transform._transforms.0.autoregressive_net.blocks.0.linear_layers.0.mask f4 [10, 10]
0	0x3f800000	1.0
1	0x3f800000	1.0
2	0x3f800000	1.0
3	0x3f800000	1.0
4	0x3f800000	1.0
5	0x3f800000	1.0
6	0x3f800000	1.0
7	0x3f800000	1.0
8	0x3f800000	1.0
9	0x3f800000	1.0
10	0x3f800000	1.0
11	0x3f800000	1.0
12	0x3f800000	1.0
13	0x3f800000	1.0
14	0x3f800000	1.0
15	0x3f800000	1.0
16	0x3f800000	1.0
17	0x3f800000	1.0
18	0x3f800000	1.0
19	0x3f800000	1.0
20	0x3f800000	1.0
21	0x3f800000	1.0
22	0x3f800000	1.0
23	0x3f800000	1.0
24	0x3f800000	1.0
25	0x3f800000	1.0
26	0x3f800000	1.0
27	0x3f800000	1.0
28	0x3f800000	1.0
29	0x3f800000	1.0
30	0x3f800000	1.0
31	0x3f800000	1.0
32	0x3f800000	1.0
33	0x3f800000	1.0
34	0x3f800000	1.0
35	0x3f800000	1.0
36	0x3f800000	1.0
37	0x3f800000	1.0
38	0x3f800000	1.0
39	0x3f800000	1.0
40	0x3f800000	1.0
41	0x3f800000	1.0
42	0x3f800000	1.0
43	0x3f800000	1.0
44	0x3f800000	1.0
45	0x3f800000	1.0
46	0x3f800000	1.0
47	0x3f800000	1.0
48	0x3f800000	1.0
49	0x3f800000	1.0
50	0x3f800000	1.0
51	0x3f800000	1.0
52	0x3f800000	1.0
53	0x3f800000	1.0
54	0x3f800000	1.0
55	0x3f800000	1.0
56	0x3f800000	1.0
57	0x3f800000	1.0
58	0x3f800000	1.0
59	0x3f800000	1.0
60	0x3f800000	1.0
61	0x3f800000	1.0
62	0x3f800000	1.0
63	0x3f800000	1.0
64	0x3f800000	1.0
65	0x3f800000	1.0
66	0x3f800000	1.0
67	0x3f800000	1.0
68	0x3f800000	1.0
69	0x3f800000	1.0
70	0x3f800000	1.0
71	0x3f800000	1.0
72	0x3f800000	1.0
73	0x3f800000	1.0
74	0x3f800000	1.0
75	0x3f800000	1.0
76	0x3f800000	1.0
77	0x3f800000	1.0
78	0x3f800000	1.0
79	0x3f800000	1.0
80	0x3f800000	1.0
81	0x3f800000	1.0
82	0x3f800000	1.0
83	0x3f800000	1.0
84	0x3f800000	1.0
85	0x3f800000	1.0
86	0x3f800000	1.0
87	0x3f800000	1.0
88	0x3f800000	1.0
89	0x3f800000	1.0
90	0x3f800000	1.0
91	0x3f800000	1.0
92	0x3f800000	1.0
93	0x3f800000	1.0
94	0x3f800000	1.0
95	0x3f800000	1.0
96	0x3f800000	1.0
97	0x3f800000	1.0
98	0x3f800000	1.0
99	0x3f800000	1.0

_transform._transforms.0.autoregressive_net.blocks.0.linear_layers.1.weight f4 [10, 10]
0	0xbf373638	-0.71567106
1	0xbf28dc01	-0.659607
2	0xbe77f5a3	-0.24214797
3	0xbbfb8d74	-0.0076767746
4	0xbeb0bbb7	-0.34518215
5	0x3eb77cd3	0.3583742
6	0xbdb0460b	-0.0860711
7	0x3ef4fffc	0.4785155
8	0x3f05b513	0.5222942
9	0x3ee72354	0.4514414
10	0xbec52973	-0.38508186
11	0xbe6a2547	-0.22865783
12	0x3dc56226	0.09637861
13	0x3dbce651	0.09223617
14	0xbd3f7c6a	-0.04674951
15	0x3e0e3a34	0.1388939
16	0xbe1461df	-0.1449046
17	0x3e67f0bc	0.22650427
18	0xbe21fb22	-0.15818456
19	0x3efc39e9	0.49262932
20	0x3e9dec34	0.3084427
21	0xbef2f030	-0.47448874
22	0x3db8155e	0.089884505
23	0xbe29306f	-0.16522382
24	0xbea7e5c3	-0.32792482
25	0x3f098532	0.53718865
26	0xbe3e5994	-0.18588859
27	0x3e0fc508	0.14040005
28	0xbe27b68a	-0.16378227
29	0x3eabb246	0.3353445
30	0xbf3453e7	-0.70440525
31	0xbd71b03e	-0.05900597
32	0x3cfb06e5	0.030642936
33	0xbea4afbe	-0.3216533
34	0x3ca1f361	0.019769372
35	0xbdbe53cc	-0.09293327
36	0xbcf39050	-0.0297319
37	0x3d7b207d	0.06131028
38	0xbe2888f6	-0.16458496
39	0x3f217ec2	0.6308404
40	0x3ed3c525	0.41361347
41	0x3e929606	0.28630084
42	0xbe3fb99a	-0.18723145
43	0x3e7c9aae	0.2466838
44	0xbe05e217	-0.13074528
45	0xbea2393b	-0.31684288
46	0x3ddff413	0.10935225
47	0xbdc5d9bc	-0.0966067
48	0x3d9f4ede	0.077787146
49	0xbe7b7611	-0.24556758
50	0xbeab8fdf	-0.33508202
51	0xbf57c3fb	-0.8428342
52	0xbdbb7f23	-0.09155109
53	0x3ecd918d	0.4015011
54	0x3ecb4a5c	0.3970517
55	0x3cf5b76c	0.029994689
56	0x3f157834	0.5838654
57	0x3cd15ff9	0.025558459
58	0x3eabadfa	0.3353117
59	0xbf07b9b7	-0.53017753
60	0x3db457cc	0.088058084
61	0x3f39f36e	0.7263707
62	0xbcb9e010	-0.02268985
63	0xbdd42cd8	-0.10360116
64	0x3e4df1d5	0.20111783
65	0xbf67db8d	-0.9056938
66	0xbe60145a	-0.21882764
67	0x3e11aec6	0.14226827
68	0xbe3fb3c4	-0.18720919
69	0x3ecf6f79	0.40514734
70	0x3d3707e0	0.044685245
71	0x3ec21536	0.37906808
72	0xbda6eba2	-0.08150412
73	0xbe854459	-0.26028708
74	0xbe42f110	-0.1903727
75	0x3d14f9aa	0.03637091
76	0x3e867ba4	0.26266205
77	0xbe21d450	-0.15803647
78	0xbbd76a8b	-0.00657398
79	0x3b454408	0.0030100364
80	0x3d9f4f89	0.07778842
81	0xbed8d209	-0.42347744
82	0xbe5e6643	-0.21718697
83	0xbc609987	-0.013708479
84	0x3e08f573	0.13374881
85	0x3e1b7cd5	0.15184338
86	0x3dea66c2	0.11445381
87	0x3e833abe	0.25630754
88	0x3da5c1b7	0.08093589
89	0xbcd1fc02	-0.025632862
90	0xbd76e4d6	-0.06027683
91	0x3e7e83bd	0.24854942
92	0x3dad9f97	0.08477705
93	0x3e2a051f	0.16603516
94	0x3e27d9e9	0.1639172
95	0x3cb5a65c	0.022174053
96	0x3d0dfdca	0.03466586
97	0xbd8ace88	-0.06777674
98	0xbd0102b3	-0.031496715
99	0x3bbfebae	0.0058569526

_transform._transforms.0.autoregressive_net.blocks.0.linear_layers.1.bias f4 [10]
0	0xbf493c37	-0.78607506
1	0xbf3181be	-0.69338596
2	0xbed6db75	-0.41964307
3	0x3ec8c5ac	0.39213312
4	0x3e3ea3b2	0.18617132
5	0xbe73e47c	-0.23817629
6	0xbe361de0	-0.17784834
7	0xbee499a5	-0.4464847
8	0xbe3adb82	-0.18247798
9	0x3ea99ba5	0.3312656

_transform._transforms.0.autoregressive_net.blocks.0.linear_layers.1.mask f4 [10, 10]
0	0x3f800000	1.0
1	0x3f800000	1.0
2	0x3f800000	1.0
3	0x3f800000	1.0
4	0x3f800000	1.0
5	0x3f800000	1.0
6	0x3f800000	1.0
7	0x3f800000	1.0
8	0x3f800000	1.0
9	0x3f800000	1.0
10	0x3f800000	1.0
11	0x3f800000	1.0
12	0x3f800000	1.0
13	0x3f800000	1.0
14	0x3f800000	1.0
15	0x3f800000	1.0
16	0x3f800000	1.0
17	0x3f800000	1.0
18	0x3f800000	1.0
19	0x3f800000	1.0
20	0x3f800000	1.0
21	0x3f800000	1.0
22	0x3f800000	1.0
23	0x3f800000	1.0
24	0x3f800000	1.0
25	0x3f800000	1.0
26	0x3f800000	1.0
27	0x3f800000	1.0
28	0x3f800000	1.0
29	0x3f800000	1.0
30	0x3f800000	1.0
31	0x3f800000	1.0
32	0x3f800000	1.0
33	0x3f800000	1.0
34	0x3f800000	1.0
35	0x3f800000	1.0
36	0x3f800000	1.0
37	0x3f800000	1.0
38	0x3f800000	1.0
39	0x3f800000	1.0
40	0x3f800000	1.0
41	0x3f800000	1.0
42	0x3f800000	1.0
43	0x3f800000	1.0
44	0x3f800000	1.0
45	0x3f800000	1.0
46	0x3f800000	1.0
47	0x3f800000	1.0
48	0x3f800000	1.0
49	0x3f800000	1.0
50	0x3f800000	1.0
51	0x3f800000	1.0
52	0x3f800000	1.0
53	0x3f800000	1.0
54	0x3f800000	1.0
55	0x3f800000	1.0
56	0x3f800000	1.0
57	0x3f800000	1.0
58	0x3f800000	1.0
59	0x3f800000	1.0
60	0x3f800000	1.0
61	0x3f800000	1.0
62	0x3f800000	1.0
63	0x3f800000	1.0
64	0x3f800000	1.0
65	0x3f800000	1.0
66	0x3f800000	1.0
67	0x3f800000	1.0
68	0x3f800000	1.0
69	0x3f800000	1.0
70	0x3f800000	1.0
71	0x3f800000	1.0
72	0x3f800000	1.0
73	0x3f800000	1.0
74	0x3f800000	1.0
75	0x3f800000	1.0
76	0x3f800000	1.0
77	0x3f800000	1.0
78	0x3f800000	1.0
79	0x3f800000	1.0
80	0x3f800000	1.0
81	0x3f800000	1.0
82	0x3f800000	1.0
83	0x3f800000	1.0
84	0x3f800000	1.0
85	0x3f800000	1.0
86	0x3f800000	1.0
87	0x3f800000	1.0
88	0x3f800000	1.0
89	0x3f800000	1.0
90	0x3f800000	1.0
91	0x3f800000	1.0
92	0x3f800000	1.0
93	0x3f800000	1.0
94	0x3f800000	1.0
95	0x3f800000	1.0
96	0x3f800000	1.0
97	0x3f800000	1.0
98	0x3f800000	1.0
99	0x3f800000	1.0

_transform._transforms.0.autoregressive_net.blocks.1.context_layer.weight f4 [10, 3]
0	0xbdde7119	-0.108614154
1	0x3d69a305	0.057040233
2	0x3db3d2d5	0.087804474
3	0xbd356577	-0.044286218
4	0xbe132f37	-0.1437348
5	0xbe5160ae	-0.20447037
6	0xbcb103cd	-0.021608258
7	0x3e0193ea	0.12654081
8	0x3c0f5030	0.0087471455
9	0x3e0c6979	0.1371211
10	0xbec863a7	-0.3913853
11	0x3e8225a0	0.2541933
12	0x3eb593bc	0.35464275
13	0x3db432b7	0.087987356
14	0xbd04a4b1	-0.032383624
15	0xbf1b4430	-0.6065092
16	0xbeecb32d	-0.4623045
17	0x3e5ee8e8	0.21768534
18	0x3db1b354	0.08676782
19	0x3f10c720	0.5655384
20	0xbee38e6d	-0.444446
21	0x3e466f81	0.19378473
22	0x3ed67f5b	0.4189404
23	0xbeccb86e	-0.3998446
24	0xbf1218f4	-0.57069325
25	0xbebdc130	-0.37061453
26	0x3d36a811	0.044593874
27	0xbddb0da3	-0.106959604
28	0x3d005fb0	0.031341255
29	0x3dfa1fc3	0.12213089

_transform._transforms.0.autoregressive_net.blocks.1.context_layer.bias f4 [10]
0	0x3f019da0	0.5063114
1	0xbe68b3c3	-0.22724824
2	0x3f6150e5	0.8801406
3	0xbec1bc1f	-0.37838838
4	0xbe7805cc	-0.24220961
5	0x3e5e545a	0.21711865
6	0x3f67ed2d	0.90596277
7	0x3f188ed0	0.59592915
8	0x3ee0a74d	0.4387764
9	0x3f835c96	1.026263

_transform._transforms.0.autoregressive_net.blocks.1.linear_layers.0.weight f4 [10, 10]
0	0x3ec9e3cf	0.39431617
1	0xbf9214f7	-1.1412648
2	0x3f05893f	0.52162546
3	0xbe781573	-0.24226932
4	0x3f1cf3af	0.6130933
5	0xc06c4eb0	-3.6923027
6	0xbf1d79ba	-0.61513865
7	0x3f30146f	0.6878118
8	0xbf0decde	-0.55439556
9	0xbf6c7417	-0.9236464
10	0x3f5bb151	0.8581744
11	0xbf18ca9f	-0.59684175
12	0x3fa6dd6d	1.3036324
13	0xbd638199	-0.055543516
14	0x403ce8ac	2.9517012
15	0xbf9c03a2	-1.2188609
16	0xc02b2973	-2.6744049
17	0x3fedc18b	1.857469
18	0xbc261dba	-0.010138923
19	0x3fb40927	1.4065293
20	0xbf43896e	-0.76381576
21	0xbecc6974	-0.39924204
22	0xbfabd12e	-1.3423212
23	0x3f05a1a5	0.52199775
24	0x3ec93d57	0.3930461
25	0x3fd36372	1.6514723
26	0xbd986bdb	-0.07442447
27	0xbcad32f0	-0.021142453
28	0x3f0f47e2	0.5596906
29	0xbed70486	-0.4199564
30	0xbde709e9	-0.11281187
31	0x3ec860f8	0.3913648
32	0x3da37f94	0.07983318
33	0xc01acb1f	-2.4186475
34	0x3f1ec4e8	0.62019205
35	0xbfcccf33	-1.6000732
36	0x3ef49c99	0.47775725
37	0xbf642a78	-0.891273
38	0x3f908731	1.1291257
39	0x3f900c3f	1.1253737
40	0x3eb20f4d	0.347773
41	0xbeb3c92a	-0.35114413
42	0x3e8e5f47	0.27807066
43	0x3f84c7b3	1.0373443
44	0xbffa30e9	-1.9546176
45	0x3db9a3fd	0.090644814
46	0x3f1fed0a	0.6247107
47	0x3fa405c1	1.2814256
48	0x3ead8ae9	0.33895043
49	0x3f68f6ff	0.91001886
50	0xbf8de5e6	-1.1085784
51	0x3e62f5c7	0.22164069
52	0x3e73297d	0.23746295
53	0x3fae952c	1.3639274
54	0xbfe9eac6	-1.8274772
55	0x3f3f90ca	0.74830306
56	0x3f2d64ca	0.67731917
57	0x3f316f5e	0.6931056
58	0x3ecb04ae	0.39652008
59	0x3f048887	0.51770824
60	0x3f21b6f6	0.631698
61	0x3d564fd3	0.05232222
62	0x3fdad267	1.709546
63	0x3f9c6504	1.2218328
64	0xbeb8ae8b	-0.36070666
65	0xbdf8e88f	-0.12153732
66	0x3ea3495a	0.318919
67	0x3bbdb826	0.0057897745
68	0xbde4f113	-0.11178794
69	0xbf09874f	-0.5372209
70	0x3e6ab520	0.22920656
71	0xbf63eaa6	-0.8902992
72	0xbf0005fe	-0.50009143
73	0xbe77a4de	-0.24183986
74	0xbf7f0baa	-0.9962717
75	0x3eb76bce	0.35824436
76	0x3f156151	0.5835162
77	0x3eda5fb3	0.42651138
78	0xbe9f8c7c	-0.3116187
79	0xbf634b1c	-0.8878648
80	0xbf56e170	-0.8393774
81	0x3f2a3a5f	0.6649532
82	0x3f38298a	0.71938384
83	0x3e1cb3ca	0.15302959
84	0xbfdc7e7b	-1.7226099
85	0x3f466871	0.77503115
86	0x3fc1b590	1.5133533
87	0x3f59ed7d	0.85128003
88	0xbeb885d6	-0.3603961
89	0x3e3468ab	0.17618053
90	0xbf57f4f4	-0.84358144
91	0xbf108876	-0.5645822
92	0xbdc1e119	-0.09466762
93	0xbbda4440	-0.006660968
94	0x4005fc42	2.0935216
95	0x3f459938	0.7718692
96	0x3e3881b6	0.18018231
97	0x3f713ddc	0.94235015
98	0xbf67ef26	-0.90599287
99	0x3f7a968b	0.9788596

_transform._transforms.0.autoregressive_net.blocks.1.linear_layers.0.bias f4 [10]
0	0x3f47ec25	0.780947
1	0x3d3d5ce9	0.046231184
2	0x3eb6845d	0.3564786
3	0xbdd982ae	-0.10620628
4	0xbba422d7	-0.005009036
5	0x3ca525a6	0.020159554
6	0x3f1e781d	0.6190203
7	0x3edbccab	0.42929587
8	0x3e5eccc3	0.21757798
9	0x3f56c863	0.83899516

_transform._transforms.0.autoregressive_net.blocks.1.linear_layers.0.mask f4 [10, 10]
0	0x3f800000	1.0
1	0x3f800000	1.0
2	0x3f800000	1.0
3	0x3f800000	1.0
4	0x3f800000	1.0
5	0x3f800000	1.0
6	0x3f800000	1.0
7	0x3f800000	1.0
8	0x3f800000	1.0
9	0x3f800000	1.0
10	0x3f800000	1.0
11	0x3f800000	1.0
12	0x3f800000	1.0
13	0x3f800000	1.0
14	0x3f800000	1.0
15	0x3f800000	1.0
16	0x3f800000	1.0
17	0x3f800000	1.0
18	0x3f800000	1.0
19	0x3f800000	1.0
20	0x3f800000	1.0
21	0x3f800000	1.0
22	0x3f800000	1.0
23	0x3f800000	1.0
24	0x3f800000	1.0
25	0x3f800000	1.0
26	0x3f800000	1.0
27	0x3f800000	1.0
28	0x3f800000	1.0
29	0x3f800000	1.0
30	0x3f800000	1.0
31	0x3f800000	1.0
32	0x3f800000	1.0
33	0x3f800000	1.0
34	0x3f800000	1.0
35	0x3f800000	1.0
36	0x3f800000	1.0
37	0x3f800000	1.0
38	0x3f800000	1.0
39	0x3f800000	1.0
40	0x3f800000	1.0
41	0x3f800000	1.0
42	0x3f800000	1.0
43	0x3f800000	1.0
44	0x3f800000	1.0
45	0x3f800000	1.0
46	0x3f800000	1.0
47	0x3f800000	1.0
48	0x3f800000	1.0
49	0x3f800000	1.0
50	0x3f800000	1.0
51	0x3f800000	1.0
52	0x3f800000	1.0
53	0x3f800000	1.0
54	0x3f800000	1.0
55	0x3f800000	1.0
56	0x3f800000	1.0
57	0x3f800000	1.0
58	0x3f800000	1.0
59	0x3f800000	1.0
60	0x3f800000	1.0
61	0x3f800000	1.0
62	0x3f800000	1.0
63	0x3f800000	1.0
64	0x3f800000	1.0
65	0x3f800000	1.0
66	0x3f800000	1.0
67	0x3f800000	1.0
68	0x3f800000	1.0
69	0x3f800000	1.0
70	0x3f800000	1.0
71	0x3f800000	1.0
72	0x3f800000	1.0
73	0x3f800000	1.0
74	0x3f800000	1.0
75	0x3f800000	1.0
76	0x3f800000	1.0
77	0x3f800000	1.0
78	0x3f800000	1.0
79	0x3f800000	1.0
80	0x3f800000	1.0
81	0x3f800000	1.0
82	0x3f800000	1.0
83	0x3f800000	1.0
84	0x3f800000	1.0
85	0x3f800000	1.0
86	0x3f800000	1.0
87	0x3f800000	1.0
88	0x3f800000	1.0
89	0x3f800000	1.0
90	0x3f800000	1.0
91	0x3f800000	1.0
92	0x3f800000	1.0
93	0x3f800000	1.0
94	0x3f800000	1.0
95	0x3f800000	1.0
96	0x3f800000	1.0
97	0x3f800000	1.0
98	0x3f800000	1.0
99	0x3f800000	1.0

_transform._transforms.0.autoregressive_net.blocks.1.linear_layers.1.weight f4 [10, 10]
0	0x3da9bdfe	0.08288191
1	0x3de3b170	0.11117828
2	0xbe71edff	-0.23625945
3	0x3e30b271	0.1725557
4	0xbe0a7997	-0.13522945
5	0xbcf1ea7b	-0.029530754
6	0xbefb88ac	-0.4912771
7	0x3e8df544	0.27726185
8	0xbd7536cc	-0.05986671
9	0x3c99997a	0.018749941
10	0x3cf5aa4b	0.029988429
11	0xbdad27fa	-0.084548905
12	0x3cda2c45	0.026632437
13	0x3d23ab99	0.03995857
14	0xbb4f88fd	-0.0031667345
15	0x3d2b0e44	0.04176165
16	0xbe5097a7	-0.20370351
17	0x3e2ffff7	0.17187487
18	0x3d807820	0.06272912
19	0x3e551831	0.2081001
20	0xbcf2c7fd	-0.029636377
21	0xbdd1e4a6	-0.10248689
22	0x3e71feda	0.23632374
23	0xbdf6b894	-0.12046924
24	0xba7fadc7	-0.0009753373
25	0x3d88daf2	0.066823855
26	0x3c6b7bc6	0.014372772
27	0x3ded694a	0.11592348
28	0x3d3c1034	0.04591389
29	0x3e6b6978	0.22989452
30	0xbe316ea9	-0.1732737
31	0x3cdb8469	0.026796537
32	0x3b58788d	0.0033030838
33	0xbd23c479	-0.039982293
34	0xbe2c7714	-0.168423
35	0x3e164af7	0.14677034
36	0xbd950622	-0.0727656
37	0xbe61211b	-0.21985285
38	0x3e36d053	0.17852907
39	0x3d8c4653	0.06849351
40	0x3d776c7e	0.0604062
41	0x3dd27569	0.102763005
42	0xbe4c1968	-0.19931567
43	0x3d6f75ee	0.058462076
44	0xbde8591d	-0.11345122
45	0xbcc0bc40	-0.023527265
46	0xbc8c01b9	-0.017090665
47	0xbe0d3e22	-0.13793233
48	0xbd0fa7e1	-0.03507221
49	0xbe388f13	-0.18023328
50	0x3f2f9e8e	0.6860131
51	0xbf0701a8	-0.527369
52	0x3db58111	0.08862508
53	0x3d0dc02b	0.034607094
54	0x3e52b0de	0.20575282
55	0xbdaf4084	-0.08557227
56	0x3e1d58ad	0.15365858
57	0xbe620193	-0.22070913
58	0xbe7d6615	-0.24745972
59	0x3e99b218	0.30018687
60	0x3df21e14	0.11822143
61	0x3de479d7	0.111560516
62	0xbdf2309f	-0.1182568
63	0x3d928e8a	0.071560934
64	0xbe260ab1	-0.16215016
65	0xbd052fab	-0.032516163
66	0xbde9f27d	-0.11423204
67	0xbca7eadd	-0.020497734
68	0xbd4e5d7e	-0.05038213
69	0xbd13075f	-0.0358957
70	0x3ddcc0f5	0.10778991
71	0x3d0648a5	0.032784123
72	0xbe2235fd	-0.15840907
73	0x3dc1de2c	0.09466204
74	0xbd87f0c8	-0.06637722
75	0xbda9aca1	-0.082848795
76	0xbd8c96a4	-0.0686467
77	0x3d577efa	0.05261133
78	0xbdd38f2b	-0.103300415
79	0xbe221d0d	-0.15831394
80	0x3dca37d2	0.09873928
81	0x3e0b2e87	0.13591968
82	0xbe869135	-0.2628266
83	0x3e28804a	0.16455188
84	0xbb35d026	-0.0027742474
85	0xbd17046f	-0.036869463
86	0xbe14da8b	-0.14536493
87	0xbced7c7d	-0.028990025
88	0xbd22e082	-0.03976489
89	0xbe3e529b	-0.18586199
90	0x3db3b255	0.087742485
91	0x3d34f1c8	0.044175893
92	0xbe5f339f	-0.21797036
93	0x3d8ba6c4	0.068189174
94	0xbde0fe78	-0.10986036
95	0x3d7ecb24	0.06220545
96	0xbd915ed0	-0.07098162
97	0xbe834026	-0.2563488
98	0x3baf7657	0.0053546834
99	0xbd9a8070	-0.07544029

_transform._transforms.0.autoregressive_net.blocks.1.linear_layers.1.bias f4 [10]
0	0xbf4b5dd7	-0.79440063
1	0xbefdf8ab	-0.4960378
2	0xbe252fd2	-0.16131523
3	0x3f134317	0.57524246
4	0x3de34f90	0.1109916
5	0x3f53bf9e	0.8271426
6	0xbedd78f6	-0.43256348
7	0xbf21d5b6	-0.6321672
8	0xbd9d40a4	-0.07678345
9	0x3e5eaf83	0.2174664

_transform._transforms.0.autoregressive_net.blocks.1.linear_layers.1.mask f4 [10, 10]
0	0x3f800000	1.0
1	0x3f800000	1.0
2	0x3f800000	1.0
3	0x3f800000	1.0
4	0x3f800000	1.0
5	0x3f800000	1.0
6	0x3f800000	1.0
7	0x3f800000	1.0
8	0x3f800000	1.0
9	0x3f800000	1.0
10	0x3f800000	1.0
11	0x3f800000	1.0
12	0x3f800000	1.0
13	0x3f800000	1.0
14	0x3f800000	1.0
15	0x3f800000	1.0
16	0x3f800000	1.0
17	0x3f800000	1.0
18	0x3f800000	1.0
19	0x3f800000	1.0
20	0x3f800000	1.0
21	0x3f800000	1.0
22	0x3f800000	1.0
23	0x3f800000	1.0
24	0x3f800000	1.0
25	0x3f800000	1.0
26	0x3f800000	1.0
27	0x3f800000	1.0
28	0x3f800000	1.0
29	0x3f800000	1.0
30	0x3f800000	1.0
31	0x3f800000	1.0
32	0x3f800000	1.0
33	0x3f800000	1.0
34	0x3f800000	1.0
35	0x3f800000	1.0
36	0x3f800000	1.0
37	0x3f800000	1.0
38	0x3f800000	1.0
39	0x3f800000	1.0
40	0x3f800000	1.0
41	0x3f800000	1.0
42	0x3f800000	1.0
43	0x3f800000	1.0
44	0x3f800000	1.0
45	0x3f800000	1.0
46	0x3f800000	1.0
47	0x3f800000	1.0
48	0x3f800000	1.0
49	0x3f800000	1.0
50	0x3f800000	1.0
51	0x3f800000	1.0
52	0x3f800000	1.0
53	0x3f800000	1.0
54	0x3f800000	1.0
55	0x3f800000	1.0
56	0x3f800000	1.0
57	0x3f800000	1.0
58	0x3f800000	1.0
59	0x3f800000	1.0
60	0x3f800000	1.0
61	0x3f800000	1.0
62	0x3f800000	1.0
63	0x3f800000	1.0
64	0x3f800000	1.0
65	0x3f800000	1.0
66	0x3f800000	1.0
67	0x3f800000	1.0
68	0x3f800000	1.0
69	0x3f800000	1.0
70	0x3f800000	1.0
71	0x3f800000	1.0
72	0x3f800000	1.0
73	0x3f800000	1.0
74	0x3f800000	1.0
75	0x3f800000	1.0
76	0x3f800000	1.0
77	0x3f800000	1.0
78	0x3f800000	1.0
79	0x3f800000	1.0
80	0x3f800000	1.0
81	0x3f800000	1.0
82	0x3f800000	1.0
83	0x3f800000	1.0
84	0x3f800000	1.0
85	0x3f800000	1.0
86	0x3f800000	1.0
87	0x3f800000	1.0
88	0x3f800000	1.0
89	0x3f800000	1.0
90	0x3f800000	1.0
91	0x3f800000	1.0
92	0x3f800000	1.0
93	0x3f800000	1.0
94	0x3f800000	1.0
95	0x3f800000	1.0
96	0x3f800000	1.0
97	0x3f800000	1.0
98	0x3f800000	1.0
99	0x3f800000	1.0

_transform._transforms.0.autoregressive_net.final_layer.weight f4 [4, 10]
0	0x3e839ac2	0.25704008
1	0x3e34974e	0.17635843
2	0xbe28aa3e	-0.16471192
3	0xbd031635	-0.0320036
4	0x3d9d0305	0.076665916
5	0x3e2c9160	0.16852331
6	0xbea0896a	-0.3135484
7	0x3d9161c1	0.07098723
8	0x3e86fb45	0.26363578
9	0xbe999226	-0.29994315
10	0x3dbe2f7e	0.09286402
11	0xbc8f8695	-0.017520228
12	0xbe47fd4b	-0.19530217
13	0x3e992480	0.2991066
14	0xbdbe906b	-0.09304889
15	0xbe97f055	-0.29675546
16	0xbd91902e	-0.07107578
17	0xbd8ef87f	-0.069809906
18	0x3e606b85	0.21916015
19	0x3e605942	0.21909049
20	0xbe1ef067	-0.15521394
21	0xbe05bc1a	-0.13060036
22	0x3d40a887	0.04703572
23	0x3df02c6e	0.11727224
24	0xbe403c33	-0.18772964
25	0xbba555aa	-0.0050456123
26	0xbe021699	-0.12703933
27	0xbe52518d	-0.20538922
28	0xbdcd16e9	-0.100141354
29	0xbd99cc14	-0.07509628
30	0x3e9554f4	0.29166377
31	0x3ee10a92	0.43953377
32	0x3ef35e19	0.47532728
33	0xbe7d5cfe	-0.24742505
34	0xbdbb6aa4	-0.091511995
35	0x3c7d17d7	0.015447578
36	0x3e6dfe3c	0.23241514
37	0x3eaae37b	0.3337668
38	0x3b0f4e80	0.0021866858
39	0xbc84dc1d	-0.01621824

_transform._transforms.0.autoregressive_net.final_layer.bias f4 [4]
0	0x3f989b5d	1.1922413
1	0xbe86e891	-0.2634931
2	0x3e6a79d4	0.22898036
3	0xbeed4162	-0.46338946

_transform._transforms.0.autoregressive_net.final_layer.mask f4 [4, 10]
0	0x00000000	0.0
1	0x00000000	0.0
2	0x00000000	0.0
3	0x00000000	0.0
4	0x00000000	0.0
5	0x00000000	0.0
6	0x00000000	0.0
7	0x00000000	0.0
8	0x00000000	0.0
9	0x00000000	0.0
10	0x00000000	0.0
11	0x00000000	0.0
12	0x00000000	0.0
13	0x00000000	0.0
14	0x00000000	0.0
15	0x00000000	0.0
16	0x00000000	0.0
17	0x00000000	0.0
18	0x00000000	0.0
19	0x00000000	0.0
20	0x3f800000	1.0
21	0x3f800000	1.0
22	0x3f800000	1.0
23	0x3f800000	1.0
24	0x3f800000	1.0
25	0x3f800000	1.0
26	0x3f800000	1.0
27	0x3f800000	1.0
28	0x3f800000	1.0
29	0x3f800000	1.0
30	0x3f800000	1.0
31	0x3f800000	1.0
32	0x3f800000	1.0
33	0x3f800000	1.0
34	0x3f800000	1.0
35	0x3f800000	1.0
36	0x3f800000	1.0
37	0x3f800000	1.0
38	0x3f800000	1.0
39	0x3f800000	1.0

_transform._transforms.2.autoregressive_net.initial_layer.weight f4 [10, 2]
0	0x3e9db09b	0.30798802
1	0xbda80d37	-0.082056455
2	0xbf0c87b2	-0.54894555
3	0xbe8c0388	-0.27346444
4	0x3f887ebb	1.0663675
5	0xbd74f7e3	-0.059806716
6	0xbef98d0e	-0.4874043
7	0x3f2f1f3a	0.6840702
8	0xbf049b89	-0.5179983
9	0x3e840dcb	0.25791773
10	0xbfa9fe32	-1.3280699
11	0x3f28b06d	0.65894204
12	0x3f624578	0.8838725
13	0xbf127b1b	-0.57219094
14	0xbfafea27	-1.3743333
15	0x3f2fb875	0.68640834
16	0xbfb3b8ef	-1.4040812
17	0xbe1ed731	-0.15511777
18	0xbf567e66	-0.8378662
19	0x3e6b134b	0.22956578

_transform._transforms.2.autoregressive_net.initial_layer.bias f4 [10]
0	0xbe15421b	-0.14575998
1	0x3dc7ca5e	0.09755395
2	0x3ca7c80c	0.020481132
3	0x3eaa6b8c	0.33285177
4	0x3f39e89b	0.7262055
5	0x3f5edb2e	0.8705319
6	0xbf989ed1	-1.1923467
7	0xbec9bf97	-0.39403984
8	0x3f001e2b	0.5004603
9	0x3f07f364	0.5310576

_transform._transforms.2.autoregressive_net.initial_layer.mask f4 [10, 2]
0	0x3f800000	1.0
1	0x00000000	0.0
2	0x3f800000	1.0
3	0x00000000	0.0
4	0x3f800000	1.0
5	0x00000000	0.0
6	0x3f800000	1.0
7	0x00000000	0.0
8	0x3f800000	1.0
9	0x00000000	0.0
10	0x3f800000	1.0
11	0x00000000	0.0
12	0x3f800000	1.0
13	0x00000000	0.0
14	0x3f800000	1.0
15	0x00000000	0.0
16	0x3f800000	1.0
17	0x00000000	0.0
18	0x3f800000	1.0
19	0x00000000	0.0

_transform._transforms.2.autoregressive_net.context_layer.weight f4 [10, 3]
0	0xbf1347f5	-0.5753167
1	0x3f137623	0.5760214
2	0x3f0c31de	0.5476359
3	0xbe48f867	-0.19626008
4	0xbecf293e	-0.40461153
5	0x3e8c0807	0.27349874
6	0xbf057621	-0.52133375
7	0xbec8ce44	-0.39219868
8	0xbe553bcc	-0.20823592
9	0xbf01052c	-0.50398517
10	0xbefcfec0	-0.4941311
11	0x3e5217fd	0.20516963
12	0x3dc7b6bd	0.097516514
13	0xbec808c4	-0.39069188
14	0x3e508e61	0.20366813
15	0x3e7d36a7	0.2472788
16	0xbed22a29	-0.4104779
17	0x3d028b48	0.03187111
18	0x3ef602c5	0.48048988
19	0xbdfd4317	-0.12366312
20	0xbe75d894	-0.24008399
21	0xbee89476	-0.45425767
22	0xbed65ce5	-0.41867748
23	0xbe0b4d7e	-0.1360378
24	0xbeb21500	-0.34781647
25	0x3ea967cf	0.33087012
26	0x3d65bec9	0.05609015
27	0xbe6f7e62	-0.23388055
28	0xbf24db45	-0.6439708
29	0x3e32d33c	0.17463392

_transform._transforms.2.autoregressive_net.context_layer.bias f4 [10]
0	0x3e0eb6d8	0.13936937
1	0x3e279950	0.16367078
2	0x3e8d7b15	0.27632967
3	0x3f251cf5	0.6449731
4	0xbf1c31b2	-0.6101333
5	0xbe6e4933	-0.23270111
6	0x3e5cfea5	0.21581514
7	0xbf1bbaf5	-0.6083215
8	0xbefcaab4	-0.49348986
9	0xbf62c655	-0.8858388

_transform._transforms.2.autoregressive_net.blocks.0.context_layer.weight f4 [10, 3]
0	0x3ee8d06e	0.4547152
1	0x3bca2f12	0.006170162
2	0xbf2b7e4a	-0.66989577
3	0x3e9b7c13	0.303681
4	0xbefd7315	-0.49501863
5	0x3ebb010b	0.36524233
6	0x3ea2f377	0.31826374
7	0x3f04f03d	0.51929075
8	0x3ea8e900	0.32990265
9	0x3f1b07cc	0.6055877
10	0xbea25769	-0.31707314
11	0xbe66f6e2	-0.22555116
12	0xbf1292d5	-0.572553
13	0x3f6fd854	0.93689466
14	0x3ee624dc	0.44949996
15	0x3e602794	0.21890098
16	0xbe5f14ab	-0.21785228
17	0x3e80f721	0.25188544
18	0x3f1f1827	0.6214623
19	0x3eef5790	0.46746492
20	0x39fff7c9	0.00048822004
21	0xbefe8a2b	-0.4971479
22	0xbebb498e	-0.36579555
23	0xbf471689	-0.7776876
24	0x3e93b530	0.28849173
25	0xbe7be6c1	-0.24599744
26	0x3ed689c6	0.41901988
27	0x3ed1eb48	0.40999818
28	0xbd651dd9	-0.055936668
29	0x3f2d8ccd	0.6779297

_transform._transforms.2.autoregressive_net.blocks.0.context_layer.bias f4 [10]
0	0x3f468379	0.7754436
1	0xbf4964ce	-0.7866944
2	0xbe19d8fd	-0.1502418
3	0xbe95f065	-0.2928497
4	0x3db7bccc	0.08971557
5	0xbf3c3bd1	-0.7352877
6	0x3e9186b8	0.28423095
7	0xbeab1f77	-0.33422443
8	0xbf8f0653	-1.1173805
9	0xbe367e06	-0.17821512

_transform._transforms.2.autoregressive_net.blocks.0.linear_layers.0.weight f4 [10, 10]
0	0x3e9da62e	0.30790848
1	0x3e444b7c	0.1916942
2	0xbe9e1356	-0.30874127
3	0x3f88538c	1.0650496
4	0xbe79ba93	-0.24387579
5	0xbe0ec6da	-0.13943043
6	0xbfc42c3a	-1.5325997
7	0xbefba7a5	-0.4915134
8	0x3ec58993	0.38581523
9	0x3f273ec0	0.65330124
10	0x3f09ef1d	0.5388048
11	0xbdaff4b8	-0.08591598
12	0x3e7b888c	0.24563807
13	0xbee11157	-0.43958542
14	0xbf3194da	-0.69367754
15	0xbe79a8b2	-0.24380758
16	0xbf10254a	-0.563069
17	0x3f7192e8	0.94364786
18	0xbe0f7a03	-0.14011388
19	0xbf4cfaaf	-0.8007001
20	0x3efc9563	0.49332723
21	0xbec43cb6	-0.3832757
22	0x400d5f0c	2.2089262
23	0x3d1aa7cb	0.037757676
24	0xbdb36457	-0.08759373
25	0xbf5c51de	-0.8606242
26	0x3f40590e	0.75135887
27	0xbdbdf45c	-0.092751235
28	0x3e356339	0.17713632
29	0xbffee175	-1.9912554
30	0x3e244fb4	0.1604603
31	0xbf4e6b56	-0.8063253
32	0xbfaab897	-1.3337582
33	0xbfdaeee1	-1.710415
34	0xbe8209f3	-0.25398216
35	0xbeaae807	-0.33380148
36	0xbf59c748	-0.85069704
37	0xbf28bb6b	-0.6591098
38	0x3f7519af	0.95742315
39	0xbee7f763	-0.4530593
40	0x3eacf6b6	0.33781976
41	0x3f87800e	1.0585954
42	0x3ecc761d	0.39933863
43	0x3edb02b0	0.42775488
44	0x3f586c68	0.84540415
45	0x3e98be95	0.29832903
46	0xbe6832b9	-0.22675599
47	0xbf4fc577	-0.8116068
48	0xbeb26124	-0.34839737
49	0x3e9c94be	0.3058223
50	0xbf905a32	-1.1277525
51	0x3e72b632	0.23702314
52	0x3ecb5a1d	0.39717188
53	0x3f17d515	0.5930951
54	0xbed670c0	-0.41882896
55	0xbff2c882	-1.896744
56	0x3f2ee7fb	0.68322724
57	0xbee5e825	-0.44903675
58	0xbfdc8830	-1.7229061
59	0xbf222305	-0.63334686
60	0x3fcc445f	1.5958365
61	0xbe9266f7	-0.2859418
62	0x3e922b5c	0.28548706
63	0xbf7a710b	-0.9782874
64	0x3e8d814e	0.27637714
65	0x3d9d3b26	0.07677297
66	0xbf3e6c24	-0.7438376
67	0xbbe5800f	-0.007003791
68	0xbf25803d	-0.646488
69	0xbf0c164b	-0.54721516
70	0x3f9ede08	1.2411509
71	0xbf8d447f	-1.1036528
72	0x3f8a2057	1.0791119
73	0xbee0aeb1	-0.4388328
74	0x3e56f15a	0.20990506
75	0x3e4cab29	0.19987167
76	0x3fe368a2	1.7766306
77	0xbf83089f	-1.0237006
78	0xbf23e425	-0.64019996
79	0x3e53f49d	0.20698781
80	0x3ed696f8	0.41912055
81	0x3e144565	0.14479597
82	0x3edb1937	0.42792675
83	0xbecd6fb8	-0.40124297
84	0xbed76a36	-0.4207322
85	0xbaf3fa6a	-0.0018614058
86	0x3ddf1ff9	0.1089477
87	0x3f5dea8a	0.86686003
88	0xbd763af2	-0.06011481
89	0xbf008f36	-0.5021852
90	0x3f9c28ff	1.2200011
91	0xbe1ec29e	-0.15503928
92	0xbd8e9cb9	-0.06963486
93	0xbf246226	-0.6421226
94	0x3c29345c	0.010327425
95	0x3db50d9d	0.08840487
96	0xbf8f6ac7	-1.1204461
97	0x3f03ea64	0.51529527
98	0xbe621c32	-0.22081068
99	0xbe67448e	-0.22584745

_transform._transforms.2.autoregressive_net.blocks.0.linear_layers.0.bias f4 [10]
0	0x3f16d971	0.5892554
1	0xbf6f64ca	-0.93513167
2	0x3f26071f	0.64854616
3	0xbef6928d	-0.48158684
4	0x3ee74444	0.4516927
5	0xbf5796c1	-0.8421441
6	0xbecc7e69	-0.39940193
7	0xbe245e10	-0.16051507
8	0xbf3fc803	-0.7491457
9	0xbe87d42f	-0.2652907

_transform._transforms.2.autoregressive_net.blocks.0.linear_layers.0.mask f4 [10, 10]
0	0x3f800000	1.0
1	0x3f800000	1.0
2	0x3f800000	1.0
3	0x3f800000	1.0
4	0x3f800000	1.0
5	0x3f800000	1.0
6	0x3f800000	1.0
7	0x3f800000	1.0
8	0x3f800000	1.0
9	0x3f800000	1.0
10	0x3f800000	1.0
11	0x3f800000	1.0
12	0x3f800000	1.0
13	0x3f800000	1.0
14	0x3f800000	1.0
15	0x3f800000	1.0
16	0x3f800000	1.0
17	0x3f800000	1.0
18	0x3f800000	1.0
19	0x3f800000	1.0
20	0x3f800000	1.0
21	0x3f800000	1.0
22	0x3f800000	1.0
23	0x3f800000	1.0
24	0x3f800000	1.0
25	0x3f800000	1.0
26	0x3f800000	1.0
27	0x3f800000	1.0
28	0x3f800000	1.0
29	0x3f800000	1.0
30	0x3f800000	1.0
31	0x3f800000	1.0
32	0x3f800000	1.0
33	0x3f800000	1.0
34	0x3f800000	1.0
35	0x3f800000	1.0
36	0x3f800000	1.0
37	0x3f800000	1.0
38	0x3f800000	1.0
39	0x3f800000	1.0
40	0x3f800000	1.0
41	0x3f800000	1.0
42	0x3f800000	1.0
43	0x3f800000	1.0
44	0x3f800000	1.0
45	0x3f800000	1.0
46	0x3f800000	1.0
47	0x3f800000	1.0
48	0x3f800000	1.0
49	0x3f800000	1.0
50	0x3f800000	1.0
51	0x3f800000	1.0
52	0x3f800000	1.0
53	0x3f800000	1.0
54	0x3f800000	1.0
55	0x3f800000	1.0
56	0x3f800000	1.0
57	0x3f800000	1.0
58	0x3f800000	1.0
59	0x3f800000	1.0
60	0x3f800000	1.0
61	0x3f800000	1.0
62	0x3f800000	1.0
63	0x3f800000	1.0
64	0x3f800000	1.0
65	0x3f800000	1.0
66	0x3f800000	1.0
67	0x3f800000	1.0
68	0x3f800000	1.0
69	0x3f800000	1.0
70	0x3f800000	1.0
71	0x3f800000	1.0
72	0x3f800000	1.0
73	0x3f800000	1.0
74	0x3f800000	1.0
75	0x3f800000	1.0
76	0x3f800000	1.0
77	0x3f800000	1.0
78	0x3f800000	1.0
79	0x3f800000	1.0
80	0x3f800000	1.0
81	0x3f800000	1.0
82	0x3f800000	1.0
83	0x3f800000	1.0
84	0x3f800000	1.0
85	0x3f800000	1.0
86	0x3f800000	1.0
87	0x3f800000	1.0
88	0x3f800000	1.0
89	0x3f800000	1.0
90	0x3f800000	1.0
91	0x3f800000	1.0
92	0x3f800000	1.0
93	0x3f800000	1.0
94	0x3f800000	1.0
95	0x3f800000	1.0
96	0x3f800000	1.0
97	0x3f800000	1.0
98	0x3f800000	1.0
99	0x3f800000	1.0

_transform._transforms.2.autoregressive_net.blocks.0.linear_layers.1.weight f4 [10, 10]
0	0xbe48dbfa	-0.19615164
1	0xbde99b8a	-0.1140662
2	0x3d7a28b6	0.06107398
3	0x3c39c5d0	0.011338666
4	0x3d707e7f	0.058714386
5	0x3e240221	0.16016437
6	0x3d2ead2c	0.04264562
7	0x3c07a8c1	0.00827998
8	0xbd4a21da	-0.04934869
9	0x3cc98ebd	0.024604196
10	0x3e32aab1	0.17447926
11	0xbea2bf74	-0.31786692
12	0x3da78afa	0.081808046
13	0x3ecca420	0.39968967
14	0x3e16f45d	0.14741655
15	0xbd7b52bf	-0.06135821
16	0x3da35671	0.07975472
17	0x3d0f849b	0.03503857
18	0xbe84fbe4	-0.25973427
19	0x3cf6caef	0.030126063
20	0xbe1191db	-0.14215796
21	0x3f3ae5e2	0.73007023
22	0x3cc3c0ed	0.023895705
23	0xbca1f26c	-0.019768916
24	0xbe80e94b	-0.25177988
25	0x3f119162	0.5686246
26	0x3e5fabaf	0.21842836
27	0x3e785d2c	0.24254292
28	0x3f18e397	0.59722275
29	0xbec58e6c	-0.38585222
30	0xbd7caf0d	-0.06169038
31	0x3ccb3252	0.024804268
32	0xbe7cfb3f	-0.24705218
33	0xbc82946f	-0.01593992
34	0x3e123254	0.14277011
35	0xbdf90f2c	-0.12161097
36	0xbcb1e9fb	-0.021718016
37	0x3e2069a3	0.15665297
38	0xbc7fa633	-0.01560359
39	0xbe2d042c	-0.16896123
40	0xbe5f2bed	-0.217941
41	0x3e81fd1e	0.25388426
42	0x3e2f4e4c	0.17119712
43	0xbe35ca23	-0.1775289
44	0x3ee16d3a	0.44028646
45	0xbea6c089	-0.32568768
46	0xbdf93f10	-0.12170231
47	0x3eab2e97	0.33433983
48	0x3e7da05c	0.24768203
49	0xbe3be472	-0.18348864
50	0x3e826714	0.25469267
51	0xbee76e6f	-0.45201442
52	0x3da6bdb4	0.08141652
53	0x3ea8e7c3	0.3298932
54	0x3dbe062a	0.092785195
55	0xbea8cdd5	-0.32969537
56	0x3ca170a7	0.019707037
57	0x3e86b203	0.26307687
58	0xbed3402d	-0.412599
59	0xbe3994e9	-0.18123211
60	0x3e0770b5	0.13226588
61	0xbddd7ca0	-0.10814786
62	0xbda6ed21	-0.081506975
63	0xbe87e713	-0.26543483
64	0xbdc14879	-0.09437651
65	0xbd544d40	-0.051831484
66	0xbdcba279	-0.099430986
67	0xbdbc5ffb	-0.09197994
68	0xbde0dd5f	-0.10979723
69	0x3d9b5ca4	0.07586029
70	0xbc7dea8d	-0.015497816
71	0x3db05914	0.0861074
72	0xbe872769	-0.26397255
73	0x3e348ae8	0.17631114
74	0xbebd3726	-0.36956137
75	0xbda10914	-0.0786306
76	0x3cb4df74	0.022079207
77	0xbe28286f	-0.16421674
78	0x3d9be945	0.07612852
79	0x3e1c3510	0.15254617
80	0x3d6fd22f	0.058550056
81	0x3f01e058	0.50732946
82	0xbed65ff1	-0.41870072
83	0xbe714982	-0.23563197
84	0xbee70c34	-0.45126498
85	0x3e89e385	0.26931396
86	0xbdfc32c2	-0.12314369
87	0xbd4604f5	-0.04834457
88	0x3e250a1f	0.16117142
89	0xbdd5f11d	-0.10446379
90	0xbeea5e70	-0.45775175
91	0x3e3e308d	0.18573208
92	0x3d9cdbee	0.07659136
93	0x3d863080	0.065522194
94	0x3de19e74	0.11016551
95	0x3dd66f73	0.10470476
96	0xbe01fdda	-0.12694493
97	0x3d316c66	0.043316267
98	0x3e48c508	0.19606411
99	0x3d97065f	0.07374262

_transform._transforms.2.autoregressive_net.blocks.0.linear_layers.1.bias f4 [10]
0	0xbe0eb8ab	-0.13937633
1	0x3e39edf0	0.18157172
2	0x3f43d3ec	0.7649524
3	0xbe0337a8	-0.128142
4	0x3ea1e6ba	0.31621343
5	0x3f0e5c79	0.5560985
6	0xbe9ab1e9	-0.3021386
7	0xbbd307e0	-0.0064401478
8	0x3f0eb005	0.55737334
9	0x3d46be0b	0.048521083

_transform._transforms.2.autoregressive_net.blocks.0.linear_layers.1.mask f4 [10, 10]
0	0x3f800000	1.0
1	0x3f800000	1.0
2	0x3f800000	1.0
3	0x3f800000	1.0
4	0x3f800000	1.0
5	0x3f800000	1.0
6	0x3f800000	1.0
7	0x3f800000	1.0
8	0x3f800000	1.0
9	0x3f800000	1.0
10	0x3f800000	1.0
11	0x3f800000	1.0
12	0x3f800000	1.0
13	0x3f800000	1.0
14	0x3f800000	1.0
15	0x3f800000	1.0
16	0x3f800000	1.0
17	0x3f800000	1.0
18	0x3f800000	1.0
19	0x3f800000	1.0
20	0x3f800000	1.0
21	0x3f800000	1.0
22	0x3f800000	1.0
23	0x3f800000	1.0
24	0x3f800000	1.0
25	0x3f800000	1.0
26	0x3f800000	1.0
27	0x3f800000	1.0
28	0x3f800000	1.0
29	0x3f800000	1.0
30	0x3f800000	1.0
31	0x3f800000	1.0
32	0x3f800000	1.0
33	0x3f800000	1.0
34	0x3f800000	1.0
35	0x3f800000	1.0
36	0x3f800000	1.0
37	0x3f800000	1.0
38	0x3f800000	1.0
39	0x3f800000	1.0
40	0x3f800000	1.0
41	0x3f800000	1.0
42	0x3f800000	1.0
43	0x3f800000	1.0
44	0x3f800000	1.0
45	0x3f800000	1.0
46	0x3f800000	1.0
47	0x3f800000	1.0
48	0x3f800000	1.0
49	0x3f800000	1.0
50	0x3f800000	1.0
51	0x3f800000	1.0
52	0x3f800000	1.0
53	0x3f800000	1.0
54	0x3f800000	1.0
55	0x3f800000	1.0
56	0x3f800000	1.0
57	0x3f800000	1.0
58	0x3f800000	1.0
59	0x3f800000	1.0
60	0x3f800000	1.0
61	0x3f800000	1.0
62	0x3f800000	1.0
63	0x3f800000	1.0
64	0x3f800000	1.0
65	0x3f800000	1.0
66	0x3f800000	1.0
67	0x3f800000	1.0
68	0x3f800000	1.0
69	0x3f800000	1.0
70	0x3f800000	1.0
71	0x3f800000	1.0
72	0x3f800000	1.0
73	0x3f800000	1.0
74	0x3f800000	1.0
75	0x3f800000	1.0
76	0x3f800000	1.0
77	0x3f800000	1.0
78	0x3f800000	1.0
79	0x3f800000	1.0
80	0x3f800000	1.0
81	0x3f800000	1.0
82	0x3f800000	1.0
83	0x3f800000	1.0
84	0x3f800000	1.0
85	0x3f800000	1.0
86	0x3f800000	1.0
87	0x3f800000	1.0
88	0x3f800000	1.0
89	0x3f800000	1.0
90	0x3f800000	1.0
91	0x3f800000	1.0
92	0x3f800000	1.0
93	0x3f800000	1.0
94	0x3f800000	1.0
95	0x3f800000	1.0
96	0x3f800000	1.0
97	0x3f800000	1.0
98	0x3f800000	1.0
99	0x3f800000	1.0

_transform._transforms.2.autoregressive_net.blocks.1.context_layer.weight f4 [10, 3]
0	0xbd3cb74d	-0.046073247
1	0xbf485ab8	-0.78263426
2	0xbd1470c7	-0.036240365
3	0x3ebd7d6d	0.37009755
4	0xbf0d3c94	-0.5517056
5	0xbe4da949	-0.20084108
6	0x3d98bde0	0.07458091
7	0x3f2be8ce	0.67152107
8	0xbecfebc5	-0.40609565
9	0x3e92e702	0.2869187
10	0x3e65ba05	0.22434242
11	0xbd9ae274	-0.07562724
12	0xbd4a67c0	-0.04941535
13	0xbe467075	-0.19378836
14	0x3f0e8bd0	0.55682087
15	0xbf062c4d	-0.5241135
16	0x3e144890	0.14480805
17	0x3e88a9d3	0.26692066
18	0x3f338393	0.7012264
19	0xbf14c35d	-0.581106
20	0xbf059c17	-0.521913
21	0x3ea8156f	0.32828853
22	0x3d11e2a0	0.035616517
23	0x3e13ef05	0.14446647
24	0x3d845ed0	0.064633965
25	0x3e846933	0.2586151
26	0xbf4e00aa	-0.80469763
27	0xbe48c721	-0.19607212
28	0x3e9d8c95	0.30771318
29	0xbf19999a	-0.6

_transform._transforms.2.autoregressive_net.blocks.1.context_layer.bias f4 [10]
0	0x3d0f1f2f	0.03494185
1	0xbeb45552	-0.35221344
2	0x3f96754f	1.175455
3	0xbf1dc319	-0.6162582
4	0xbf81fb98	-1.0154905
5	0x3f6f2041	0.9340859
6	0x3ef998ba	0.48749334
7	0xbe9cf216	-0.30653447
8	0xbe291808	-0.16513073
9	0x3f228afa	0.6349331

_transform._transforms.2.autoregressive_net.blocks.1.linear_layers.0.weight f4 [10, 10]
0	0x400073b8	2.007063
1	0x3fef5dfc	1.8700557
2	0xbf9e09cc	-1.234674
3	0xbec3b9ea	-0.3822778
4	0x3f153e1d	0.582979
5	0x3f53a395	0.8267148
6	0xbf4659d5	-0.7748082
7	0x3e701db8	0.23448837
8	0x3e298d13	0.16557722
9	0xbdd08b28	-0.10182792
10	0x3f573c5a	0.84076464
11	0x3e1377e7	0.14401208
12	0xbfb289bb	-1.3948282
13	0xbe45b0d8	-0.19305742
14	0xbaf29dcd	-0.0018510163
15	0xbb7577fc	-0.003745555
16	0xbfc3f69a	-1.5309632
17	0x3e8070f0	0.25086164
18	0xbe23ff62	-0.1601539
19	0x3f28cfeb	0.6594226
20	0xbf57632e	-0.8413571
21	0x3ed2095e	0.41022772
22	0x3f5f69e4	0.8727095
23	0x3e714c32	0.23564222
24	0x3f2ca31c	0.67436385
25	0x3ee329d3	0.44367847
26	0xbf253ee6	-0.645491
27	0xbf1bdbd4	-0.60882306
28	0x3ddbfeb5	0.10741941
29	0xbe9718fa	-0.29511243
30	0xbe684d74	-0.22685796
31	0x3ff3e158	1.9053144
32	0xbed1ce30	-0.4097762
33	0x3f05e2e7	0.5229935
34	0xbf67c632	-0.905368
35	0xbcf27714	-0.029597796
36	0xbdbf3490	-0.093361974
37	0x3e83daeb	0.2575296
38	0xbe1a9d8d	-0.15099163
39	0xbfcaa52e	-1.5831659
40	0x3d1d1300	0.038348198
41	0xbfc0d092	-1.5063651
42	0x3fa699ca	1.3015683
43	0xbfcebce0	-1.615139
44	0xbebeebcb	-0.3728927
45	0xbf2379e2	-0.63857853
46	0xbfefa2b9	-1.8721534
47	0x3f7b78b8	0.9823108
48	0x3fcc7ca4	1.5975537
49	0xbef649d9	-0.48103216
50	0xbe2add3b	-0.16685955
51	0xbf5c7405	-0.8611453
52	0xc00f8c5f	-2.2429426
53	0x3e85c96b	0.26130232
54	0xbf081026	-0.5314964
55	0xbf315961	-0.69277006
56	0xbf8f148b	-1.1178144
57	0xbfcac9bd	-1.5842816
58	0x3faf24ee	1.3683145
59	0xbee8ca0b	-0.45466647
60	0xbee15248	-0.44008088
61	0xbfa6cba6	-1.3030899
62	0xbc8482c8	-0.016175643
63	0xbec6e413	-0.38845882
64	0xbd216639	-0.039404128
65	0xbf999bd8	-1.2000685
66	0x3d913588	0.070902884
67	0x3e50b489	0.20381369
68	0x3f46f3ba	0.7771565
69	0xbf929ee6	-1.1454742
70	0xbd49b140	-0.049241304
71	0x40073f61	2.1132433
72	0xbf2e5627	-0.6810021
73	0x3fd74c09	1.6820079
74	0x3f76a250	0.9634142
75	0x3ec61b30	0.38692617
76	0xbef7e3f3	-0.484161
77	0x3e27c550	0.16383862
78	0x3eca2d9e	0.39487928
79	0xbc2bed91	-0.010493652
80	0x3d5d447d	0.054020394
81	0x3f2d61d7	0.67727417
82	0xbf99514f	-1.1977938
83	0x3fa3d33a	1.2798836
84	0x3f00162f	0.5003385
85	0x3edb6518	0.42850566
86	0x3f8b511e	1.088413
87	0xbf28743c	-0.6580236
88	0xc0234403	-2.551026
89	0x3fce68d5	1.6125742
90	0x3e40fb70	0.18845916
91	0x3eb72433	0.35769805
92	0xbf981315	-1.1880823
93	0xbf851941	-1.0398332
94	0x3f0e5d94	0.5561154
95	0xbf9dd4f1	-1.233061
96	0xbf9ff973	-1.2498001
97	0xbedcbac9	-0.43111256
98	0x3fac630c	1.3467727
99	0x3e4d2a52	0.20035675

_transform._transforms.2.autoregressive_net.blocks.1.linear_layers.0.bias f4 [10]
0	0x3d648724	0.055792943
1	0xbf51929f	-0.8186435
2	0x3f60a49d	0.8775118
3	0xbef4095f	-0.476634
4	0xbf5db835	-0.866092
5	0x3f277fb9	0.65429264
6	0x3d960b05	0.073263206
7	0xbe0e14d8	-0.13875139
8	0xbd434787	-0.047675636
9	0x3edc2d35	0.4300324

_transform._transforms.2.autoregressive_net.blocks.1.linear_layers.0.mask f4 [10, 10]
0	0x3f800000	1.0
1	0x3f800000	1.0
2	0x3f800000	1.0
3	0x3f800000	1.0
4	0x3f800000	1.0
5	0x3f800000	1.0
6	0x3f800000	1.0
7	0x3f800000	1.0
8	0x3f800000	1.0
9	0x3f800000	1.0
10	0x3f800000	1.0
11	0x3f800000	1.0
12	0x3f800000	1.0
13	0x3f800000	1.0
14	0x3f800000	1.0
15	0x3f800000	1.0
16	0x3f800000	1.0
17	0x3f800000	1.0
18	0x3f800000	1.0
19	0x3f800000	1.0
20	0x3f800000	1.0
21	0x3f800000	1.0
22	0x3f800000	1.0
23	0x3f800000	1.0
24	0x3f800000	1.0
25	0x3f800000	1.0
26	0x3f800000	1.0
27	0x3f800000	1.0
28	0x3f800000	1.0
29	0x3f800000	1.0
30	0x3f800000	1.0
31	0x3f800000	1.0
32	0x3f800000	1.0
33	0x3f800000	1.0
34	0x3f800000	1.0
35	0x3f800000	1.0
36	0x3f800000	1.0
37	0x3f800000	1.0
38	0x3f800000	1.0
39	0x3f800000	1.0
40	0x3f800000	1.0
41	0x3f800000	1.0
42	0x3f800000	1.0
43	0x3f800000	1.0
44	0x3f800000	1.0
45	0x3f800000	1.0
46	0x3f800000	1.0
47	0x3f800000	1.0
48	0x3f800000	1.0
49	0x3f800000	1.0
50	0x3f800000	1.0
51	0x3f800000	1.0
52	0x3f800000	1.0
53	0x3f800000	1.0
54	0x3f800000	1.0
55	0x3f800000	1.0
56	0x3f800000	1.0
57	0x3f800000	1.0
58	0x3f800000	1.0
59	0x3f800000	1.0
60	0x3f800000	1.0
61	0x3f800000	1.0
62	0x3f800000	1.0
63	0x3f800000	1.0
64	0x3f800000	1.0
65	0x3f800000	1.0
66	0x3f800000	1.0
67	0x3f800000	1.0
68	0x3f800000	1.0
69	0x3f800000	1.0
70	0x3f800000	1.0
71	0x3f800000	1.0
72	0x3f800000	1.0
73	0x3f800000	1.0
74	0x3f800000	1.0
75	0x3f800000	1.0
76	0x3f800000	1.0
77	0x3f800000	1.0
78	0x3f800000	1.0
79	0x3f800000	1.0
80	0x3f800000	1.0
81	0x3f800000	1.0
82	0x3f800000	1.0
83	0x3f800000	1.0
84	0x3f800000	1.0
85	0x3f800000	1.0
86	0x3f800000	1.0
87	0x3f800000	1.0
88	0x3f800000	1.0
89	0x3f800000	1.0
90	0x3f800000	1.0
91	0x3f800000	1.0
92	0x3f800000	1.0
93	0x3f800000	1.0
94	0x3f800000	1.0
95	0x3f800000	1.0
96	0x3f800000	1.0
97	0x3f800000	1.0
98	0x3f800000	1.0
99	0x3f800000	1.0

_transform._transforms.2.autoregressive_net.blocks.1.linear_layers.1.weight f4 [10, 10]
0	0xbc8b17f3	-0.016979193
1	0x3c5bee6c	0.013423543
2	0xbe101b71	-0.14072968
3	0x3d83b2d5	0.06430594
4	0x3d3a2e33	0.045454215
5	0xbe3067e5	-0.17227133
6	0x3e30f0a7	0.17279302
7	0xbd570a6a	-0.052500166
8	0xbd5857e6	-0.0528182
9	0xbd1fafb6	-0.03898593
10	0x3d0b9d6c	0.034085676
11	0x3d51db02	0.051234253
12	0x3c856ef4	0.016288258
13	0xbc7e4ea9	-0.015521684
14	0x3c97c8fd	0.018528456
15	0x3d044784	0.032294765
16	0x3cd3d5c8	0.025858775
17	0x3c036b67	0.008021212
18	0x3e484b06	0.19559869
19	0x3df574a3	0.11985137
20	0xbd67f51c	-0.05663024
21	0xbe031b97	-0.12803493
22	0x3e7c746d	0.24653788
23	0x3eda72da	0.4266575
24	0xbe925b7d	-0.28585425
25	0x3f054329	0.52055603
26	0xbea5d5a6	-0.32389563
27	0xbdb74b17	-0.08949869
28	0x3d18bb55	0.03728803
29	0x3ed5e373	0.41775092
30	0x3b90e9da	0.0044224085
31	0x3dacc640	0.08436251
32	0x3e585503	0.2112618
33	0x3dc010b9	0.093781896
34	0x3b26c609	0.0025447628
35	0xbb0f1018	-0.002182966
36	0x3bad4ed5	0.0052889385
37	0x3dbd0eef	0.09231364
38	0x3d2cd8cd	0.042198945
39	0x3cac561f	0.02103716
40	0xbdfa08a1	-0.12208677
41	0xbdc62fea	-0.09677108
42	0xbe4e80b0	-0.20166278
43	0xbdb598ed	-0.08867059
44	0x3e311601	0.1729355
45	0x3c0162c0	0.007897079
46	0x3dc01417	0.09378832
47	0xbe736d30	-0.2377212
48	0x3e86a291	0.26295903
49	0x3e3edea6	0.18639621
50	0xbdd04e47	-0.1017118
51	0xbda9ea3c	-0.0829663
52	0xbdff5e30	-0.12469137
53	0xbe3e1928	-0.18564284
54	0x3e6dd45b	0.23225538
55	0x3df23347	0.118261866
56	0xbc5beb89	-0.013422855
57	0xbde0af43	-0.109709285
58	0x3e2afff9	0.16699208
59	0x3e06d5ac	0.13167447
60	0x3e0b025c	0.13575119
61	0x3e17e27d	0.14832492
62	0x3e80a756	0.25127667
63	0xbd8248c6	-0.06361537
64	0xbe64354a	-0.22285953
65	0x3dac31b5	0.08407918
66	0xbd37c058	-0.044861168
67	0x3dc9dc09	0.098564215
68	0x3d97cd8e	0.07412253
69	0xbba5cb4a	-0.0050596343
70	0x3df1e335	0.118109144
71	0x3de1a7a3	0.11018302
72	0x3e262740	0.1622591
73	0xbe74e262	-0.23914483
74	0xbb635ea8	-0.003469387
75	0x3e140f7e	0.14459035
76	0xbda19266	-0.078892514
77	0x3e2e60c9	0.17029108
78	0x3d3a5e4f	0.045500096
79	0xbd025ec0	-0.031828642
80	0x3daeeefe	0.08541678
81	0x3e15893e	0.14603135
82	0xbb0f2c82	-0.0021846597
83	0xbe858209	-0.2607577
84	0x3d0eeaf0	0.034892023
85	0x3dbb756f	0.09153258
86	0x3be75878	0.007060107
87	0x3cb7f746	0.022456776
88	0x3e22dc7a	0.15904418
89	0x3a96df74	0.0011510686
90	0xbd95ca6f	-0.07314002
91	0xbc4ee4f3	-0.012627828
92	0x3e310b4c	0.17289466
93	0xbbbb4079	-0.005714473
94	0x3c7ff47d	0.015622255
95	0x3dd9bb8b	0.10631474
96	0xbd422fa4	-0.047408715
97	0xbc812e99	-0.01576929
98	0x3df10e06	0.11770253
99	0x3dddb9da	0.10826464

_transform._transforms.2.autoregressive_net.blocks.1.linear_layers.1.bias f4 [10]
0	0x3dd44ffb	0.103668176
1	0x3d21f208	0.03953746
2	0xbd892571	-0.066965945
3	0xbe42a096	-0.19006571
4	0x3ec4f980	0.38471603
5	0x3ec20f2b	0.37902197
6	0xbe62280b	-0.22085588
7	0x3e31a8dd	0.17349572
8	0x3e9ea020	0.3098154
9	0xbd66ff49	-0.056395803

_transform._transforms.2.autoregressive_net.blocks.1.linear_layers.1.mask f4 [10, 10]
0	0x3f800000	1.0
1	0x3f800000	1.0
2	0x3f800000	1.0
3	0x3f800000	1.0
4	0x3f800000	1.0
5	0x3f800000	1.0
6	0x3f800000	1.0
7	0x3f800000	1.0
8	0x3f800000	1.0
9	0x3f800000	1.0
10	0x3f800000	1.0
11	0x3f800000	1.0
12	0x3f800000	1.0
13	0x3f800000	1.0
14	0x3f800000	1.0
15	0x3f800000	1.0
16	0x3f800000	1.0
17	0x3f800000	1.0
18	0x3f800000	1.0
19	0x3f800000	1.0
20	0x3f800000	1.0
21	0x3f800000	1.0
22	0x3f800000	1.0
23	0x3f800000	1.0
24	0x3f800000	1.0
25	0x3f800000	1.0
26	0x3f800000	1.0
27	0x3f800000	1.0
28	0x3f800000	1.0
29	0x3f800000	1.0
30	0x3f800000	1.0
31	0x3f800000	1.0
32	0x3f800000	1.0
33	0x3f800000	1.0
34	0x3f800000	1.0
35	0x3f800000	1.0
36	0x3f800000	1.0
37	0x3f800000	1.0
38	0x3f800000	1.0
39	0x3f800000	1.0
40	0x3f800000	1.0
41	0x3f800000	1.0
42	0x3f800000	1.0
43	0x3f800000	1.0
44	0x3f800000	1.0
45	0x3f800000	1.0
46	0x3f800000	1.0
47	0x3f800000	1.0
48	0x3f800000	1.0
49	0x3f800000	1.0
50	0x3f800000	1.0
51	0x3f800000	1.0
52	0x3f800000	1.0
53	0x3f800000	1.0
54	0x3f800000	1.0
55	0x3f800000	1.0
56	0x3f800000	1.0
57	0x3f800000	1.0
58	0x3f800000	1.0
59	0x3f800000	1.0
60	0x3f800000	1.0
61	0x3f800000	1.0
62	0x3f800000	1.0
63	0x3f800000	1.0
64	0x3f800000	1.0
65	0x3f800000	1.0
66	0x3f800000	1.0
67	0x3f800000	1.0
68	0x3f800000	1.0
69	0x3f800000	1.0
70	0x3f800000	1.0
71	0x3f800000	1.0
72	0x3f800000	1.0
73	0x3f800000	1.0
74	0x3f800000	1.0
75	0x3f800000	1.0
76	0x3f800000	1.0
77	0x3f800000	1.0
78	0x3f800000	1.0
79	0x3f800000	1.0
80	0x3f800000	1.0
81	0x3f800000	1.0
82	0x3f800000	1.0
83	0x3f800000	1.0
84	0x3f800000	1.0
85	0x3f800000	1.0
86	0x3f800000	1.0
87	0x3f800000	1.0
88	0x3f800000	1.0
89	0x3f800000	1.0
90	0x3f800000	1.0
91	0x3f800000	1.0
92	0x3f800000	1.0
93	0x3f800000	1.0
94	0x3f800000	1.0
95	0x3f800000	1.0
96	0x3f800000	1.0
97	0x3f800000	1.0
98	0x3f800000	1.0
99	0x3f800000	1.0

_transform._transforms.2.autoregressive_net.final_layer.weight f4 [4, 10]
0	0xbe6fe3ae	-0.23426697
1	0xba5ab0f7	-0.000834241
2	0x3dcec27b	0.10095688
3	0x3da9597c	0.08269021
4	0x3dd523f4	0.10407248
5	0x3d78c369	0.060733233
6	0xbdebbb8b	-0.1151038
7	0xbe6e3643	-0.23262887
8	0xbd86d045	-0.06582693
9	0xbe030946	-0.12796506
10	0xbbabcf2c	-0.0052432027
11	0x3b651fd3	0.0034961596
12	0x3d8f8b21	0.070089586
13	0xbc7c18de	-0.015386788
14	0x3cf4bdd0	0.029875666
15	0xbd03d8ed	-0.0321893
16	0x3dd4860f	0.10377132
17	0xbdedb5c4	-0.11606935
18	0x3e9228ac	0.28546655
19	0x3bacfe6f	0.0052793543
20	0xbcc3bbff	-0.023893354
21	0x3e305d6d	0.17223139
22	0x3c113511	0.00886275
23	0x3c83524b	0.016030451
24	0x3e0100c0	0.12597942
25	0x3e715664	0.23568112
26	0xbd062c6a	-0.0327572
27	0x3e0efb5b	0.13963072
28	0x3e466128	0.19373
29	0x3cc44cba	0.023962367
30	0xbe86e83e	-0.26349062
31	0x3ea75589	0.32682446
32	0x3c72ed8b	0.0148271425
33	0x3e8465eb	0.25859007
34	0xbe02e0e9	-0.12781109
35	0xbe11e351	-0.1424687
36	0x3f4b15ac	0.79329944
37	0x3dc5b520	0.096536875
38	0xbe39894b	-0.1811878
39	0x3e34be63	0.17650752

_transform._transforms.2.autoregressive_net.final_layer.bias f4 [4]
0	0x3f9cace3	1.2240261
1	0xbcfd5422	-0.030923907
2	0x3efcc139	0.49366167
3	0xbdcecfbe	-0.100982174

_transform._transforms.2.autoregressive_net.final_layer.mask f4 [4, 10]
0	0x00000000	0.0
1	0x00000000	0.0
2	0x00000000	0.0
3	0x00000000	0.0
4	0x00000000	0.0
5	0x00000000	0.0
6	0x00000000	0.0
7	0x00000000	0.0
8	0x00000000	0.0
9	0x00000000	0.0
10	0x00000000	0.0
11	0x00000000	0.0
12	0x00000000	0.0
13	0x00000000	0.0
14	0x00000000	0.0
15	0x00000000	0.0
16	0x00000000	0.0
17	0x00000000	0.0
18	0x00000000	0.0
19	0x00000000	0.0
20	0x3f800000	1.0
21	0x3f800000	1.0
22	0x3f800000	1.0
23	0x3f800000	1.0
24	0x3f800000	1.0
25	0x3f800000	1.0
26	0x3f800000	1.0
27	0x3f800000	1.0
28	0x3f800000	1.0
29	0x3f800000	1.0
30	0x3f800000	1.0
31	0x3f800000	1.0
32	0x3f800000	1.0
33	0x3f800000	1.0
34	0x3f800000	1.0
35	0x3f800000	1.0
36	0x3f800000	1.0
37	0x3f800000	1.0
38	0x3f800000	1.0
39	0x3f800000	1.0

_transform._transforms.4.autoregressive_net.initial_layer.weight f4 [10, 2]
0	0x40083ae3	2.1285942
1	0x3edb658c	0.42850912
2	0xbf00e435	-0.50348216
3	0xbf212802	-0.6295167
4	0x3f8466c6	1.0343864
5	0x3da1aa1f	0.07893776
6	0x3faddc55	1.3582865
7	0x3ea2ade7	0.31773302
8	0xb9f98d26	-0.00047598145
9	0xbe597d9c	-0.21239322
10	0x3f9a8a5e	1.2073476
11	0x3f27e35f	0.65581316
12	0x3d3236c4	0.04350926
13	0xbf11e5e5	-0.56991416
14	0xbec6b818	-0.38812327
15	0xbdb04f1c	-0.08608839
16	0x3ed0b2ac	0.40761316
17	0xbd0b758e	-0.034047656
18	0xbdf53de8	-0.11974698
19	0xbc1544c2	-0.009110631

_transform._transforms.4.autoregressive_net.initial_layer.bias f4 [10]
0	0xbe478805	-0.19485481
1	0xbf200c31	-0.625186
2	0x3f117421	0.56817824
3	0xbf887fcc	-1.0664
4	0xbe51a64e	-0.20473596
5	0xbeddfd9b	-0.43357548
6	0xbf6c0f5a	-0.92210925
7	0xbf12c692	-0.57334244
8	0xbeb1ce03	-0.34727487
9	0x3ce2a38a	0.027665872

_transform._transforms.4.autoregressive_net.initial_layer.mask f4 [10, 2]
0	0x3f800000	1.0
1	0x00000000	0.0
2	0x3f800000	1.0
3	0x00000000	0.0
4	0x3f800000	1.0
5	0x00000000	0.0
6	0x3f800000	1.0
7	0x00000000	0.0
8	0x3f800000	1.0
9	0x00000000	0.0
10	0x3f800000	1.0
11	0x00000000	0.0
12	0x3f800000	1.0
13	0x00000000	0.0
14	0x3f800000	1.0
15	0x00000000	0.0
16	0x3f800000	1.0
17	0x00000000	0.0
18	0x3f800000	1.0
19	0x00000000	0.0
